Assets/Models/Scena2/iRobotFinale.onnx (onnx, 88018 bytes, 10 tensors)

74 f4 [29]
0.47133315 0.33405903 0.14097893 0.37686992 0.36073354 0.4503038 0.30822235 0.12849744
0.35371438 0.34007904 0.49836645 0.4091526 0.14631069 0.40449527 0.373815 0.49894848
0.36155334 0.33120948 0.37507442 0.34459874 0.49894848 0.36155334 0.33120948 0.37507442
0.34459874 30.141521 23.234755 5.024926 4.530991
00000000: 9452 f13e c909 ab3e c85c 103e 18f5 c03e
00000010: 11b2 b83e 388e e63e 52cf 9d3e d594 033e
00000020: 0d1a b53e d71e ae3e e329 ff3e 737c d13e
00000030: 78d2 153e 011a cf3e ae64 bf3e 2d76 ff3e
00000040: 851d b93e 4a94 a93e c109 c03e 3f6f b03e
00000050: 2d76 ff3e 851d b93e 4a94 a93e c109 c03e
00000060: 3f6f b03e d621 f141 c7e0 b941 32cc a040
00000070: e1fd 9040

action_model._discrete_distribution.branches.0.bias f4 [3]
-0.056327093 -0.005607778 0.061527986
00000000: 3db7 66bd 74c1 b7bb c504 7c3d

action_model._discrete_distribution.branches.0.weight f4 [3, 128]
-0.008632881 0.06718475 0.08209353 -0.007663527 -0.04738618 0.046228547 -0.016648447 -0.034488533
0.013387267 -0.04497418 0.031324472 -0.06680475 -0.16085562 0.05284062 0.024773289 0.039868437
-0.0007352332 0.054469228 0.099379554 -0.07279316 -0.050093714 -0.094901666 0.024551598 0.056860983
-0.06026993 0.0031843614 0.023402197 -0.09155853 -0.12791984 -0.007957746 -0.077623054 0.023511715
-0.14313681 -0.035804782 0.00287941 0.08421996 0.05535578 -0.056604814 0.038367637 0.019651122
-0.03957127 -0.1330436 -0.015115361 -0.09868987 -0.00335306 0.020310992 -0.036510188 -0.029416446
0.1109568 -0.106046975 -0.17048422 0.056821793 0.03457779 -0.056914724 -0.032500654 -0.10880556
-0.013077198 -0.061776392 -0.022662727 0.01735444 -0.0806928 -0.042658057 -0.029198803 0.001202463
0.0153186815 -0.10112835 -0.11398977 -0.13895485 -0.000864632 -0.041530527 -0.0010220737 -0.119475
0.037113085 0.004776005 -0.09290868 -0.0023571358 0.03833133 0.0018348478 -0.017719805 -0.013818697
-0.061681096 -0.008525993 0.06340121 0.025460519 0.10217909 -0.0192924 0.08400304 0.0064129476
-0.10963582 0.14540872 0.0061040693 0.117223255 -0.07156146 -0.0750491 0.0583996 0.00821743
-0.08013788 0.07590627 0.022545518 0.039825052 0.10337527 -0.022410588 -0.053100683 -0.0069813686
0.032087706 0.006166883 0.014039174 0.097202264 -0.08755657 -0.05550408 0.0661547 -0.09992288
-0.07589771 -0.01351021 -0.0649299 0.02399264 -0.08163279 0.05180616 -0.089171745 -0.00053492293
0.018154223 0.068871275 0.041976057 -0.10148498 -0.04520699 0.007537038 0.044247452 0.04486887
-0.03272299 -0.058542684 0.036756843 0.02927377 0.06857648 0.03967171 0.027907318 0.122508146
-0.06417424 0.16014959 0.13116077 0.13343365 0.096468896 -0.024233554 -0.09946373 -0.018738633
0.15816711 -0.14729379 -0.102976695 0.010762071 -0.04438955 -0.011352324 0.017118163 0.055582266
0.009865853 0.06071451 -0.020580795 0.06519659 0.11777202 -0.14679268 0.0844348 -0.021270193
0.12120413 0.0073509947 0.036796093 0.0016995885 0.12141348 0.08052386 -0.08050258 -0.039019763
0.02950465 0.032554474 0.11272794 0.10785682 -0.06064103 -0.14452763 0.0014924201 0.04713064
-0.062520675 0.028398078 0.0857249 0.038641132 -0.15058886 -0.16442965 -0.10544418 0.10343621
0.042149037 0.070800774 -0.076996416 0.0011288591 0.075115934 0.024488809 0.07796813 -0.11910182
0.012171709 0.032622453 0.09397625 0.017517537 -0.08955619 0.15170223 -0.08042335 0.11175457
0.09748877 0.010271731 0.026457699 -0.034530647 0.046191044 0.06901539 -0.06639084 -0.05249653
0.019189313 -0.021281052 0.0351058 0.041085638 -0.13509029 -0.10470189 -0.03205688 -0.024009217
0.03095436 -0.12807703 -0.039534926 0.04741405 -0.0562754 -0.062262893 -0.032466944 -0.049069308
-0.09990678 0.05689186 0.07945206 -0.06552461 -0.06935787 -0.07227673 -0.14397322 -0.020576982
-0.061489563 0.010356458 0.02100419 -0.09559448 0.04763859 0.029774135 0.0977652 0.023807028
0.13597175 0.048361994 0.085773215 0.0028397003 0.07315904 -0.17125332 -0.07169808 -0.13439749
0.1019842 -0.092453666 0.083706826 0.017921004 -0.010271406 -0.062423326 -0.19049333 0.08408289
00000000: ed70 0dbc 2998 893d a720 a83d 531e fbbb
00000010: 0318 42bd 255a 3d3d 5362 88bc d943 0dbd
00000020: 4456 5b3c d936 38bd 174e 003d eed0 88bd
00000030: 56b7 24be 686f 583d 5af1 ca3c 164d 233d
00000040: aabc 40ba 201b 5f3d 8287 cb3d 9514 95bd
00000050: 112f 4dbd ce5b c2bd 6f20 c93c 10e7 683d
00000060: 9add 76bd b8b0 503b f7b5 bf3c 0a83 bbbd
00000070: 6bfd 02be 3561 02bc d6f8 9ebd a49b c03c
00000080: 7592 12be 09a8 12bd 7cb4 3c3b 847b ac3d
00000090: bebc 623d 73da 67bd 6227 1d3d 64fb a03c
000000a0: 7c15 22bd 953c 08be 6ba6 77bc ea1d cabd
000000b0: 03bf 5bbb 3d63 a63c b58b 15bd c2fa f0bc
000000c0: 523d e33d 282f d9bd 6a93 2ebe f8bd 683d
000000d0: 71a1 0d3d 6a1f 69bd 681f 05bd 73d5 debd
000000e0: be41 56bc 3e09 7dbd 2fa7 b9bc e62a 8e3c
000000f0: 4442 a5bd 37ba 2ebd 5432 efbc f79b 9d3a
00000100: 35fb 7a3c 611c cfbd 7873 e9bd 2e4a 0ebe
00000110: 79a8 62ba ea1b 2abd 1af7 85ba 4faf f4bd
00000120: e403 183d 0980 9c3b e846 bebd 2d7a 1abb
00000130: 5001 1d3d 477f f03a 2029 91bc d167 62bc
00000140: 51a5 7cbd 9bb0 0bbc 7ed8 813d 9492 d03c
00000150: 4543 d13d 180b 9ebc c909 ac3d b423 d23b
00000160: bf88 e0bd 06e6 143e a504 c83b bf12 f03d
00000170: d18e 92bd 58b3 99bd 6b34 6f3d 66a2 063c
00000180: 541f a4bd bf74 9b3d 61b1 b83c 981f 233d
00000190: 6ab6 d33d 6996 b7bc 1a80 59bd f7c3 e4bb
000001a0: 666e 033d 9013 ca3b 9004 663c fb11 c73d
000001b0: dc50 b3bd 3f58 63bd 1e7c 873d 5ea4 ccbd
000001c0: 4270 9bbd ee59 5dbc f8f9 84bd 378c c43c
000001d0: 182f a7bd b232 543d ad9f b6bd 123a 0cba
000001e0: 2ab8 943c 620c 8d3d 16ef 2b3d 5bd7 cfbd
000001f0: f72a 39bd 42f9 f63b d13c 353d 6cc8 373d
00000200: 8b08 06bd 74ca 6fbd 588e 163d 8ccf ef3c
00000210: d371 8c3d ce7e 223d e39d e43c 8de5 fa3d
00000220: c96d 83bd 41fe 233e 024f 063e d5a2 083e
00000230: 7c91 c53d 7285 c6bc a4b3 cbbd c381 99bc
00000240: 8ff6 213e 2fd4 16be 72e5 d2bd 6653 303c
00000250: d1d1 35bd 19ff 39bc 643b 8c3c 3baa 633d
00000260: 63a4 213c c7af 783d 0e99 a8bc ca85 853d
00000270: 7532 f13d d250 16be 27ec ac3d d43e aebc
00000280: df39 f83d 9de0 f03b 80b7 163d bac4 de3a
00000290: a1a7 f83d b2e9 a43d 89de a4bd 30d3 1fbd
000002a0: bcb3 f13c d757 053d e8dd e63d 09e4 dc3d
000002b0: bb62 78bd 0dff 13be 4f9d c33a 0f0c 413d
000002c0: d70a 80bd 16a3 e83c 8990 af3d 2a46 1e3d
000002d0: f733 1abe 3f60 28be 1ef3 d7bd 5dd6 d33d
000002e0: 78a4 2c3d ffff 903d 4cb0 9dbd 3af6 933a
000002f0: 62d6 993d c19c c83c c1ad 9f3d a8eb f3bd
00000300: d96b 473c 1f9f 053d 9f76 c03d f080 8f3c
00000310: 3c69 b7bd d457 1b3e ffb4 a4bd 94df e43d
00000320: 31a8 c73d c34a 283c d1bd d83c 0270 0dbd
00000330: d232 3d3d f157 8d3d ecf7 87bd 9a06 57bd
00000340: e832 9d3c 9a55 aebc 19cb 0f3d 6a49 283d
00000350: 1c55 0abe f26d d6bd 134e 03bd faae c4bc
00000360: ff93 fd3c a026 03be 60ef 21bd 3c35 423d
00000370: 0981 66bd 6007 7fbd 0ffc 04bd e6fc 48bd
00000380: ed9b ccbd 7007 693d c3b7 a23d c431 86bd
00000390: 800b 8ebd d205 94bd b76d 13be 0f91 a8bc
000003a0: 7bdc 7bbd 22ae 293c fb10 ac3c 0ac7 c3bd
000003b0: af20 433d e3e8 f33c 1f39 c83d f506 c33c
000003c0: 2e3c 0b3e 3a17 463d dea9 af3d 441a 3a3b
000003d0: 68d4 953d 085d 2fbe 71d6 92bd 7f9f 09be
000003e0: 18dd d03d 5958 bdbd 7c6e ab3d 12cf 923c
000003f0: 6649 28bc 9aaf 7fbd af10 43be a633 ac3d

action_model._discrete_distribution.branches.1.bias f4 [3]
-0.0197711 0.06908472 -0.05185888
00000000: 00f7 a1bc 4a7c 8d3d fa69 54bd

action_model._discrete_distribution.branches.1.weight f4 [3, 128]
-0.00066414656 -0.022695428 0.024226008 0.18129343 -0.02556701 -0.019867564 0.1372235 0.05046374
-0.11806797 0.10277101 0.11226321 -0.061638612 0.020976735 -0.071127854 -0.13737231 -0.0038810258
0.062345482 -0.008666418 0.14440393 0.21103568 -0.04900117 0.022803158 0.1000226 0.12016681
0.019737912 0.0054999013 -0.041182145 -0.066641316 -0.07108983 0.0042887214 -0.105433665 0.0019901043
0.060306698 -0.034913328 -0.063728034 -0.034799647 -0.00027953717 -0.05900566 -0.057401057 0.06546221
-0.11191622 -0.0828236 -0.04726017 -0.09664845 -0.078223445 -0.09023644 -0.010822285 -0.023734326
0.03423531 -0.10141568 -0.008160672 -0.04789867 0.061257124 0.016625056 -0.006573094 0.09089616
-0.0073822415 0.14502786 -0.06748052 -0.07093872 0.059219938 -0.10602712 0.10067948 -0.024721831
-0.11592446 -0.046339408 0.08716396 -0.028840087 -0.03269131 0.00120232 0.0498244 0.16406032
0.04040912 -0.019745778 0.11505234 -0.11937756 0.1004756 0.11665429 0.0057583735 -0.028828213
-0.030299433 -0.0038714192 0.07012463 -0.11043761 -0.05486449 0.026786484 0.006874133 -0.042209055
0.042160887 0.040443555 -0.04867796 0.10138758 -0.0073277685 0.023091106 -0.020579347 0.07774416
-0.044998918 -0.13431466 -0.06875278 -0.05097211 0.10509413 0.0608659 0.031993248 -0.056258198
0.011106963 0.10643853 0.05470032 -0.05682508 -0.055212002 0.05762715 -0.11996395 -0.08413276
0.08967525 -0.019673819 -0.029603781 -0.023108961 -0.0414232 -0.041225277 -0.011426859 0.040660113
-0.054765783 -0.051614325 0.106251135 0.04642731 -0.022886856 -0.09810996 -0.0799384 0.12316586
0.08484473 0.0802186 -0.063308716 -0.05356303 -0.10970763 -0.031277288 -0.14341041 0.011578764
-0.0033456695 -0.053920135 -0.130427 0.107153326 -0.008336972 0.05067371 0.03885458 -0.093893066
-0.04233 -0.13506573 -0.13945511 -0.20269905 -0.13743822 -0.014242369 -0.122272596 -0.124135025
0.11213453 0.06999969 0.02106918 0.053334024 0.06808987 0.07024129 0.01686565 0.050743494
-0.04736661 0.059850268 -0.15711433 -0.10276275 0.0014120939 -0.045140084 0.034713402 0.038468484
0.0120586585 0.029322239 0.065818176 0.08006023 -0.029089162 0.071412146 -0.07859298 0.112427935
-0.044181563 -0.026658488 0.016689328 0.10493754 -0.14207608 -0.05741752 0.038037073 -0.07647186
0.096643984 -0.14825377 0.053058613 -0.043981858 -0.08907097 -0.07922168 -0.14971101 0.10010304
0.10497588 0.111517936 -0.08925977 0.044695806 0.0033232654 -0.0034151615 -0.09639753 -0.16528054
0.042778775 0.12582849 -0.18009718 -0.10867401 -0.12979822 -0.06050093 -0.010122973 -0.046008162
0.08369537 0.054683976 -0.12217748 0.15611771 0.027640037 -0.054622177 0.06299359 0.059849106
0.009602782 -0.047796387 -0.09217266 -0.10527625 0.036564358 -0.030726593 -0.13774604 -0.04185523
0.009778008 -0.027262863 -0.007362098 0.006996493 0.044468075 -0.08082115 -0.0106544355 0.08123028
-0.12459045 -0.030183835 0.08342912 0.08434965 0.10826865 0.0076606493 0.01766788 -0.057469767
-0.08936461 -0.12314781 -0.042159766 0.07385569 0.0335773 0.019357236 0.0060297484 0.015496119
0.017131718 -0.12470133 -0.021848222 -0.0077113393 0.05939666 0.1012691 0.06867095 -0.029522019
00000000: 1f1a 2eba c3eb b9bc 9f75 c63c fca4 393e
00000010: e871 d1bc 4dc1 a2bc 5184 0c3e 11b3 4e3d
00000020: 9fcd f1bd 9b79 d23d 41ea e53d c578 7cbd
00000030: 67d7 ab3c 7bab 91bd 54ab 0cbe cf58 7ebb
00000040: fa5d 7f3d 97fd 0dbc a0de 133e bd19 583e
00000050: 73b5 48bd b0cd ba3c a6d8 cc3d 041a f63d
00000060: 67b1 a13c 8438 b43b 9cae 28bd 3e7b 88bd
00000070: 8b97 91bd 6788 8c3b 9bed d7bd 696c 023b
00000080: 2804 773d 4701 0fbd d883 82bd 138a 0ebd
00000090: d88e 92b9 ebaf 71bd 5f1d 6bbd 0d11 863d
000000a0: 5534 e5bd 6b9f a9bd e193 41bd 9fef c5bd
000000b0: 9d33 a0bd e2cd b8bd f44f 31bc 7d6e c2bc
000000c0: 533a 0c3d 06b3 cfbd 57b4 05bc 6531 44bd
000000d0: c0e8 7a3d 4531 883c 1c63 d7bb c427 ba3d
000000e0: bbe6 f1bb 2f82 143e 3a33 8abd 5248 91bd
000000f0: 9b90 723d bf24 d9bd 0b31 ce3d 7085 cabc
00000100: ce69 edbd 64ce 3dbd 0583 b23d 0c42 ecbc
00000110: 53e7 05bd 2a97 9d3a ac14 4c3d 6eff 273e
00000120: 0984 253d e6c1 a1bc 90a0 eb3d 397c f4bd
00000130: 27c6 cd3d 72e8 ee3d bdb0 bc3b 2529 ecbc
00000140: 8436 f8bc a3b7 7dbb 819d 8f3d 1d2d e2bd
00000150: 96b9 60bd 546f db3c 6840 e13b 67e3 2cbd
00000160: e5b0 2c3d 24a8 253d 8a62 47bd 4ba4 cf3d
00000170: c71d f0bb 8f29 bd3c 0596 a8bc 5538 9f3d
00000180: c950 38bd c889 09be 42ce 8cbd 22c8 50bd
00000190: 973b d73d 864e 793d 5a0b 033d ff6e 66bd
000001a0: fbf9 353c 72fc d93d 710d 603d 6ac1 68bd
000001b0: fb25 62bd 720a 6c3d a9af f5bd cc4d acbd
000001c0: a8a7 b73d fd2a a1bc a183 f2bc 014f bdbc
000001d0: 60ab 29bd d6db 28bd b837 3bbc 388b 263d
000001e0: 1652 60bd 8b69 53bd 329a d93d 902a 3e3d
000001f0: 377d bbbc e0ed c8bd beb6 a3bd 623e fc3d
00000200: 13c3 ad3d a649 a43d 00a8 81bd e864 5bbd
00000210: 65ae e0bd 9d1c 00bd 2eda 12be dbb4 3d3c
00000220: 0543 5bbb 5cdb 5cbd a88e 05be 3473 db3d
00000230: cc97 08bc 3c8f 4f3d fb25 1f3d 024b c0bd
00000240: 3962 2dbd ac4e 0abe 52cd 0ebe 5790 4fbe
00000250: 9bbc 0cbe d358 69bc 0e6a fabd 813a febd
00000260: caa6 e53d ff5b 8f3d 4699 ac3c c774 5a3d
00000270: b472 8b3d aada 8f3d d529 8a3c 69d8 4f3d
00000280: 7e03 42bd 8e25 753d 94e2 20be 4775 d2bd
00000290: 0216 b93a cfe4 38bd a42f 0e3d 2191 1d3d
000002a0: ae91 453c 3135 f03c aecb 863d 9ef6 a33d
000002b0: 654c eebc 8840 923d 5bf5 a0bd 9e40 e63d
000002c0: baf7 34bd e762 dabc 0fb8 883c 7ee9 d63d
000002d0: 647c 11be a22e 6bbd c3cc 1b3d 479d 9cbd
000002e0: 48ed c53d d6cf 17be fd53 593d 5226 34bd
000002f0: d76a b6bd fa3e a2bd d84d 19be d302 cd3d
00000300: 98fd d63d 8463 e43d d4cd b6bd f312 373d
00000310: 24cb 593b e7d0 5fbb 116c c5bd 4d3f 29be
00000320: cc38 2f3d 2fd9 003e 656b 38be 7b90 debd
00000330: d3e9 04be d3cf 77bd d3da 25bc 0e73 3cbd
00000340: 7a68 ab3d 4efc 5f3d 3038 fabd 52dd 1f3e
00000350: 5c6d e23c 81bb 5fbd c902 813d 5624 753d
00000360: fd54 1d3c 25c6 43bd 05c5 bcbd 139b d7bd
00000370: 82c4 153d 56b6 fbbc 4c0d 0dbe 6470 2bbd
00000380: f033 203c 5e56 dfbc c13d f1bb d642 e53b
00000390: 2824 363d 8f85 a5bd f18f 2ebc 105c a63d
000003a0: 4729 ffbd 1744 f7bc e3dc aa3d 82bf ac3d
000003b0: f4bb dd3d 2f06 fb3b 3bbc 903c 6b65 6bbd
000003c0: cb04 b7bd eb34 fcbd b8af 2cbd a741 973d
000003d0: 5a88 093d 1193 9e3c 3295 c53b 6fe3 7d3c
000003e0: d157 8c3c 6963 ffbd 0bfb b2bc 67af fcbb
000003f0: ea49 733d 2d66 cf3d 5ba3 8c3d 29d8 f1bc

network_body.linear_encoder.seq_layers.0.bias f4 [128]
0.04439321 0.0047349907 -0.04471895 -0.031245226 -0.03657791 -0.008797772 0.014825161 0.037720166
0.01781946 -0.022168158 -0.04572658 0.018153038 -0.030732535 0.015569839 0.009341662 0.00771354
0.03031908 -0.015422129 -0.064120404 -0.0069442415 0.040751368 -0.05899373 -0.0075133867 -0.030485567
-0.058554754 0.080628954 0.018870024 -0.09105969 0.047238216 -0.069524616 0.0028111816 0.07592594
-0.024306454 0.0032119488 0.036901608 -0.022092665 -0.0408729 -0.010550375 0.038920477 0.02642791
0.036589753 0.009564976 -0.059108716 0.06333357 -0.09098183 -0.03786942 -0.023463365 -0.021987315
0.050575282 -0.008546828 0.016470093 -0.0002506553 0.0056943605 0.002437116 -0.030747727 0.03835234
0.00698696 0.06364866 0.042934425 -0.04294072 0.0008115401 -0.050544575 0.003448992 -0.04344955
-0.018715246 0.05040885 0.0014326759 -0.0114512285 0.01734717 0.060670357 0.031039782 -0.041555002
0.08311046 0.04060523 0.029967371 -0.017441405 -0.051546983 -0.006205544 -0.04146558 0.04409608
0.045597903 0.01879671 -0.0035202126 -0.040134635 0.04515562 0.044354934 -0.029924795 -0.03285021
0.053058226 0.014354837 0.008214962 0.05743926 -0.057188988 -0.03969721 0.017815087 0.022630002
-0.010706943 0.0058624577 0.0643155 0.030978145 0.06926569 -0.028533604 0.07831623 -0.015709281
0.05662201 0.07313765 -0.005215578 -0.061843272 -0.029083926 -0.0029816504 -0.033049274 0.027958563
0.041622605 0.033289842 -0.061023258 -0.011350991 -0.015775654 -0.0052972035 -0.0066314465 0.037761606
0.07575169 -0.09400511 -0.015691271 0.007085954 0.0050750496 0.010983909 0.022364965 -0.07296448
00000000: a8d5 353d fb27 9b3b 382b 37bd fdf5 ffbc
00000010: b8d2 15bd 8824 10bc 3be5 723c 7680 1a3d
00000020: 1efa 913c ff99 b5bc cb4b 3bbd aeb5 943c
00000030: ccc2 fbbc a318 7f3c c50d 193c ddc1 fc3b
00000040: b85f f83c 19ad 7cbc 8f51 83bd 858c e3bb
00000050: e8ea 263d 69a3 71bd db32 f6bb debc f9bc
00000060: 1cd7 6fbd cb20 a53d 4f95 9a3c 817d babd
00000070: dc7c 413d ec62 8ebd cd3b 383b 0f7f 9b3d
00000080: 541e c7bc 8f7f 523b 2426 173d adfb b4bc
00000090: 586a 27bd 7bdb 2cbc 146b 1f3d 587f d83c
000000a0: 23df 153d 6bb6 1c3c fb1b 72bd 08b5 813d
000000b0: af54 babd f71c 1bbd 3e36 c0bc be1e b4bc
000000c0: 0728 4f3d ff07 0cbc 4aec 863c 636a 83b9
000000d0: c297 ba3b 06b8 1f3b a8e2 fbbc 5817 1d3d
000000e0: def2 e43b 3b5a 823d 02dc 2f3d 9ce2 2fbd
000000f0: 89bd 543a d407 4fbd 7c08 623b 28f8 31bd
00000100: b750 99bc 8379 4e3d a0c8 bb3a ef9d 3bbc
00000110: a71b 8e3c 7b81 783d 2447 fe3c 9435 2abd
00000120: d135 aa3d ab51 263d 227e f53c 47e1 8ebc
00000130: ee22 53bd e057 cbbb d0d7 29bd 179e 343d
00000140: dec4 3a3d 8ffb 993c 5eb3 66bb 3764 24bd
00000150: 19f5 383d 85ad 353d d824 f5bc f18d 06bd
00000160: 9553 593d 8d30 6b3c 0c98 063c 6e45 6b3d
00000170: 003f 6abd 8b99 22bd f2f0 913c 8e62 b93c
00000180: 2d6c 2fbc dc19 c03b d8b7 833d e1c5 fd3c
00000190: 2cdb 8d3d 4ebf e9bc 4264 a03d c0b0 80bc
000001a0: 7bec 673d 31c9 953d 70e7 aabb 5f4f 7dbd
000001b0: 6a41 eebc cb67 43bb ad5e 07bd 5b09 e53c
000001c0: 777c 2a3d ee5a 083d 86f3 79bd 82f9 39bc
000001d0: f23b 81bc 2a94 adbb 9b4c d9bb eaab 1a3d
000001e0: b423 9b3d c085 c0bd fb8a 80bc 4a31 e83b
000001f0: 9a4c a63b daf5 333c bb36 b73c 676e 95bd

network_body.linear_encoder.seq_layers.0.weight f4 [128, 29]
0.06506372 -0.14456046 0.3886825 0.041796017 -0.042881876 0.26968834 -0.1320175 -0.03813565
0.3792809 -0.020803666 0.038134165 -0.01415401 0.45985493 0.099789426 0.25128713 0.017946754
-0.12860857 0.024399372 0.06591793 0.18032473 0.10673446 -0.03397941 -0.13253249 -0.024604036
-0.40383178 -0.09456246 0.11211521 -0.3012953 0.1255161 0.14850792 0.0026553264 0.27556008
0.075657435 -0.29479182 -0.18384738 0.009239219 -0.32380694 -0.07132538 -0.31176206 -0.04338867
-0.05471521 -0.056933824 0.302734 -0.1413312 0.24492599 0.40756798 -0.17124338 -0.1926499
-0.30085957 -0.06281139 0.42373964 -0.20657903 -0.121105984 0.25745806 -0.19395432 -0.2526065
-0.27964702 0.05350905 0.30976143 -0.08600085 -0.5324681 -0.35621336 -0.19787234 -0.1936884
0.16312762 -0.48084652 -0.15658656 -0.1698086 -0.1814682 0.03302917 -0.2649426 -0.042700443
-0.2169613 0.022898635 -0.34817812 -0.06560206 0.032970767 -0.11318155 0.4846261 0.011930021
-0.41588637 0.01882999 0.040642034 0.07707061 0.30341148 -0.0041510756 -0.04923615 0.09454546
-0.45372048 0.33268583 0.1440973 -0.19330497 -0.30089784 -0.10099544 -0.008614638 0.024000207
-0.016909886 0.2002257 0.2860761 0.2369169 -0.2671332 -0.30912963 -0.21431561 -0.02351583
0.3590645 0.051230785 0.0497736 -0.2986167 0.017799351 0.2778985 0.07848445 0.033175126
0.25221813 0.40465364 0.010799795 0.14175318 0.09727797 0.055192158 -0.26868796 0.034326594
-0.443129 0.21725467 0.27252224 -0.18984938 -0.045267165 -0.21655785 -0.040361743 0.4467003
0.039085317 -0.2666277 0.4023661 0.06708511 -0.15716088 -0.021738553 0.17610875 -0.3279099
0.007215103 0.009910141 -0.20526895 0.054088086 -0.0392833 -0.23458354 -0.25538042 -0.27513596
0.15956302 -0.087307505 -0.00289845 0.122562885 0.15339619 0.06595828 0.11856829 0.031619944
0.15281565 -0.05643506 -0.07971198 -0.10756035 0.02085093 0.3535995 -0.055378865 0.0039951154
0.003884276 0.026100976 0.24965848 -0.26605743 0.009559535 -0.052548967 0.22948782 0.10749748
-0.23909843 -0.19226028 0.41349977 0.11076943 0.1283206 0.16323884 0.15781395 0.0595301
-0.19776224 -0.3308514 -0.19710712 -0.032731336 0.22519816 -0.50811034 -0.42674962 -0.2749975
0.27261257 -0.3590603 -0.15388173 0.050556917 -0.2717844 0.16158952 0.12850292 0.06523836
-0.04647889 0.5691483 0.029152831 -0.10545409 0.049952727 0.38236162 -0.22797792 0.2307856
0.0683488 -0.008663911 -0.2464835 -0.118358046 -0.55584306 -0.23951395 -0.31477594 0.074036345
-0.01839246 -0.33180135 0.022710418 -0.11996537 0.0038643046 0.19370292 0.28400767 -0.40036052
0.27289087 -0.320617 0.3130823 0.14632955 0.37674433 -0.21449728 -0.24422348 0.12990257
-0.045648824 -0.022079343 -0.39358836 0.03547195 0.06853183 0.24374147 0.25243118 0.4215654
0.14868589 -0.24531552 -0.08533324 0.09307402 0.3108115 0.12875539 -0.36614436 0.11148962
0.07262444 -0.03403621 -0.056975227 -0.11972584 -0.25498384 -0.21337251 0.0051138503 -0.029905748
-0.077745706 -0.046149787 0.008299092 0.1895432 -0.027141796 0.02632477 -0.08775641 0.1863077
00000000: 2140 853d a807 14be 6501 c73e 4d32 2b3d
00000010: e8a4 2fbd 9714 8a3e 982f 07be 2134 1cbd
00000020: 1b31 c23e 736c aabc 9232 1c3d 39e6 67bc
00000030: 1b72 eb3e 665e cc3d b5a8 803e 1205 933c
00000040: f7b1 03be 31e1 c73c fbff 863d 0ca7 383e
00000050: 9997 da3d fe2d 0bbd 99b6 07be 678e c9bc
00000060: 0ac3 cebe f7a9 c1bd a99c e53d 6143 9abe
00000070: 4b87 003e 7612 183e fc04 2e3b 3616 8d3e
00000080: 49f2 9a3d f4ee 96be 7d42 3cbe 1860 173c
00000090: 06ca a5be 0a13 92bd 479f 9fbe 51b8 31bd
000000a0: 0e1d 60bd 7133 69bd f3ff 9a3e 20b9 10be
000000b0: e1cd 7a3e c0ac d03e 6d5a 2fbe 0446 45be
000000c0: 440a 9abe 42a3 80bd 67f4 d83e 7489 53be
000000d0: 6a06 f8bd 8bd1 833e f69b 46be a455 81be
000000e0: e52d 8fbe 4e2c 5b3d 0d99 9e3e 3721 b0bd
000000f0: d44f 08bf 9961 b6be 0c9f 4abe 4056 46be
00000100: ed0a 273e 8431 f6be 3a58 20be 4ee2 2dbe
00000110: cdd2 39be 9849 073d 8ea6 87be a9e6 2ebd
00000120: 1a2b 5ebe eb95 bb3c 6744 b2be 5f5a 86bd
00000130: 5b0c 073d bacb e7bd ea20 f83e 2376 433c
00000140: 0fef d4be 5a41 9a3c 4378 263d 32d7 9d3d
00000150: c058 9b3e bf05 88bb d8ab 49bd 0da1 c13d
00000160: 0d4e e8be cc55 aa3e 3e8e 133e bdf1 45be
00000170: 480f 9abe b2d6 cebd 6924 0dbc 159c c43c
00000180: 9a86 8abc f707 4d3e 9178 923e 589a 723e
00000190: afc5 88be 3d46 9ebe 8d75 5bbe 45a4 c0bc
000001a0: 4dd7 b73e 5fd7 513d 67df 4b3d 4ae4 98be
000001b0: f2cf 913c b648 8e3e 75bc a03d a4e2 073d
000001c0: bc22 813e c32e cf3e a0f1 303c bf27 113e
000001d0: ac39 c73d 2c11 623d 7891 89be 0b9a 0c3d
000001e0: cee1 e2be 0278 5e3e 0988 8b3e e067 42be
000001f0: 106a 39bd 57c1 5dbe 5b52 25bd e7b5 e43e
00000200: ed17 203d 6d83 88be ee02 ce3e eb63 893d
00000210: c8ee 20be 0d15 b2bc da55 343e cee3 a7be
00000220: ac6c ec3b 255e 223c 0632 52be 788b 5d3d
00000230: 87e7 20bd ab36 70be 39c1 82be 9fde 8cbe
00000240: 7d64 233e 47ce b2bd ecf3 3dbb 4002 fb3d
00000250: e413 1d3e 2215 873d eed3 f23d ea83 013d
00000260: b57b 1c3e 7328 67bd 0940 a3bd 9a48 dcbd
00000270: 92cf aa3c fe0a b53e f3d4 62bd 75e9 823b
00000280: 568f 7e3b b7d1 d53c 79a6 7f3e ae38 88be
00000290: 999f 1c3c 963d 57bd dbfe 6a3e a427 dc3d
000002a0: 38d6 74be e1df 44be 3eb6 d33e 15db e23d
000002b0: 7a66 033e 1528 273e fb99 213e d6d5 733d
000002c0: 2f82 4abe 5b65 a9be 73d6 49be 4b11 06bd
000002d0: 599a 663e 8513 02bf ed7e dabe 79cc 8cbe
000002e0: e093 8b3e c0d6 b7be 2c93 1dbe c514 4f3d
000002f0: 5327 8bbe b977 253e 4596 033e b09b 853d
00000300: a660 3ebd b4b3 113f ebd1 ee3c 50f8 d7bd
00000310: 3b9b 4c3d e7c4 c33e 0b73 69be 0f53 6c3e
00000320: 75fa 8b3d 14f3 0dbc 2c66 7cbe b465 f2bd
00000330: bb4b 0ebf 2543 75be 502a a1be 5ea0 973d
00000340: c9ab 96bc dee1 a9be 330b ba3c 67b0 f5bd
00000350: 4640 7d3b 0f5a 463e 7469 913e 0efc ccbe
00000360: 5ab8 8b3e e927 a4be 534c a03e 6ad7 153e
00000370: a2e4 c03e 2da5 5bbe b815 7abe 2e05 053e
00000380: 43fa 3abd bddf b4bc 6a84 c9be 094b 113d
00000390: 6b5a 8c3d 5d97 793e a93e 813e 6cd7 d73e
000003a0: 1d41 183e fe33 7bbe 32c3 aebd 989d be3d
000003b0: af22 9f3e 74d8 033e 4677 bbbe ab54 e43d
000003c0: 1fbc 943d 8e69 0bbd db5e 69bd d232 f5bd
000003d0: 3e8d 82be 537e 5abe 1692 a73b e6fc f4bc
000003e0: 2439 9fbd 8f07 3dbd eaf8 073c 9d17 423e
000003f0: 7958 debc 0ba7 d73c a2b9 b3bd 72c7 3e3e

network_body.linear_encoder.seq_layers.2.bias f4 [128]
0.0040141013 -0.025520846 -0.065091506 -0.032739576 -0.033558678 -0.08861894 -0.06589292 -0.016437665
0.013336853 -0.054302722 -0.031054243 0.03187456 0.028666966 -0.00015227793 0.05678061 -0.099430025
-0.0050731865 -0.004802128 -0.076603256 -0.014836102 -0.06864307 -0.004452717 -0.09037573 -0.098461404
-0.009921221 -0.08108898 -0.072364666 -0.016839843 0.01183346 0.06808658 -0.030353732 -0.052520443
-0.036309503 -0.056296967 -0.062028345 -0.040847734 -0.06718998 -0.016640358 -0.07551573 0.05138903
-0.010072039 0.004928125 0.022079822 -0.019372359 -0.01727047 0.0063530034 -0.020168722 0.010980004
-0.07082859 0.021017672 0.038615428 0.0025255077 -0.00019155406 0.004110484 0.007928072 -0.008893974
0.0315501 -0.029450603 0.011029841 -0.08959278 -0.036649115 -0.018856727 -0.08889311 0.03764638
0.0050002164 0.038538 -0.05783908 0.027984507 -0.04659628 -0.041755415 -0.04836147 -0.00589021
-0.025212 0.05486203 -0.051748592 -0.007631227 -0.072842464 -0.06939287 -0.017215716 -0.089346446
0.031258933 0.02089303 -0.066616036 0.016123805 -0.017495543 -0.026670076 -0.021425722 -0.024048809
0.028603751 -0.05413416 -0.10511617 -0.05800941 0.02519692 -0.020794336 -0.04146757 -0.05781386
0.0066530113 -0.016336856 -0.04556504 -0.03402387 -0.0244448 0.008310468 0.0071148598 0.0041411407
-0.06661432 -0.07429385 -0.036756836 -0.012656735 0.026782678 0.018210437 -0.032449823 0.0069294707
-0.04657884 -0.031128965 -0.07285036 -0.024987932 0.018009908 0.019347573 0.0035318122 0.027191525
-0.012605071 -0.09154973 -0.045431025 -0.01820101 -0.04092242 -0.024535662 0.03083888 -0.0075208102
00000000: b988 833b 1811 d1bc b24e 85bd ef19 06bd
00000010: d374 09bd d97d b5bd def2 86bd 48a8 86bc
00000020: d182 5a3c 886c 5ebd 7865 febc e68e 023d
00000030: fcd6 ea3c ccac 1fb9 c992 683d f8a1 cbbd
00000040: f93c a6bb 2b5b 9dbb 2be2 9cbd 1f13 73bc
00000050: bd94 8cbd 19e8 91bb e916 b9bd 22a6 c9bd
00000060: 9e8c 22bc fb11 a6bd ed33 94bd b6f3 89bc
00000070: 21e1 413c fa70 8b3d 64a8 f8bc ad1f 57bd
00000080: 46b9 14bd a697 66bd 6f11 7ebd f44f 27bd
00000090: e69a 89bd 5c51 88bc fea7 9abd 4e7d 523d
000000a0: 3205 25bc 1c7c a13b bee0 b43c c8b2 9ebc
000000b0: cd7a 8dbc db2c d03b e038 a5bc 7ae5 333c
000000c0: 940e 91bd 412d ac3c 362b 1e3d fd82 253b
000000d0: e7db 48b9 3db1 863b bee4 013c 08b8 11bc
000000e0: ad3a 013d 6442 f1bc 82b6 343c 6b7c b7bd
000000f0: 621d 16bd 6c79 9abc 970d b6bd 1733 1a3d
00000100: dbd8 a33b 06da 1d3d ace8 6cbd c43f e53c
00000110: bedb 3ebd ba07 2bbd ad16 46bd aa02 c1bb
00000120: 6589 cebc 02b7 603d 55f6 53bd 5f0f fabb
00000130: 6e2e 95bd d91d 8ebd f907 8dbc 45fb b6bd
00000140: 5e09 003d dc27 ab3c fd6d 88bd 1216 843c
00000150: d052 8fbc 347b dabc ff84 afbc 0202 c5bc
00000160: 6a52 ea3c c8bb 5dbd 2647 d7bd 469b 6dbd
00000170: c569 ce3c e258 aabc e6d9 29bd 3ace 6cbd
00000180: 8101 da3b dfd4 85bc 68a2 3abd 9d5c 0bbd
00000190: 7640 c8bc a128 083c c523 e93b 68b2 873b
000001a0: 176d 88bd 6027 98bd 568e 16bd 325e 4fbc
000001b0: 5967 db3c 0e2e 953c 1bea 04bd 9d10 e33b
000001c0: 74c9 3ebd 2c02 ffbc 9232 95bd 7eb3 ccbc
000001d0: 8489 933c cd7e 9e3c fa75 673b c3c0 de3c
000001e0: 8085 4ebc 6d7e bbbd e215 3abd 491a 95bc
000001f0: 449e 27bd 03ff c8bc d2a1 fc3c 2171 f6bb

network_body.linear_encoder.seq_layers.2.weight f4 [128, 128]
0.1936739 -0.0072893417 -0.08432696 0.17160375 -0.20673999 -0.086497724 0.033258427 0.03188497
-0.08806042 -0.10007335 0.025153704 0.16175151 -0.07016156 -0.043147746 -0.018351737 -0.025299454
-0.044746738 -0.10904375 -0.15269466 -0.13065563 0.19165201 -0.16095428 0.059243653 0.009984665
-0.15171416 0.05619659 -0.101809904 0.014538064 0.109343074 0.07745384 -0.042029347 -0.10633005
-0.056333277 -0.086499915 -0.1605262 0.016200311 -0.18098463 -0.2367055 0.02091684 0.079279505
0.14470206 -0.024983343 -0.024877204 0.005927457 0.05482205 0.07642775 -0.022052836 0.08371295
-0.029202566 0.010756045 -0.013214928 -0.0068082544 -0.13605513 0.056796998 -0.06857841 -0.0787955
-0.012163001 0.050893057 0.069923244 -0.15721293 -0.2581188 0.022035655 0.0044618496 0.046077497
0.14952253 0.033543285 -0.08185 -0.17103761 0.08144139 -0.003962082 -0.15030962 -0.07543569
-0.055727627 -0.089938834 0.051716067 0.13029227 -0.10539785 -0.025551463 -0.025638593 0.038414966
0.054778405 0.24816222 -0.14486043 0.03822669 -0.13959438 -0.02522662 -0.117285244 0.08033755
0.060070958 0.1199467 -0.06067997 -0.091002144 -0.15655449 0.053962138 0.007210522 -0.2546079
-0.0076486086 0.07089867 0.120257795 -0.07801032 0.049038682 -0.14697286 0.06062369 0.048808657
-0.37520254 -0.033560876 0.030486401 0.07066071 -0.23803467 0.028701436 0.18973011 0.070207804
-0.1039683 -0.018687759 -0.14292188 -0.10050162 0.0038961344 -0.12083598 -0.11550717 0.05935338
-0.025616018 -0.12100156 -0.30494082 -0.056581866 -0.15534347 -0.104210295 0.0017094394 0.11080914
0.037052747 0.066191085 -0.16586666 0.22473897 -0.069817364 0.02426128 -0.19948 0.14619459
0.08470496 0.21759182 -0.050211105 0.1428578 -0.17050742 -0.0041930685 0.12173073 -0.089918934
-0.04637703 -0.067518 0.02556526 0.08747431 -0.15688393 -0.049081225 0.22586443 -0.02872485
-0.069754794 0.11312836 0.08545532 -0.1682423 -0.0036352645 -0.095466286 -0.038751494 0.052456908
0.0765816 -0.068272464 -0.062372923 0.04170841 -0.0010285605 0.06660251 -0.11530432 -0.117642574
0.20765968 -0.023665922 0.04266974 -0.06633901 -0.025554514 0.058732294 -0.011132021 -0.23699616
0.0019700567 -0.019619608 -0.047882944 0.042830646 0.113721944 0.057398908 -0.017732145 0.13082933
-0.21833429 0.103043415 -0.018733162 -0.20161895 0.18274316 -0.045588616 -0.09661471 -0.018005442
-0.11247603 -0.15668829 0.013997859 0.11043912 0.14249845 0.14000931 -0.017055025 -0.18351817
0.07102097 0.07761951 -0.16888577 0.2006581 0.035133388 -0.021754988 -0.19049977 -0.023528283
0.013261653 0.11208768 0.043209106 0.06930783 -0.110083155 -0.016816018 0.001891346 0.14718197
-0.014494743 0.1544139 -0.03845042 -0.16564482 0.06570773 -0.19914393 -0.22671948 0.07452932
-0.108271115 0.12071911 -0.101706125 -0.18298343 0.14064203 -0.050249066 -0.20916753 0.1611412
0.031398125 0.068647504 0.021693697 0.06637364 -0.008160951 -0.18576968 -0.07423733 -0.16005638
0.037421446 -0.04639689 -0.05062116 -0.056427583 0.015661024 0.054851804 -0.05366116 -0.08496677
0.025221892 -0.06195524 0.22790168 0.1042931 0.067112364 -0.03987879 -0.035094216 0.014084103
00000000: 7352 463e 6edb eebb 9db3 acbd e5b8 2f3e
00000010: a6b3 53be b825 b1bd fd39 083d d099 023d
00000020: 0559 b4bd 42f3 ccbd 240f ce3c 30a2 253e
00000030: ddb0 8fbd b1bb 30bd 6256 96bc cd40 cfbc
00000040: 5b48 37bd 5452 dfbd fd5b 1cbe 97ca 05be
00000050: 6d40 443e 33d1 24be 79a9 723d b896 233c
00000060: f55a 1bbe 652e 663d b681 d0bd 0f31 6e3c
00000070: 43ef df3d 1ea0 9e3d f726 2cbd 92c3 d9bd
00000080: b9bd 66bd de26 b1bd fb60 24be 84b6 843c
00000090: 0954 39be ed62 72be cb59 ab3c 4b5d a23d
000000a0: c72c 143e dea9 ccbc 47cb cbbc 1d3b c23b
000000b0: 168d 603d 2786 9c3d 26a8 b4bc b271 ab3d
000000c0: 383a efbc 1f3a 303c 6d83 58bc c717 dfbb
000000d0: 0952 0bbe f8a3 683d d672 8cbd 895f a1bd
000000e0: 5347 47bc 3d75 503d eb33 8f3d 6dfc 20be
000000f0: 2628 84be 1e84 b43c b534 923b c2bb 3c3d
00000100: 6f1c 193e af64 093d f9a0 a7bd 7c24 2fbe
00000110: beca a63d 5ad4 81bb c4ea 19be 077e 9abd
00000120: a742 64bd da31 b8bd 3ad4 533d 566b 053e
00000130: d4da d7bd 4d51 d1bc 0708 d2bc 0359 1d3d
00000140: 525f 603d 3d1e 7e3e 4b56 14be 9793 1c3d
00000150: d4f1 0ebe 0ea8 cebc 3f33 f0bd 0388 a43d
00000160: f70c 763d 9ea6 f53d 8f8b 78bd 555f babd
00000170: d24f 20be 6707 5d3d 3e46 ec3b f75b 82be
00000180: 2ea1 fabb 5233 913d b849 f63d e0c3 9fbd
00000190: c9dc 483d 0e80 16be 8c50 783d 96eb 473d
000001a0: 8c1a c0be 2177 09bd 9ebe f93c 90b6 903d
000001b0: 5cbf 73be 461f eb3c 9c48 423e 1cc9 8f3d
000001c0: 55ed d4bd 1217 99bc 1d5a 12be cbd3 cdbd
000001d0: 4a56 7f3b db78 f7bd 068f ecbd 881c 733d
000001e0: afd8 d1bc aacf f7bd 3421 9cbe 63c2 67bd
000001f0: 5c12 1fbe 356c d5bd 450f e03a e7ef e23d
00000200: 9fc4 173d 318f 873d f3d8 29be f921 663e
00000210: 68fc 8ebd 98bf c63c 7c44 4cbe 09b4 153e
00000220: cb79 ad3d 64d0 5e3e 29aa 4dbd 5149 123e
00000230: 7f99 2ebe 0266 89bb f64d f93d 6b27 b8bd
00000240: d7f5 3dbd e146 8abd 3c6e d13c bb25 b33d
00000250: 2ea6 20be 6509 49bd 0149 673e 6050 ebbc
00000260: 9adb 8ebd d7af e73d 3303 af3d b647 2cbe
00000270: 9e3d 6ebb d483 c3bd e3b9 1ebd 0edd 563d
00000280: d0d6 9c3d 6fd2 8bbd c07a 7fbd 70d6 2a3d
00000290: c3d0 86ba e666 883d ac24 ecbd 97ee f0bd
000002a0: bda4 543e 09df c1bc 77c6 2e3d bfdc 87bd
000002b0: b357 d1bc 4691 703d 1563 36bc 1faf 72be
000002c0: 111c 013b 4db9 a0bc e820 44bd 306f 2f3d
000002d0: 0de7 e83d 1e1b 6b3d 0143 91bc 20f8 053e
000002e0: 0693 5fbe 6d08 d33d 4a76 99bc 3375 4ebe
000002f0: 0621 3b3e 21bb 3abd efdd c5bd 2680 93bc
00000300: d559 e6bd e572 20be 4757 653c e82d e23d
00000310: 1deb 113e 9a5e 0f3e fbb6 8bbc 30ec 3bbe
00000320: 7173 913d faf6 9e3d 64f0 2cbe 5179 4d3e
00000330: 07e8 0f3d 8437 b2bc 5f12 43be 63be c0bc
00000340: 6747 593c 3a8e e53d 08fc 303d 43f1 8d3d
00000350: 4773 e1bd bfc1 89bc 0ae7 f73a dfb6 163e
00000360: 5c7b 6dbc ad1e 1e3e 307e 1dbd cc9e 29be
00000370: c691 863d 63ec 4bbe 2729 68be d4a2 983d
00000380: 3fbd ddbd 953b f73d 4d4b d0bd 0260 3bbe
00000390: 7704 103e f7d1 4dbd 0330 56be 3302 253e
000003a0: 529b 003d 1097 8c3d fbb6 b13c e7ee 873d
000003b0: 82b5 05bc 683a 3ebe be09 98bd d2e5 23be
000003c0: 3b47 193d aa0a 3ebd 2258 4fbd 9c20 67bd
000003d0: 8c4b 803c 49ac 603d cecb 5bbd 0f03 aebd
000003e0: 249e ce3c c7c4 7dbd 0f5f 693e 9f97 d53d
000003f0: 3572 893d f157 23bd f4be 0fbd 02c1 663c

network_body.vector_processors.0.normalizer.running_mean f4 [29]
0.6668744 0.12796965 0.020284524 0.17141049 0.5070636 0.717321 0.10629838 0.016791549
0.14660491 0.46655458 0.5404076 0.21260467 0.021883724 0.20608576 0.4651016 0.5324418
0.15462895 0.12543057 0.16936246 0.48191443 0.5324418 0.15462895 0.12543057 0.16936246
0.48191443 55.87505 38.39011 0.00064010615 -0.001249501
00000000: 48b8 2a3f 7a0a 033e bb2b a63c 3b86 2f3e
00000010: ecce 013f 59a2 373f f7b2 d93d 6e8e 893c
00000020: 991f 163e 3ee0 ee3e 2758 0a3f 0ab5 593e
00000030: 7f45 b33c 2508 533e cc21 ee3e 1b4e 083f
00000040: 0d57 1e3e df70 003e 5a6d 2d3e 7dbd f63e
00000050: 1b4e 083f 0d57 1e3e df70 003e 5a6d 2d3e
00000060: 7dbd f63e 0d80 5f42 798f 1942 cccc 273a
00000070: 4cc6 a3ba
