Assets/Models/Scena2/iRobot.onnx (onnx, 88018 bytes, 10 tensors)

74 f4 [29]
0	0x3ef11245	0.4708425
1	0x3ea25584	0.31705868
2	0x3e04894e	0.12943003
3	0x3ec8dc6a	0.39230663
4	0x3ec14d27	0.37754175
5	0x3eee87a4	0.4658786
6	0x3e974151	0.2954202
7	0x3df3b117	0.118990116
8	0x3ecb5dbc	0.3971995
9	0x3eba4e7a	0.36387998
10	0x3efe3e03	0.49656686
11	0x3ec7df6a	0.3903764
12	0x3e0a27c5	0.13491733
13	0x3ed3e8d7	0.4138858
14	0x3ec65907	0.38739797
15	0x3efff8cd	0.49994507
16	0x3eb474dd	0.3524541
17	0x3e9c6b1f	0.30550477
18	0x3ed697e7	0.41912767
19	0x3ebbca80	0.36677933
20	0x3efff8cd	0.49994507
21	0x3eb474dd	0.3524541
22	0x3e9c6b1f	0.30550477
23	0x3ed697e7	0.41912767
24	0x3ebbca80	0.36677933
25	0x41fb5b0b	31.419455
26	0x41c16a4b	24.1769
27	0x4096781b	4.7021613
28	0x4087323e	4.224883

action_model._discrete_distribution.branches.0.bias f4 [3]
0	0xbd690c3c	-0.056896433
1	0xbbdede7b	-0.006801424
2	0x3d834087	0.06408792

action_model._discrete_distribution.branches.0.weight f4 [3, 128]
0	0xbce34945	-0.027744899
1	0x3d8c6acf	0.068563096
2	0x3d98a5d5	0.07453505
3	0xbc008888	-0.007845052
4	0xbd7bd3f8	-0.061481446
5	0x3d6990e9	0.057022963
6	0xba7ed559	-0.00097211223
7	0xbd06b967	-0.032891657
8	0x3c748ee3	0.014926645
9	0xbd1cc1c4	-0.038270727
10	0x3d153303	0.0364256
11	0xbd70d7e0	-0.058799624
12	0xbe10224c	-0.14075583
13	0x3d9278ae	0.07151924
14	0x3d1aa362	0.03775347
15	0x3d0940a3	0.033508908
16	0x3c842a12	0.016133342
17	0x3d900c1a	0.07033558
18	0x3e06ab6d	0.13151331
19	0xbd7352d4	-0.059405163
20	0xbd3465b8	-0.04404232
21	0xbdb57336	-0.08859865
22	0x3c9ff34c	0.019525193
23	0x3d82a697	0.06379431
24	0xbd84137b	-0.06449028
25	0x3c2ce9b9	0.010553771
26	0x3c2aba41	0.010420383
27	0xbdbc91a7	-0.092074685
28	0xbdf2cc34	-0.11855355
29	0xbb9f60f5	-0.004863853
30	0xbd7748a4	-0.06037201
31	0x3c2debb6	0.01061528
32	0xbe0ea5a9	-0.13930382
33	0xbcd77df2	-0.026305173
34	0x3c6f3932	0.014601039
35	0x3d9f3502	0.07773782
36	0x3d44ea2f	0.048074897
37	0xbd3e9dd1	-0.046537224
38	0x3d4515af	0.048116382
39	0x3c5a600e	0.013328565
40	0xbd458226	-0.048219822
41	0xbdee1001	-0.11624146
42	0xbc707517	-0.014676354
43	0xbdbb0965	-0.09132651
44	0x3cce658e	0.02519491
45	0x3d033f83	0.03204299
46	0xbd1bcbd8	-0.038036197
47	0xbd10eae0	-0.035380244
48	0x3de82d7b	0.113368
49	0xbdb2dbf6	-0.087333605
50	0xbe1cde9f	-0.15319298
51	0x3d48bdad	0.049009014
52	0x3d5c8c18	0.05384454
53	0xbd408819	-0.047004793
54	0xbd08c20a	-0.033388175
55	0xbdbdd876	-0.09269802
56	0xbb426aa2	-0.002966561
57	0xbd36b177	-0.044602837
58	0xbcd517bb	-0.026012292
59	0x3cd6523c	0.02616226
60	0xbd7c953f	-0.06166577
61	0xbd5460e3	-0.05185021
62	0xbcf73e2c	-0.030181013
63	0x3c14447a	0.009049529
64	0x39cc732e	0.00038995728
65	0xbdeaa9bf	-0.11458158
66	0xbdd63ddf	-0.1046102
67	0xbe034f0b	-0.12823121
68	0x3b967ab7	0.0045922655
69	0xbcf0dbe1	-0.029401721
70	0x3c987a88	0.018613115
71	0xbdf70b56	-0.12062709
72	0x3d47fb79	0.048823807
73	0x3b9f31f1	0.0048582484
74	0xbd80f869	-0.062973805
75	0xbb60d9e3	-0.0034309558
76	0x3d4032a7	0.046923306
77	0x3b3f0371	0.0029146338
78	0xbc8cd882	-0.017193083
79	0x3bc748e1	0.006081686
80	0xbd633f81	-0.055480484
81	0xbcf29561	-0.029612245
82	0x3d3e9ab0	0.04653424
83	0x3ca18f6d	0.019721711
84	0x3dd4aa86	0.10384087
85	0xbc4d81d9	-0.012543165
86	0x3da37e95	0.07983128
87	0x3a184f7f	0.00058101857
88	0xbdba9c11	-0.091117986
89	0x3e1a7345	0.15083034
90	0x3c58ebe6	0.013239836
91	0x3de72d6c	0.112879604
92	0xbd931597	-0.07181852
93	0xbd92a818	-0.071609676
94	0x3d841bc4	0.064506084
95	0x3be53958	0.0069953613
96	0xbd856a83	-0.06514456
97	0x3d842600	0.064525604
98	0x3be24d77	0.006906207
99	0x3d4808fc	0.048836693
100	0x3de4b8c4	0.11168054
101	0xbcca622f	-0.02470502
102	0xbd29eda3	-0.041486394
103	0xbc281676	-0.010259261
104	0x3d3b5f8e	0.045745425
105	0x3c8ae19f	0.016953288
106	0x3cbfea77	0.023427231
107	0x3dccc02b	0.09997591
108	0xbdc71032	-0.09719886
109	0xbd9760a4	-0.073914796
110	0x3d7fd94d	0.062463094
111	0xbdea5099	-0.11441154
112	0xbd803d42	-0.06261684
113	0x3c6a75ce	0.014310313
114	0xbd215847	-0.03939083
115	0x3cc7fb86	0.024411928
116	0xbda26603	-0.079296134
117	0x3d1e3323	0.038622987
118	0xbdb6ca45	-0.089252986
119	0x3ca591d1	0.020211132
120	0x3c1d8ceb	0.009616117
121	0x3d98a6cd	0.0745369
122	0x3d48f81a	0.049064733
123	0xbdbe8ac9	-0.09303815
124	0xbd394a27	-0.045236733
125	0xbbb3e8ee	-0.005490414
126	0x3cd51dad	0.026015127
127	0x3d5315d6	0.051534496
128	0xbcf0368d	-0.029322887
129	0xbd7ccf54	-0.06172116
130	0x3d66dd13	0.056363177
131	0x3cd89a97	0.026440902
132	0x3d9e0f5a	0.07717772
133	0x3d492d00	0.04911518
134	0x3d0bb0e5	0.034104247
135	0x3e152460	0.14564657
136	0xbd78ca7c	-0.06073998
137	0x3e1ae9e2	0.15128282
138	0x3e05d882	0.13070872
139	0x3e0912b0	0.13386035
140	0x3dbaef40	0.091276646
141	0xbc967da1	-0.018370451
142	0xbdddcfab	-0.10830625
143	0xb9918f9e	-0.00027763558
144	0x3e1b2306	0.15150079
145	0xbe1404c5	-0.14454944
146	0xbdfc65a6	-0.123240754
147	0xbc61ba79	-0.013777369
148	0xbd406079	-0.046967003
149	0xbd2fa999	-0.04288635
150	0x3c53c8b2	0.012926267
151	0x3d958fa0	0.07302785
152	0xbb6b2e6d	-0.0035885826
153	0x3d66a619	0.056310747
154	0xbc51de44	-0.01280934
155	0x3d85d28e	0.06534301
156	0x3dfd44ef	0.12366664
157	0xbe21fcf0	-0.15819144
158	0x3d91a270	0.071110606
159	0xbcafccfc	-0.021460049
160	0x3e05e852	0.13076904
161	0x3ac94fb7	0.001535884
162	0x3d456c3b	0.04819892
163	0x3cc0de1e	0.023543414
164	0x3e140296	0.14454111
165	0x3db46135	0.08807603
166	0xbdd746af	-0.10511529
167	0xbcfbdfb3	-0.030746317
168	0x3d2b58e3	0.041832816
169	0x3c24560a	0.010030279
170	0x3de0d9f5	0.10979072
171	0x3de99edb	0.114072524
172	0xbde3a723	-0.11115863
173	0xbe20de0d	-0.15709706
174	0x3cf31dd2	0.029677305
175	0x3d35c5ef	0.044378217
176	0xbd70fd15	-0.058835108
177	0x3c81b3bf	0.01583278
178	0x3d85097b	0.06495949
179	0x3cd006ba	0.025393832
180	0xbe2420ec	-0.16028184
181	0xbe1e09b5	-0.1543339
182	0xbdef500d	-0.1168519
183	0x3dc68807	0.09693914
184	0x3d279495	0.040913183
185	0x3d73327c	0.059374318
186	0xbd5c3e43	-0.053770315
187	0xb909a747	-0.00013127654
188	0x3db35d9c	0.08758089
189	0x3d022567	0.03177395
190	0x3da0d6ac	0.078534454
191	0xbdb93985	-0.09044174
192	0x3be0e64b	0.0068633906
193	0x3c60468a	0.013688693
194	0x3dc28d5a	0.09499617
195	0x3c8f91a6	0.017525505
196	0xbdb79e9f	-0.089658014
197	0x3e1b9efa	0.15197363
198	0xbda3e7c0	-0.08003187
199	0x3df4d205	0.119541205
200	0x3dbbdd68	0.09173089
201	0x3be03702	0.006842495
202	0x3cc25918	0.023724124
203	0xbc19a866	-0.009378528
204	0x3d7346a7	0.05939355
205	0x3d8077e2	0.06272866
206	0xbd9901e5	-0.074710645
207	0xbd88b8eb	-0.06675895
208	0x3c10e56f	0.008843764
209	0xbcf253f2	-0.029581044
210	0x3d88a2aa	0.06671651
211	0x3d55dcd6	0.05221256
212	0xbe061c36	-0.13096699
213	0xbde0a5d6	-0.10969131
214	0xbd033e77	-0.032041993
215	0xbcd038f0	-0.025417775
216	0xbc127a31	-0.0089402655
217	0xbe114c03	-0.14189152
218	0xbd54f3e0	-0.05199039
219	0x3d441580	0.047872066
220	0xbd7b6bef	-0.06138223
221	0xbd8dc53e	-0.069223866
222	0xbcfbba72	-0.030728552
223	0xbd55ba12	-0.052179404
224	0xbe0017c9	-0.12509073
225	0x3d86a05f	0.06573557
226	0x3dc71c8a	0.0972224
227	0xbde19369	-0.110144444
228	0xbdaf27df	-0.08552527
229	0xbda3af15	-0.079923786
230	0xbe07a912	-0.13248089
231	0xbd1f313f	-0.038865324
232	0xbd8db973	-0.06920137
233	0x3baf28b9	0.0053454307
234	0x3c5d7233	0.013515997
235	0xbda3fb44	-0.080069095
236	0x3d4f0e3c	0.050550684
237	0x3d4d9a01	0.050195698
238	0x3dc29723	0.09501483
239	0x3d48f09b	0.049057584
240	0x3e027d57	0.12743126
241	0x3d2b7f8c	0.041869685
242	0x3d928605	0.071544684
243	0x3b1304eb	0.0022433351
244	0x3d7e900d	0.062149096
245	0xbe286a72	-0.16446856
246	0xbd8a28d0	-0.067460656
247	0xbe17accd	-0.14812012
248	0x3ddc73ea	0.10764296
249	0xbde04e12	-0.10952391
250	0x3d94f359	0.072729774
251	0xba848752	-0.0010111129
252	0x3ca21e12	0.01978973
253	0xbd4712b8	-0.048601836
254	0xbe29c1da	-0.16577855
255	0x3da9f7c5	0.082992114

action_model._discrete_distribution.branches.1.bias f4 [3]
0	0xbc856122	-0.016281668
1	0x3d91f897	0.07127493
2	0xbd70ebc9	-0.058818612

action_model._discrete_distribution.branches.1.weight f4 [3, 128]
0	0x3c732e96	0.01484265
1	0xbd07f4e9	-0.03319255
2	0x3ca2c326	0.019868445
3	0x3e3998da	0.18124714
4	0xbcd4ae16	-0.025961917
5	0xbcf22ea8	-0.029563263
6	0x3e0703ea	0.13185087
7	0x3d3e99f3	0.046533536
8	0xbe017060	-0.12640524
9	0x3ddad91c	0.106859416
10	0x3de75293	0.11295047
11	0xbd542b63	-0.05179919
12	0x3d40591b	0.046959978
13	0xbd9592c3	-0.07303383
14	0xbe05fced	-0.13084765
15	0xbcbff63f	-0.023432849
16	0x3d866b8e	0.06563483
17	0xbc67f0e8	-0.014156558
18	0x3e071f11	0.13195445
19	0x3e5152cd	0.20441742
20	0xbd763d56	-0.06011709
21	0xbb27fa09	-0.002563121
22	0x3dc97769	0.09837229
23	0x3df109bd	0.117694356
24	0x3ca61600	0.020274162
25	0x3c660d6b	0.014041285
26	0xbd3df798	-0.046378702
27	0xbd6d9431	-0.058002654
28	0xbd886b4f	-0.066610925
29	0x3c84d305	0.016213903
30	0xbddc0650	-0.107433915
31	0xbc3e88fc	-0.011629339
32	0x3d6c910a	0.057755508
33	0xbd052676	-0.032507382
34	0xbd8948dc	-0.0670335
35	0xbd552557	-0.052037563
36	0xbbce4b4d	-0.0062955976
37	0xbd600ca1	-0.054699544
38	0xbd99ad9a	-0.07503815
39	0x3d8a98ff	0.06767463
40	0xbdddfecc	-0.10839614
41	0xbd8cbd47	-0.06872039
42	0xbd39319d	-0.04521333
43	0xbdb2ff83	-0.08740141
44	0xbd822c91	-0.063561566
45	0xbdc966ad	-0.09834037
46	0xbca55cbd	-0.020185823
47	0xbcf3a301	-0.029740812
48	0x3d0b1407	0.033954646
49	0xbdba0151	-0.09082282
50	0xbbcbf676	-0.006224449
51	0xbd26c941	-0.040719274
52	0x3d85abdb	0.065269195
53	0x3b75ae14	0.0037487792
54	0x3ba396f1	0.004992359
55	0x3dc035fc	0.09385297
56	0xbbfc45be	-0.0076987436
57	0x3e1aa72d	0.15102835
58	0xbd8e31c0	-0.06943083
59	0xbd90b569	-0.07065851
60	0x3d6c86d1	0.05774576
61	0xbdfc51f5	-0.123203196
62	0x3dcbf0e8	0.099580586
63	0xbd2f0892	-0.042732783
64	0xbdcefe55	-0.10107104
65	0xbd216d92	-0.039411135
66	0x3db8adb2	0.09017505
67	0xbc985bdc	-0.01859849
68	0xbd0f2678	-0.034948796
69	0x3c28ab01	0.010294677
70	0x3d3cd938	0.046105593
71	0x3e1db51d	0.1540112
72	0x3d1a436b	0.03766195
73	0xbd01a16a	-0.031648077
74	0x3dfa9aca	0.12236555
75	0xbe0ba61a	-0.13637581
76	0x3d937ea2	0.07201888
77	0x3decd96c	0.115649074
78	0xbaf8a7cd	-0.0018970907
79	0xbd0998d8	-0.03359303
80	0xbc9bacb5	-0.019003252
81	0x3c8d0901	0.017216207
82	0x3d8048be	0.062638745
83	0xbdd0b587	-0.101908736
84	0xbd883961	-0.06651569
85	0x3d17f439	0.037098143
86	0x3c4ec1d1	0.012619452
87	0xbcf9817f	-0.030457256
88	0x3d4151e5	0.04719724
89	0x3d1d18eb	0.03835384
90	0xbd5b0550	-0.053471863
91	0x3db3908e	0.08767806
92	0xb97d00b1	-0.00024128218
93	0x3cd4b57d	0.025965447
94	0xbd499016	-0.049209677
95	0x3d9317d8	0.07182282
96	0xbd2d958a	-0.04237894
97	0xbe13505f	-0.14386128
98	0xbd83a17b	-0.06427284
99	0xbd6d5810	-0.05794531
100	0x3e0872bb	0.13325016
101	0x3d59a460	0.053135276
102	0x3cad8cdf	0.021185337
103	0xbd636dcf	-0.055524644
104	0x3bdc4e67	0.0067232135
105	0x3ddd29b5	0.107989706
106	0x3d1cf364	0.038318053
107	0xbd97845f	-0.07398295
108	0xbd5c11b5	-0.053727824
109	0x3d874434	0.066048056
110	0xbe01c1a3	-0.12671523
111	0xbd9cf99d	-0.076647975
112	0x3dba985b	0.09111091
113	0xbbde66dc	-0.006787164
114	0xbc58c62e	-0.0132308435
115	0x3ba3f0a3	0.0050030514
116	0xbcdc1005	-0.026863107
117	0xbd75c15f	-0.059998866
118	0xbbe5bbf0	-0.0070109293
119	0x3d58755d	0.0528463
120	0xbd5c9a45	-0.05385806
121	0xbd59c544	-0.053166643
122	0x3dd4747a	0.10373779
123	0x3d38da78	0.045130223
124	0xbd2452bd	-0.040117968
125	0xbde0aadc	-0.10970089
126	0xbda3dd44	-0.080011874
127	0x3de1cd77	0.110255174
128	0x3dbacab4	0.09120694
129	0x3dc9b46f	0.09848868
130	0xbd692665	-0.05692138
131	0xbd13ad39	-0.03605387
132	0xbddba5aa	-0.10724957
133	0xbcba1c4c	-0.022718571
134	0xbe16d771	-0.14730622
135	0x3a9ff9be	0.0012205166
136	0xbb9f8cc0	-0.0048690736
137	0xbd801a0f	-0.0625497
138	0xbe031b2f	-0.12803338
139	0x3dc2badd	0.095082976
140	0xbc362abe	-0.011118589
141	0x3d4d923c	0.050188288
142	0x3cf90b18	0.030400798
143	0xbdbac496	-0.09119527
144	0xbd3800e4	-0.044922724
145	0xbdf78541	-0.12085963
146	0xbe136b14	-0.14396316
147	0xbe500e65	-0.20317991
148	0xbe055803	-0.13021855
149	0xbc9c8aa2	-0.019109074
150	0xbde660b9	-0.11248917
151	0xbdfd631b	-0.123724185
152	0x3ddd0c09	0.10793311
153	0x3d877271	0.06613625
154	0x3cb5c37f	0.022187946
155	0x3d4e39e8	0.050348192
156	0x3d815fb0	0.06317079
157	0x3d919cbf	0.07109975
158	0x3c5c9603	0.0134635
159	0x3d68f29a	0.056871988
160	0xbd53aaaf	-0.05167645
161	0x3d657a45	0.05602481
162	0xbe2cb434	-0.16865617
163	0xbdb998a4	-0.09062317
164	0xba2c1c62	-0.00065655087
165	0xbd33e4cc	-0.04391937
166	0x3ccf53b3	0.025308466
167	0x3d3a0671	0.0454163
168	0x3b78f8df	0.0037990136
169	0x3c93d938	0.018047914
170	0x3d91f259	0.07126302
171	0x3d8f5cec	0.07000145
172	0xbd40f647	-0.04710987
173	0x3d9dc154	0.0770289
174	0xbdb61981	-0.08891583
175	0x3de776f2	0.11301984
176	0xbd2594a4	-0.040424958
177	0xbd0c078f	-0.034186896
178	0x3857020f	5.126191e-05
179	0x3dd278c1	0.10276938
180	0xbe1fbdab	-0.15599696
181	0xbd772b9e	-0.06034433
182	0x3cd6168b	0.026133796
183	0xbd89b201	-0.06723405
184	0x3dc37871	0.09544457
185	0xbe1f6741	-0.15566732
186	0x3d2a7def	0.041624006
187	0xbd055db1	-0.032560054
188	0xbdc63209	-0.09677512
189	0xbdb071e8	-0.08615476
190	0xbe20e0fd	-0.15710826
191	0x3dcd017e	0.1001005
192	0x3dba0dd7	0.09084671
193	0x3dc487b5	0.095961966
194	0xbdb4ef99	-0.08834762
195	0x3d221fc0	0.03958106
196	0x3c0cda6c	0.008596998
197	0x3bd90de2	0.0066239694
198	0xbdb85acb	-0.090016924
199	0xbe2af945	-0.16696651
200	0x3d733e31	0.059385482
201	0x3e06d634	0.1316765
202	0xbe3b948e	-0.18318388
203	0xbdc24460	-0.09485698
204	0xbdde3c98	-0.10851401
205	0xbd80e6b2	-0.06294002
206	0xbc200855	-0.0097676115
207	0xbd4abd6c	-0.049497053
208	0x3dae27fc	0.0850372
209	0x3d18544f	0.037189778
210	0xbdf61de3	-0.12017419
211	0x3e1ce48b	0.15321557
212	0x3d022bf6	0.031780206
213	0xbd8acd0f	-0.06777393
214	0x3d886e5d	0.06661675
215	0x3d4bd717	0.049765673
216	0xbb83869f	-0.004013851
217	0xbd46ecee	-0.048565798
218	0xbdca4002	-0.0987549
219	0xbdcceefa	-0.10006519
220	0x3d2b3a13	0.04180343
221	0xbd1679eb	-0.036737364
222	0xbe053d66	-0.13011703
223	0xbd110403	-0.035404216
224	0x3bef3b5b	0.007300777
225	0xbce32caa	-0.027731258
226	0xbca49f3e	-0.020095464
227	0xba63a22a	-0.0008683527
228	0x3d0e50e0	0.034745097
229	0xbd9824fe	-0.07428931
230	0x39ba3563	0.0003551646
231	0x3d7a3ab6	0.061091147
232	0xbded9893	-0.11601367
233	0xbcb576c0	-0.022151351
234	0x3de577cc	0.1120449
235	0x3dbf5aea	0.09343512
236	0x3ddd22fc	0.10797688
237	0xbab8a765	-0.0014087973
238	0x3c5b0f4c	0.013370346
239	0xbd8dd6f4	-0.06925765
240	0xbdcd2d81	-0.10018445
241	0xbe15b628	-0.14620268
242	0xbd61249e	-0.05496656
243	0x3d9332b4	0.07187405
244	0x3d06a410	0.032871306
245	0x3cd0f1f3	0.025505995
246	0x3c8cf2bc	0.017205589
247	0xbb27e801	-0.0025620463
248	0x3ca85e65	0.020552823
249	0xbe053194	-0.13007194
250	0xbca9ac6f	-0.020712106
251	0xbc123c27	-0.008925474
252	0x3d570b54	0.052501038
253	0x3dce384b	0.10069331
254	0x3d702a30	0.058633983
255	0xbcf31190	-0.02967146

network_body.linear_encoder.seq_layers.0.bias f4 [128]
0	0x3d1d509e	0.03840696
1	0xbb2f0c26	-0.0026710122
2	0xbd3070ae	-0.04307621
3	0xbcf8387d	-0.030300373
4	0xbd122b06	-0.03568556
5	0x3bb10812	0.0054025734
6	0x3c816974	0.015797354
7	0x3d5c31ee	0.053758554
8	0x3c4aaa58	0.012369715
9	0xbcc0bd81	-0.023527863
10	0xbd238283	-0.039919388
11	0x3cb0afaa	0.021568138
12	0xbcaf1deb	-0.02137657
13	0x3b813a18	0.003943693
14	0x3a53ac2a	0.00080746657
15	0xbac2e5f3	-0.0014869556
16	0x3cefd51f	0.029276429
17	0xbc0015db	-0.007817711
18	0xbd5d7227	-0.054063942
19	0xbb9192ec	-0.0044425633
20	0x3d36fdd1	0.044675652
21	0xbd728551	-0.05920917
22	0xbc018bff	-0.007906913
23	0xbcb61471	-0.022226544
24	0xbd5cf297	-0.05394229
25	0x3d9ca43f	0.07648515
26	0x3cb833a1	0.022485556
27	0xbdc2a59c	-0.09504244
28	0x3d82ee23	0.06393077
29	0xbd94b6e8	-0.07261449
30	0x3c294eab	0.010333697
31	0x3d8d115e	0.06888078
32	0xbcdcabad	-0.02693733
33	0x3c5b0c48	0.013369627
34	0x3d2704f6	0.040776215
35	0xbce37903	-0.027767664
36	0xbd30cd96	-0.043164812
37	0xbb740c04	-0.0037238607
38	0x3d240bbd	0.040050257
39	0x3cd79c12	0.026319537
40	0x3d06c11e	0.032899015
41	0x3bc9b651	0.006155767
42	0xbd421074	-0.047378972
43	0x3d84c77c	0.06483361
44	0xbdcacb82	-0.09902097
45	0xbce2b7d5	-0.027675549
46	0xbccdfea8	-0.025145844
47	0xbcbbe6a9	-0.022937136
48	0x3d3d7c85	0.04626133
49	0xbc623fdc	-0.013809171
50	0x3c9ea0b3	0.019363737
51	0x3c6a7280	0.0143095255
52	0x3c184e55	0.00929602
53	0xbb8eb6be	-0.0043552807
54	0xbd4839ca	-0.048883237
55	0x3d0f9997	0.035058584
56	0x3b84e7d6	0.0040559573
57	0x3d2d3c96	0.042294107
58	0x3cd59cab	0.026075682
59	0xbd1ac23f	-0.037782904
60	0x3c12c87a	0.00895893
61	0xbd3e1330	-0.046405017
62	0x3b831ca0	0.004001215
63	0xbd220b22	-0.0395614
64	0xbc8abc74	-0.016935565
65	0x3d35b582	0.044362552
66	0xb955137d	-0.00020320523
67	0xbc1e60e1	-0.009666652
68	0x3bb0970e	0.005389101
69	0x3d8376c4	0.06419137
70	0x3cc0974c	0.023509644
71	0xbd407762	-0.046988852
72	0x3dae0518	0.08497065
73	0x3d45d2ac	0.048296615
74	0x3cd5e45a	0.026109863
75	0xbc0df1a3	-0.008663568
76	0xbd79786d	-0.060905863
77	0xbc9e6bec	-0.01933857
78	0xbcca4df5	-0.024695376
79	0x3d41ad30	0.047284305
80	0x3d042fb8	0.03227207
81	0x3c9c91ad	0.019112432
82	0x3c141a54	0.00903948
83	0xbd3bea0a	-0.045877494
84	0x3d270ff4	0.0407867
85	0x3d2097bb	0.0392072
86	0xbd247f15	-0.040160257
87	0xbd21810c	-0.03942971
88	0x3d48fdf9	0.049070332
89	0x3bc88d8e	0.0061203903
90	0x3a4d682d	0.0007835653
91	0x3d507774	0.05089517
92	0xbd6a0b43	-0.057139646
93	0xbd1edfb7	-0.03878757
94	0x3c8330af	0.016014425
95	0x3d02a8fc	0.031899437
96	0xbcbe8132	-0.023254965
97	0x3ac4b9d1	0.0015008991
98	0x3d92fe06	0.071773574
99	0x3d320684	0.043463245
100	0x3d63b7f8	0.05559537
101	0xbcbcd1eb	-0.023049315
102	0x3d99f8fa	0.07518192
103	0xbcd4fd1b	-0.025999596
104	0x3d9d8204	0.07690814
105	0x3d8eb34a	0.069677904
106	0xbae368c9	-0.0017349954
107	0xbd7db308	-0.061938316
108	0xbcd690b5	-0.026192049
109	0xbb132054	-0.002244969
110	0xbcd2444f	-0.025667338
111	0x3d0507f0	0.032478273
112	0x3cf97194	0.030449666
113	0x3d06fbc7	0.032954957
114	0xbd810d96	-0.063014194
115	0xbcdb81d9	-0.026795315
116	0xbc968fc4	-0.0183791
117	0x3b52a2e7	0.0032140554
118	0x3b5b97d9	0.0033507256
119	0x3d1f8415	0.038944323
120	0x3db195f6	0.08671181
121	0xbdcf725c	-0.10129234
122	0xbc532370	-0.012886867
123	0x3cb6bbe1	0.022306385
124	0x3b90f612	0.004423865
125	0xbc649a3e	-0.01395279
126	0x3c8638cb	0.016384503
127	0xbdae8b5f	-0.08522677

network_body.linear_encoder.seq_layers.0.weight f4 [128, 29]
0	0x3d89ad90	0.067225575
1	0xbe0cc9fb	-0.13748924
2	0x3ec93ea5	0.39305606
3	0x3d193b64	0.037410155
4	0xbd8a4c9a	-0.06752892
5	0x3e8a43ed	0.27004948
6	0xbe019b21	-0.12656833
7	0xbd3245dd	-0.043523658
8	0x3ec1e827	0.3787243
9	0xbc144613	-0.00904991
10	0x3c916bf1	0.017751666
11	0xbb7d5060	-0.0038652644
12	0x3eedf021	0.46472266
13	0x3de25f5d	0.11053345
14	0x3e802d62	0.25034624
15	0x3c1577f8	0.009122841
16	0xbe084b18	-0.13309896
17	0x3cd217a2	0.025646035
18	0x3d9928e4	0.074785024
19	0x3e3e21c1	0.18567564
20	0x3dc88540	0.097910404
21	0xbd1d928a	-0.03846983
22	0xbe066ffc	-0.13128656
23	0xbc80eb01	-0.015737059
24	0xbecc0567	-0.39847872
25	0xbdc8de97	-0.09808081
26	0x3df41223	0.11917522
27	0xbe9d073e	-0.30669588
28	0x3e004430	0.12526011
29	0x3e137722	0.14400914
30	0xbba02867	-0.004887629
31	0x3e8db967	0.27680513
32	0x3dbd7663	0.09251096
33	0xbe9d9d76	-0.30784196
34	0xbe4254bd	-0.18977638
35	0x3bf859c6	0.007579061
36	0xbeaa01a2	-0.3320437
37	0xbd7a4cc7	-0.061108377
38	0xbe9c4b1e	-0.3052606
39	0xbd7d9c10	-0.06191641
40	0xbd0610d3	-0.03273089
41	0xbd8f2427	-0.069893174
42	0x3e9f7885	0.31146637
43	0xbe0aa223	-0.13538413
44	0x3e7e0ead	0.24810286
45	0x3eccc25a	0.39992028
46	0xbe298951	-0.16556288
47	0xbe44ef60	-0.1923194
48	0xbe9f1985	-0.31074157
49	0xbd744350	-0.059634507
50	0x3ed50a01	0.41609195
51	0xbe4db858	-0.20089853
52	0xbdf7594e	-0.120775804
53	0x3e7d8434	0.24757463
54	0xbe4a9d9f	-0.1978669
55	0xbe737944	-0.23776728
56	0xbe87d6e0	-0.26531124
57	0x3d305c2d	0.043056656
58	0x3e9acabf	0.30232808
59	0xbd98f92b	-0.074694
60	0xbf08485b	-0.53235406
61	0xbeb48b7e	-0.35262674
62	0xbe6a716d	-0.22894831
63	0xbe377784	-0.17916685
64	0x3e0ea9ee	0.1393201
65	0xbef558e3	-0.47919378
66	0xbe28ec28	-0.16496336
67	0xbe3832cd	-0.17988129
68	0xbe3e445a	-0.18580762
69	0x3d21226f	0.03933948
70	0xbe85001e	-0.25976652
71	0xbd39013e	-0.0451672
72	0xbe68c861	-0.22732688
73	0x3cc33368	0.023828223
74	0xbeab2b0a	-0.33431274
75	0xbd885a98	-0.066579044
76	0x3cc6b01a	0.024253894
77	0xbde16343	-0.11005261
78	0x3ef89ad1	0.48555616
79	0x3cd350ec	0.025795422
80	0xbed56f1f	-0.4168634
81	0x3c25b12c	0.010113042
82	0x3d3348ec	0.043770716
83	0x3db101d7	0.08642929
84	0x3ea8ca87	0.32967016
85	0xbcb92f3b	-0.022605529
86	0xbd897bfc	-0.06713101
87	0x3dbe0584	0.09278396
88	0xbee85afe	-0.45381922
89	0x3eb2fc91	0.34958318
90	0x3e11cc69	0.14238133
91	0xbe3b3ea8	-0.1828562
92	0xbe9c529f	-0.30531785
93	0xbde477c9	-0.1115566
94	0xbc2423e5	-0.010018324
95	0x3cdc30b7	0.026878698
96	0xbc8e10a8	-0.017341927
97	0x3e605a1b	0.21909373
98	0x3e905910	0.2819295
99	0x3e77580c	0.24154681
100	0xbe96f3bc	-0.2948283
101	0xbea5ed90	-0.32407808
102	0xbe5ebd86	-0.21751985
103	0xbc9bea24	-0.019032545
104	0x3eb0e6ee	0.34551185
105	0x3d54de5c	0.05196987
106	0x3d2edc11	0.04269034
107	0xbe9a8833	-0.30182037
108	0x3cb689fe	0.022282597
109	0x3e875857	0.26434585
110	0x3da24005	0.07922367
111	0x3cd5bea0	0.026091874
112	0x3e7e1fd3	0.24816827
113	0x3ed36672	0.41289097
114	0xbb3d14cc	-0.0028851507
115	0x3e09f972	0.13474062
116	0x3dc77342	0.097387806
117	0x3d94c3f0	0.072639346
118	0xbe7d95f4	-0.24764234
119	0x3b964468	0.0045857914
120	0xbeefe438	-0.46853805
121	0x3e4f3bac	0.20237607
122	0x3e8d8e3d	0.27647582
123	0xbe5016a6	-0.2032114
124	0xbcaf46a1	-0.021395983
125	0xbe5fae3a	-0.21843806
126	0xbd02ac99	-0.031902883
127	0x3ee8ecbe	0.4549312
128	0x3d4b479e	0.049628846
129	0xbe8edf06	-0.27904528
130	0x3ed43844	0.41449177
131	0x3d919ca9	0.07109959
132	0xbe2e0dc0	-0.16997433
133	0xbcb775fb	-0.022395125
134	0x3e396e97	0.18108593
135	0xbeab490d	-0.3345417
136	0x3c37fbf4	0.011229504
137	0xbb3e44b2	-0.0029032645
138	0xbe52de16	-0.20592532
139	0x3d71ef4c	0.059066102
140	0xbd3c118e	-0.04591518
141	0xbe831fdf	-0.25610253
142	0xbe8a7c0a	-0.2704776
143	0xbe8b7b59	-0.27242544
144	0x3e12d706	0.14339837
145	0xbdbc0c84	-0.09182075
146	0xbc6b27ae	-0.014352722
147	0x3dfe4e24	0.12417248
148	0x3e25eb70	0.16203094
149	0x3da63e16	0.08117311
150	0x3dd7fce2	0.105462804
151	0x3cc31932	0.023815725
152	0x3e20df15	0.15710099
153	0xbd25bdb2	-0.04046411
154	0xbd96e8b8	-0.07368606
155	0xbdbf5702	-0.09342767
156	0x3ca61d3f	0.020277617
157	0x3eadf7f0	0.33978224
158	0xbd972030	-0.07379186
159	0x3ac91b44	0.0015343209
160	0x3c2fdf6b	0.010734419
161	0x3cd3f347	0.02587284
162	0x3e735d2b	0.2376601
163	0xbe8d09c1	-0.27546504
164	0x3bacbfb9	0.0052718786
165	0xbd3b2eb3	-0.045698833
166	0x3e6ac2ee	0.22925922
167	0x3dc394b7	0.095498495
168	0xbe7e7872	-0.24850634
169	0xbe4943a4	-0.19654709
170	0x3ed8030a	0.4218982
171	0x3dcf2671	0.10114754
172	0x3df45056	0.11929385
173	0x3e24f806	0.16110238
174	0x3dfc1b99	0.12309951
175	0x3d89eb62	0.06734349
176	0xbe4c8e3c	-0.19976133
177	0xbe925d48	-0.28586793
178	0xbe492a6f	-0.19645093
179	0xbcce19ea	-0.025158841
180	0x3e5dada5	0.21648271
181	0xbf02c5db	-0.51083153
182	0xbedeee44	-0.43541157
183	0xbe8bc02c	-0.27295053
184	0x3e841f3c	0.2580508
185	0xbeb5ac0d	-0.35482827
186	0xbe0ea704	-0.13930899
187	0x3d7ec65c	0.06220089
188	0xbe867be7	-0.26266405
189	0x3e25e698	0.16201246
190	0x3df1f544	0.11814359
191	0x3d82d12c	0.063875526
192	0xbd255a15	-0.040369112
193	0x3f12e170	0.5737524
194	0x3cf2486b	0.029575547
195	0xbded2fea	-0.115814045
196	0x3d47060b	0.048589747
197	0x3ec6e587	0.3884699
198	0xbe64bcab	-0.22337596
199	0x3e633637	0.2218865
200	0x3d85a0cb	0.065248094
201	0xbd405a2e	-0.046961002
202	0xbe8f018f	-0.27930877
203	0xbdf744bd	-0.12073658
204	0xbf15066e	-0.58212936
205	0xbe68e913	-0.22745161
206	0xbe9ce5b8	-0.30644011
207	0x3d8ad0a3	0.067780755
208	0xbcc05fa1	-0.0234831
209	0xbeaadb08	-0.33370233
210	0x3cb0e72f	0.021594612
211	0xbde4afcd	-0.11166344
212	0x3c5ab5e6	0.013349032
213	0x3e4b42cc	0.198497
214	0x3e917ec7	0.28417036
215	0xbed86016	-0.42260808
216	0x3e84f481	0.25967792
217	0xbea47312	-0.32119042
218	0x3ea0da16	0.31416386
219	0x3e23724b	0.15961568
220	0x3eb03f4e	0.34423298
221	0xbe71da62	-0.23618463
222	0xbe7c8a04	-0.24662024
223	0x3e062072	0.13098314
224	0xbd048ea7	-0.032362606
225	0xbd5f9b7e	-0.05459165
226	0xbed49f08	-0.4152758
227	0x3d0779a0	0.033074975
228	0x3d816e9e	0.06319927
229	0x3e8511ec	0.25990236
230	0x3e88c32f	0.26711413
231	0x3edaaadc	0.4270848
232	0x3e024c8c	0.12724513
233	0xbe71d482	-0.23616222
234	0xbdbf3439	-0.093361326
235	0x3de40f37	0.111357145
236	0x3e9ab9ca	0.3021987
237	0x3e03bd39	0.12865151
238	0xbeb413dd	-0.35171404
239	0x3df964ec	0.121774524
240	0x3d8fb427	0.07016783
241	0xbcf317b4	-0.029674388
242	0xbdb22bd8	-0.08699769
243	0xbdce02f4	-0.10059157
244	0xbe834a68	-0.25642705
245	0xbe4dd64c	-0.20101279
246	0x3cb7a78d	0.022418762
247	0xbd5a74f1	-0.05333418
248	0xbd8bd2d1	-0.068273194
249	0xbd38d342	-0.045123346
250	0x3cd5de25	0.026106903
251	0x3e5196eb	0.20467727
252	0xbd4f22b9	-0.050570223
253	0x3d12a06b	0.035797518
254	0xbdb19f81	-0.08673001
255	0x3e51039e	0.20411536

network_body.linear_encoder.seq_layers.2.bias f4 [128]
0	0x3bf8f18c	0.007597154
1	0xbcc4e4f1	-0.024034949
2	0xbd7c6ac4	-0.061625257
3	0xbceb3ca8	-0.028715447
4	0xbd221b18	-0.03957662
5	0xbdc499de	-0.0959966
6	0xbd9419a1	-0.07231451
7	0xbc45bd00	-0.012068987
8	0x3c182b12	0.0092876125
9	0xbd673881	-0.05645037
10	0xbce77747	-0.028255118
11	0x3cee4ccc	0.029089354
12	0x3c50a034	0.012733508
13	0x3aa4eb7a	0.0012582385
14	0x3d5a782e	0.05333727
15	0xbde5cb06	-0.11220364
16	0x3b8bf8c0	0.0042715967
17	0xbc9f7324	-0.019464083
18	0xbd9d4080	-0.07678318
19	0xbc983218	-0.018578574
20	0xbdac65e0	-0.084178686
21	0xbb8fbfb1	-0.004386865
22	0xbdd75258	-0.10513753
23	0xbdb9a06b	-0.090638004
24	0xbc766dee	-0.015040858
25	0xbd90c4a0	-0.07068753
26	0xbd95f810	-0.07322705
27	0xbcc22e2f	-0.023703663
28	0x3be65511	0.0070291837
29	0x3da1722b	0.07883104
30	0xbd0cb0fb	-0.03434847
31	0xbd617f43	-0.055053007
32	0xbd2fd72c	-0.042929813
33	0xbd83847c	-0.06421754
34	0xbd88cb0f	-0.06679355
35	0xbd2ecce3	-0.042675864
36	0xbd7e684f	-0.062111195
37	0xbcec3f9e	-0.028838929
38	0xbd682e0d	-0.056684542
39	0x3d4d4290	0.050112307
40	0xbc5f09f4	-0.013613213
41	0xbbbdb4f9	-0.005789396
42	0x3cc3e8ef	0.023914782
43	0xbca80ca7	-0.020513846
44	0xbc8a0f8c	-0.016853116
45	0x3c0b7fbf	0.008514344
46	0xbcb45b14	-0.022016086
47	0xb9c0a322	-0.00036742637
48	0xbd8a06f1	-0.06739605
49	0x3c317315	0.01083066
50	0x3ce200ac	0.027588211
51	0xbbb2b9eb	-0.005454292
52	0xbbb8b472	-0.005636745
53	0x3a39d6e4	0.0007089211
54	0x3b8ba402	0.0042614946
55	0xbc87418a	-0.016510744
56	0x3ceee35f	0.029161153
57	0xbcfd03fe	-0.030885693
58	0xbba1ac72	-0.004933887
59	0xbdbb2788	-0.09138399
60	0xbd12627a	-0.035738446
61	0xbc9e445b	-0.019319704
62	0xbdd7ea76	-0.10542767
63	0x3cd6053b	0.026125541
64	0xbbf008fb	-0.0073252893
65	0x3d0452fb	0.0323057
66	0xbd7ad6b5	-0.061239917
67	0x3cb77f39	0.022399532
68	0xbd3ccbbc	-0.046092734
69	0xbd2bc195	-0.04193266
70	0xbd8757ac	-0.06608519
71	0xbc504bba	-0.012713367
72	0xbc7cb0dc	-0.015423026
73	0x3d4c848a	0.049931087
74	0xbd984755	-0.074354805
75	0xbc8beac5	-0.01707972
76	0xbda43e2d	-0.080196716
77	0xbd8ba5b8	-0.06818718
78	0xbbe8bd2a	-0.0071026282
79	0xbdadc961	-0.084856756
80	0x3ce44ab7	0.027867658
81	0x3c94d9e8	0.018170312
82	0xbd83161d	-0.06400702
83	0x3c3dc5dc	0.011582818
84	0xbca20c03	-0.019781118
85	0xbce2309a	-0.027611066
86	0xbc8ecc5e	-0.017431434
87	0xbce94f70	-0.028480262
88	0x3ce7dd86	0.028303873
89	0xbd796d45	-0.060895223
90	0xbdde896f	-0.10866057
91	0xbd88ed62	-0.06685902
92	0x3ce82d9c	0.02834206
93	0xbcd6cd83	-0.026221042
94	0xbd368451	-0.04455978
95	0xbd55cbcd	-0.052196313
96	0x3bcd26b4	0.0062607173
97	0xbc256f52	-0.010097342
98	0xbd26f9ef	-0.0407657
99	0xbcce0fdb	-0.025154045
100	0xbbd23e21	-0.0064160977
101	0x3b8a6f17	0.0042246687
102	0xbc398012	-0.011322038
103	0x3b6d72a5	0.0036231664
104	0xbd9406c8	-0.07227856
105	0xbd89d280	-0.06729603
106	0xbd03fd2a	-0.032223858
107	0xbc46b8cf	-0.012129023
108	0x3cf30481	0.029665234
109	0x3cb02e70	0.021506518
110	0xbd23c50d	-0.039982844
111	0xbc2ea372	-0.010659086
112	0xbd3832f2	-0.04497046
113	0xbd131fec	-0.035919115
114	0xbdbadb7f	-0.09123897
115	0xbcb57bbe	-0.022153731
116	0x3c0f7877	0.008756748
117	0x3c381019	0.011234307
118	0xbba55538	-0.0050455593
119	0x3ca75668	0.020426944
120	0xbc991b83	-0.018689876
121	0xbda88668	-0.08228761
122	0xbd1399f7	-0.036035504
123	0xbca42e96	-0.020041745
124	0xbd3db45b	-0.04631458
125	0xbd15ff64	-0.036620513
126	0x3cdcc0ab	0.02694734
127	0xbb1a3724	-0.0023531402

network_body.linear_encoder.seq_layers.2.weight f4 [128, 128]
0	0x3e509843	0.20370583
1	0xbc94e50d	-0.018175626
2	0xbd90673c	-0.070509404
3	0x3e308b74	0.17240697
4	0xbe7be7bd	-0.2460012
5	0xbd97035a	-0.07373686
6	0x3d3d72c4	0.046252027
7	0x3d391fd0	0.045196354
8	0xbe08ae63	-0.13347773
9	0xbdda9f32	-0.10674895
10	0x3d1d3891	0.038384024
11	0x3e1c2469	0.15248264
12	0xbd68ccb6	-0.056835853
13	0xbd348f1b	-0.04408179
14	0xbd750e06	-0.059827827
15	0xbd655609	-0.055990253
16	0xbd10cbc4	-0.035350576
17	0xbdd7498a	-0.10512073
18	0xbe4008dc	-0.1875338
19	0xbe2fbfc4	-0.17162997
20	0x3e5751e9	0.2102734
21	0xbe2c4d02	-0.16826251
22	0x3d537796	0.051627718
23	0x3c31da7c	0.010855313
24	0xbe303cc1	-0.17210676
25	0x3d80bb7f	0.06285762
26	0xbdfe4d67	-0.12417107
27	0x3c05e03a	0.008171136
28	0x3e075014	0.13214141
29	0x3da4b248	0.08041817
30	0xbd82eb9c	-0.06392595
31	0xbddf2b0d	-0.10896883
32	0xbd3b1fb7	-0.045684543
33	0xbdcef80b	-0.10105904
34	0xbe276fa6	-0.16351184
35	0x3c82c4b7	0.015962942
36	0xbe579528	-0.21052992
37	0xbe849920	-0.25898075
38	0x3b255f7e	0.002523392
39	0x3dce80e2	0.10083176
40	0x3e13c13b	0.1442918
41	0xbd107266	-0.03526535
42	0xbd8e1518	-0.06937617
43	0xbbb42ce2	-0.0054985145
44	0x3d4c19e5	0.049829382
45	0x3da49a3b	0.080372296
46	0xbd018183	-0.031617653
47	0x3dc814ad	0.097695686
48	0xbd5a4326	-0.053286694
49	0xbc3bd4c0	-0.011464298
50	0xbc294125	-0.010330473
51	0xbd8cad92	-0.068690434
52	0xbe0e2904	-0.13882834
53	0x3d173791	0.036918227
54	0xbd577e6a	-0.052610792
55	0xbd98b7d4	-0.074569374
56	0xbd08dd03	-0.0334139
57	0x3d3ee6ad	0.04660671
58	0x3d8ea440	0.06964922
59	0xbe315563	-0.17317729
60	0xbe8951a5	-0.26820102
61	0x3c8cb0a6	0.017174076
62	0xbd154bfb	-0.036449414
63	0x3d2aa28e	0.04165893
64	0x3e19e6fc	0.1502952
65	0xbba74816	-0.005105029
66	0xbdc0ce26	-0.0941432
67	0xbe1afdc3	-0.15135865
68	0x3da44909	0.08021743
69	0xbcdaa94c	-0.026692055
70	0xbe1d7b1b	-0.15378992
71	0xbd7fb771	-0.062430803
72	0xbd5bf4bd	-0.053700197
73	0xbdce78d1	-0.10081638
74	0x3d417b87	0.047236945
75	0x3e0567cf	0.13027881
76	0xbded0174	-0.11572543
77	0xbd1ab260	-0.037767768
78	0xbdad509a	-0.08462639
79	0x3d17aa81	0.03702784
80	0x3ce25600	0.027628899
81	0x3e844d35	0.25840154
82	0xbe29af90	-0.16570878
83	0x3bb49ed6	0.005512099
84	0xbe0d7e9d	-0.1381783
85	0xbd767a9b	-0.06017552
86	0xbde164b2	-0.11005534
87	0x3dac4b1c	0.084127635
88	0x3d8a2489	0.0674525
89	0x3df4dbbb	0.11955973
90	0xbd933f57	-0.071898155
91	0xbdc65aea	-0.09685309
92	0xbe39d4d5	-0.18147595
93	0x3d573958	0.05254492
94	0xbc6ff328	-0.014645375
95	0xbe8ae088	-0.2712443
96	0xbaed666d	-0.001811219
97	0x3d8153b5	0.06314794
98	0x3dfda82e	0.12385593
99	0xbd9651ed	-0.07339845
100	0x3d298664	0.04138793
101	0xbe263682	-0.1623173
102	0x3d48c45d	0.04901539
103	0x3d212643	0.03934313
104	0xbec9e418	-0.39431834
105	0xbd45145b	-0.048115116
106	0x3d03a6b4	0.032141402
107	0x3d536d09	0.051617656
108	0xbe7def61	-0.24798347
109	0x3d28d080	0.041214466
110	0x3e3a4f83	0.18194394
111	0x3d8b8ca6	0.06813936
112	0xbdbeb23c	-0.09311339
113	0xbd45e22e	-0.048311405
114	0xbdf85676	-0.12125866
115	0xbdde3daa	-0.10851605
116	0xbca3b9df	-0.019986091
117	0xbddebbe4	-0.10875681
118	0xbdad92dd	-0.084752776
119	0x3d3a6a1a	0.045511343
120	0xbd9d9fa3	-0.07696464
121	0xbe0d1ce2	-0.13780549
122	0xbea12614	-0.31474364
123	0xbdbdcf92	-0.092681065
124	0xbe3562a9	-0.17713417
125	0xbde4725f	-0.11154627
126	0x3c5105c6	0.012757724
127	0x3de179f0	0.11009586
128	0x3d375635	0.044759948
129	0x3d809b05	0.06279568
130	0xbe3ad4a2	-0.18245175
131	0x3e6781d2	0.22608116
132	0xbdad5d8a	-0.08465107
133	0x3cf8fe6a	0.030394752
134	0xbe4cdd48	-0.20006287
135	0x3e07efa9	0.13275017
136	0x3dcc436c	0.09973797
137	0x3e70d1e7	0.23517571
138	0xbd30a1e3	-0.043123137
139	0x3e16e76e	0.14736721
140	0xbe2a4c92	-0.16630772
141	0xbcc17b00	-0.023618221
142	0x3deae432	0.11469306
143	0xbda597c8	-0.080855906
144	0xbd59b810	-0.05315405
145	0xbda4ae26	-0.08041029
146	0x3c9eb66c	0.019374095
147	0x3db7ffc9	0.08984334
148	0xbe212d39	-0.15739907
149	0xbd26383f	-0.040580984
150	0x3e4e84b4	0.2016781
151	0xbcdb6d4a	-0.026785512
152	0xbd994864	-0.074845105
153	0x3dde3fb3	0.108519934
154	0x3dd5de08	0.1044274
155	0xbe1f4578	-0.15553844
156	0xbc9d4c0f	-0.019201307
157	0xbdbf5931	-0.09343184
158	0xbd8044c7	-0.06263118
159	0x3d04955f	0.032369014
160	0x3d98f056	0.074677154
161	0xbdb55235	-0.0885357
162	0xbd8d190c	-0.06889543
163	0x3d11a6dd	0.035559524
164	0x39bb5671	0.00035731823
165	0x3d7bf772	0.06151528
166	0xbe0ae04f	-0.1356213
167	0xbe06c898	-0.13162458
168	0x3e58c895	0.21170266
169	0xbc9f9a28	-0.019482687
170	0x3d94c04e	0.07263242
171	0xbd73da88	-0.05953458
172	0xbcffa79a	-0.031207848
173	0x3d75c005	0.059997577
174	0xbc92c878	-0.017917857
175	0xbe70387f	-0.23459052
176	0x3bf213d7	0.007387619
177	0xbcd78861	-0.026310148
178	0xbd6b80f4	-0.057496026
179	0x3d6c8b67	0.057750132
180	0x3de1246d	0.10993276
181	0x3d9a5f76	0.07537739
182	0xbc7acdd2	-0.01530786
183	0x3e041219	0.12897529
184	0xbe60fbb1	-0.21971013
185	0x3ddfea6c	0.10933384
186	0xbcaafc77	-0.020872338
187	0xbe591d6c	-0.2120263
188	0x3e3e829d	0.18604513
189	0xbd7bbf32	-0.061461635
190	0xbdc1d993	-0.09465327
191	0xbd11f1b5	-0.0356309
192	0xbe09ff46	-0.13476285
193	0xbe15f4bd	-0.14644141
194	0x3cf90926	0.03039987
195	0x3dd96897	0.10615652
196	0x3e0bb36d	0.13642664
197	0x3e108f2a	0.14117113
198	0xbd451a82	-0.048120983
199	0xbe354687	-0.17702685
200	0x3d0dd566	0.03462734
201	0x3d9f37e2	0.07774331
202	0xbe367cdd	-0.17821069
203	0x3e4e9593	0.20174246
204	0x3d4b4e0b	0.049634974
205	0xbd34240b	-0.043979686
206	0xbe2e723e	-0.17035767
207	0xbcf7d844	-0.03025449
208	0x3c105a81	0.00881064
209	0x3df2f030	0.118622184
210	0x3d33de0e	0.04391294
211	0x3dbc5e35	0.09197656
212	0xbe061b61	-0.13096382
213	0xbc433b05	-0.011915927
214	0xbc06298e	-0.008188618
215	0x3e18c720	0.1491971
216	0xbcb75249	-0.022378104
217	0x3e3069da	0.17227879
218	0xbd084561	-0.03326929
219	0xbe2a1f79	-0.16613568
220	0x3da75f0e	0.08172427
221	0xbe40eb92	-0.18839863
222	0xbe6ab0c2	-0.2291899
223	0x3da4ecde	0.08052991
224	0xbe03c222	-0.12867025
225	0x3e0c261f	0.13686417
226	0xbde2328d	-0.11044798
227	0xbe61bc42	-0.22044471
228	0x3e18a2b6	0.1490582
229	0xbd667394	-0.056262568
230	0xbe62e1c4	-0.22156435
231	0x3e25b5e4	0.16182667
232	0x3d036ade	0.03208434
233	0x3d9dbea7	0.0770238
234	0x3cbd07b0	0.023074955
235	0x3d7d3dc8	0.061826497
236	0xbc1bdb62	-0.009512754
237	0xbe495d6e	-0.19664547
238	0xbda9c205	-0.082889594
239	0xbe30cca0	-0.17265558
240	0x3d26c3e7	0.04071417
241	0xbd8c03bd	-0.068366505
242	0xbda91e17	-0.08257692
243	0xbd5b8f23	-0.053603303
244	0x3c85b518	0.016321704
245	0x3d9a0b77	0.07521718
246	0xbd697319	-0.05699453
247	0xbdcaa8ab	-0.09895452
248	0x3ce53ec3	0.027984029
249	0xbd3817b2	-0.044944473
250	0x3e68677a	0.22695723
251	0x3ddfd1f7	0.109287195
252	0x3d8bdcf0	0.0682925
253	0xbd577eb3	-0.052611064
254	0xbd37915a	-0.044816352
255	0xbbcc3dff	-0.0062329764

network_body.vector_processors.0.normalizer.running_mean f4 [29]
0	0x3f2b129c	0.6682527
1	0x3de83383	0.1133795
2	0x3c8b9955	0.017040888
3	0x3e429092	0.19000462
4	0x3effbcd9	0.49948767
5	0x3f2e79c0	0.68154526
6	0x3dc5d834	0.09660378
7	0x3c6b5410	0.014363304
8	0x3e4902a7	0.19629918
9	0x3ef660f7	0.48120853
10	0x3f0efa2b	0.55850476
11	0x3e401449	0.18757738
12	0x3c97eba8	0.018544987
13	0x3e60bb4c	0.21946448
14	0x3ee92732	0.45537716
15	0x3f01ec5c	0.5075128
16	0x3e14d633	0.14534836
17	0x3dd55fb1	0.10418642
18	0x3e68d092	0.22735813
19	0x3f031ba8	0.51214075
20	0x3f01ec5c	0.5075128
21	0x3e14d633	0.14534836
22	0x3dd55fb1	0.10418642
23	0x3e68d092	0.22735813
24	0x3f031ba8	0.51214075
25	0x4276866d	61.631275
26	0x422ade59	42.717136
27	0x3a212a4a	0.0006147964
28	0xba27c27d	-0.00063995254
