Assets/Models/Scena2/18Feb/iRobot.onnx (onnx, 86672 bytes, 8 tensors)

58 f4 [29]
000000 cd 81 f0 3e 55 f2 a7 3e 1c 46 d7 3d f2 9d af 3e
       0.4697403 0.32802072 0.10511419 0.3430019
000010 4b 16 9f 3e 71 47 fb 3e 79 40 c5 3e a8 ce 06 3e
       0.31071696 0.49077943 0.3852575 0.1316477
000020 35 b5 c3 3e 0b 90 ad 3e 08 a7 ff 3e 05 65 d0 3e
       0.38224187 0.3389896 0.49932122 0.40702072
000030 e2 55 aa 3d ea 0a cd 3e 09 46 a3 3e 66 72 ff 3e
       0.08317162 0.4004739 0.3188937 0.49891967
000040 4d d7 ba 3e 9a fb ae 3e ad 39 b4 3e a0 a1 9f 3e
       0.36492386 0.34176332 0.35200253 0.31177998
000050 66 72 ff 3e 4d d7 ba 3e 9a fb ae 3e ad 39 b4 3e
       0.49891967 0.36492386 0.34176332 0.35200253
000060 a0 a1 9f 3e cb ab cf 41 47 e7 9a 41 b5 79 35 40
       0.31177998 25.958883 19.362928 2.8355534
000070 91 07 2d 40
       2.7035868

action_model._discrete_distribution.branches.0.bias f4 [5]
000000 d2 64 8b bc 2b df 05 3c a1 97 4d bd 8a 0c d3 39
       -0.017015848 0.008170883 -0.050193433 0.00040254398
000010 70 af 25 3d
       0.040450513

action_model._discrete_distribution.branches.0.weight f4 [5, 128]
000000 c3 2a 79 3c f5 5d a2 bc 67 b9 10 3d 31 a8 f6 bd
       0.015207949 -0.019820193 0.035333063 -0.12043799
000010 06 16 e9 3c 8d 13 b4 bc 6b 13 a3 bd 11 2b e0 bc
       0.028452884 -0.021981979 -0.07962688 -0.027364286
000020 42 ea d7 bd 88 61 6f 3d b1 02 42 3d f4 4b db 3c
       -0.10542728 0.058442622 0.047365848 0.026769616
000030 08 ff 87 bd 98 9c 1f 3d 61 8f 7a 3d 1b ce 0e 3d
       -0.0664044 0.0389677 0.061171893 0.034864526
000040 38 a4 3e 3d fb 0f b6 3d e1 cf 6b bc 53 35 5d 3d
       0.04654333 0.08889767 -0.014392824 0.054005932
000050 07 32 0d bd c8 8c 0e be d0 a8 a7 3b f2 11 80 bd
       -0.034471538 -0.13920891 0.0051165596 -0.06253423
000060 10 d1 b2 3b a0 3a 7b 3d b7 2a b0 3c 80 43 ee bc
       0.005457051 0.061335206 0.021504743 -0.02908492
000070 f3 a2 9a 3d ee b6 91 3d ff 71 de bc 74 e7 35 be
       0.07550611 0.07114969 -0.027153967 -0.17764074
000080 3e dd ab 3d 0f bc 14 3d ee 82 ac bc cc 83 db bc
       0.08391808 0.03631216 -0.021058526 -0.026796244
000090 5c 6d 1d 3d ce 95 d6 3c f9 27 fa 3b 36 6f 1e be
       0.03843437 0.02619448 0.0076341596 -0.15472111
0000a0 12 2c f1 3c 48 96 21 bd fe 8a a2 bc 35 0a e1 3d
       0.02943996 -0.03944996 -0.019841667 0.10988275
0000b0 f6 7f bd 3c e3 ce 88 3d 7e f1 09 3d dd b6 18 3d
       0.023132306 0.066800855 0.03367757 0.037283767
0000c0 1a 9b cb bd 80 04 8c bd af 17 2d 3d 6d 80 31 3d
       -0.09941693 -0.06836796 0.042258915 0.043335367
0000d0 7f ea 57 3b 19 4a ad 3c b8 6d 04 be 06 c8 82 bd
       0.0032946167 0.021153497 -0.1293248 -0.06385808
0000e0 f3 bc 6d bc 89 45 75 3d 84 a5 c3 3c 53 05 65 3d
       -0.014510381 0.059880767 0.023882635 0.05591328
0000f0 3b 5a 05 3e 7e 08 ee bd 1d 7e 0f bd 12 40 8d bc
       0.13022701 -0.116227135 -0.03503238 -0.017242465
000100 7f a4 a0 bd 01 96 03 bd 5f b1 1d 3d 24 ab e5 3c
       -0.07843875 -0.032125477 0.038499232 0.028035708
000110 f4 35 98 bc 3a 14 84 3d 6f 79 ec bd b5 e9 ca bc
       -0.018580414 0.064491704 -0.11546599 -0.024769643
000120 31 55 c0 3c 12 a1 ea bc 6b fd d6 bd ce 01 d4 bc
       0.023478122 -0.028641257 -0.104975544 -0.025879767
000130 dc 90 05 bc 89 2d 11 3d 64 1d 92 bc 81 ba f2 bd
       -0.008152213 0.035443816 -0.01783628 -0.11851979
000140 04 51 85 3d dc 9b 54 bc 6f 0a 17 3d 7a 09 23 3c
       0.06509593 -0.012976613 0.036875185 0.00995099
000150 50 51 b8 bc 16 a2 81 3c b2 ba 16 be 48 12 08 bb
       -0.02249971 0.015824359 -0.14719656 -0.002076285
000160 27 95 7a 3d 54 68 ab 3b fc c3 95 bc da 10 70 3d
       0.0611774 0.0052309427 -0.01828193 0.05860982
000170 48 0a 8c bc d8 cf 00 3d b8 b0 a1 3d 91 0e 6f 3d
       -0.017094746 0.031448215 0.078950346 0.0583635
000180 81 ab 9a bc d9 11 2d bc 50 82 9d 3a 13 3f 6b 3c
       -0.018880608 -0.010563337 0.0012016986 0.0143583
000190 17 86 5c 3d 6d 3a f1 3c fb e3 94 39 d9 b5 cd bc
       0.053838816 0.029446805 0.00028398618 -0.025111126
0001a0 79 73 e5 bd 8a 26 18 be ae 73 0c 3d d8 27 ec 3c
       -0.11203665 -0.14858451 0.03429001 0.028827593
0001b0 24 9c e9 bc 35 6e ff bc 42 48 b6 3c e2 72 b1 3d
       -0.028516836 -0.03118048 0.022251252 0.0866449
0001c0 6f 22 bc bd a7 a9 c8 bc 66 20 a8 3c 2c c6 c6 bd
       -0.09186255 -0.024494959 0.020523261 -0.09705767
0001d0 5a bf 12 3d 7d 99 a7 3d 2f fc 2e 3d 7c 9d 8b 3c
       0.03582702 0.081835724 0.04272097 0.017042868
0001e0 71 6c ac bb db 34 d9 ba 8b fc f1 3c bd 92 54 bd
       -0.0052619507 -0.0016571538 0.029539367 -0.051897753
0001f0 ae 3a c3 bd f2 63 e2 3c a4 20 05 be 0b 0e 2b be
       -0.09532677 0.027635548 -0.13000733 -0.16704576
000200 e8 c8 b2 bd c2 21 9e 3c 59 77 9a 3d 7e 39 c9 3c
       -0.08729726 0.019303206 0.07542295 0.024563547
000210 c8 9d 80 bd 18 5d 88 3d 91 de 87 bd 26 74 f5 3d
       -0.062800944 0.06658381 -0.06634248 0.11985044
000220 16 5b 2f 3d 85 f9 6e 3d b9 93 eb bd ce e8 4d bd
       0.042811476 0.05834343 -0.11502785 -0.050270848
000230 54 d4 b9 3c 66 94 ba bd e3 44 19 3c 79 e9 98 3d
       0.022684254 -0.09110336 0.009354803 0.074664064
000240 59 94 18 3c 37 c0 36 bd 92 68 b2 3d cf aa 0e be
       0.009312713 -0.044616904 0.087113515 -0.13932346
000250 47 1b 77 3d c1 1e c0 3c 8c 5c 25 be 80 33 fb 3d
       0.060328748 0.023452165 -0.16148585 0.12265682
000260 f0 49 ad 3d b0 39 eb 3c 10 39 43 bd 9a 2c 04 3e
       0.08461368 0.028714031 -0.04766184 0.12907639
000270 40 dc 22 3d ae 82 3e bd cf 00 60 bd da e8 cd 3d
       0.039760828 -0.046511345 -0.05468827 0.100541785
000280 f6 e3 f5 bc 09 ec 3d be 03 34 4a 3d 24 2f f7 bd
       -0.030015927 -0.18547072 0.04936601 -0.12069538
000290 79 4d ea bb d2 91 b4 bd 30 71 ed 3d 6e ff da bd
       -0.0071503487 -0.088168755 0.115938544 -0.106932506
0002a0 06 90 55 bd ef 28 c4 3d 2a ee 91 3d 3e 0f e8 bd
       -0.052139305 0.0957812 0.07125504 -0.11331032
0002b0 ba 51 94 bd 4c c3 46 be 66 84 60 bd 2c dc aa bc
       -0.072421506 -0.19410437 -0.054813765 -0.02085694
0002c0 ad 55 9b bd 42 9e 4b 3d 19 97 7f be 99 02 8b bd
       -0.07584701 0.049711473 -0.24959983 -0.06787605
0002d0 42 ce 06 be 82 c3 f9 3c 6e 17 77 bd 22 16 f6 bd
       -0.13164619 0.030488733 -0.06032508 -0.1201594
0002e0 63 d9 89 bd 06 58 8b bc c0 55 53 3d ff 74 00 3d
       -0.06730916 -0.017009746 0.05159545 0.031361576
0002f0 ca 54 ab bc 5b af 19 3e 39 cc dc bd 75 ea b2 3d
       -0.020914454 0.15008299 -0.1078114 0.087361254
000300 f8 b1 cd bc 85 f1 b7 3d 34 2b d1 3c 1a 80 d3 3d
       -0.025109276 0.08981613 0.025533296 0.10327168
000310 b4 c1 cf 3d 03 3d ed bd 90 ec d8 bd ba 1b 09 bd
       0.10144368 -0.11583903 -0.10591996 -0.033473708
000320 bc 9e d8 3c 37 dd 69 bd e3 21 7d bd d4 10 1d bd
       0.026442878 -0.057095733 -0.061799895 -0.038346127
000330 81 d6 11 bd 1a 36 07 3e 12 8c fd 3a 1a a7 ad 3d
       -0.035604957 0.13204232 0.0019344112 0.08479138
000340 93 91 21 3d d0 3f 39 be 2f 70 64 be 5f be f7 3c
       0.03944547 -0.18090749 -0.2230842 0.030242143
000350 5a a3 45 3d 1c 39 95 3c f9 87 55 3d ad c9 6e be
       0.048251487 0.018215708 0.052131627 -0.2331912
000360 ab 19 f3 bd 77 f7 ce bc c4 0b 66 bd 03 4f 90 bd
       -0.1187013 -0.025264485 -0.056163564 -0.0704632
000370 08 6d 59 bd 55 34 29 be 40 86 4d 3d 56 e4 2e 3d
       -0.053082496 -0.1652387 0.05017686 0.042698227
000380 65 4f 28 3d 76 a1 88 bd c0 a0 14 be 1e 42 7d 3d
       0.04109134 -0.06671421 -0.14514446 0.061830632
000390 27 2e 27 3d 13 7c 45 be e8 89 33 be e6 29 07 be
       0.0408155 -0.19285612 -0.17533076 -0.13199577
0003a0 4f 3c db ba 14 c2 08 3d 9b 19 46 be 0c 58 9b 3d
       -0.0016726347 0.033388212 -0.19345705 0.07585153
0003b0 ec e7 9d 3d 4b 2d c7 bd 64 02 40 be fa 00 14 bd
       0.07710251 -0.09725436 -0.18750912 -0.036133744
0003c0 3e 38 00 bd d9 e9 5d be 00 96 c0 3d a3 15 8e bd
       -0.031303637 -0.21671237 0.0940361 -0.069377206
0003d0 f0 73 af bc 5c 4f 04 3d 2a b8 bd 3c 10 44 84 3b
       -0.021417588 0.032302245 0.023159105 0.004036434
0003e0 ff d2 e1 bd ed 6e ca 3d 7a 6c ac 3d bf 3c 66 bd
       -0.110265724 0.09884439 0.08419128 -0.056210276
0003f0 89 c5 d1 bd b5 ad cf bc b2 bf 10 be e8 1a 2a be
       -0.10242755 -0.025351385 -0.14135626 -0.16611826

network_body.linear_encoder.seq_layers.0.bias f4 [128]
000000 65 4e 06 bd 21 74 2a 3d dd de a0 bc 4d aa 48 bc
       -0.032789607 0.041614655 -0.01963752 -0.012247634
000010 a0 d6 34 bd ce dc 19 3d 0e b8 f5 bc f4 d2 ac bc
       -0.044149995 0.03756409 -0.02999499 -0.021096684
000020 e4 a9 95 bc e5 38 05 3d 2b 9b 85 3d 24 17 9e 3c
       -0.018269487 0.032524962 0.065237366 0.019298144
000030 3b 26 6c bd 19 94 cf 3d b6 c6 95 3c f5 1c 01 3d
       -0.057653647 0.10135669 0.01828323 0.031521756
000040 da 5e c9 bb af 06 85 3c 7a fd c0 3c 97 71 81 3c
       -0.0061453404 0.016238539 0.023558367 0.015801234
000050 59 89 4d 3d 27 b9 f0 3a 4f 8e 7e 3b 35 5a 99 3d
       0.050179813 0.0018365727 0.0038842147 0.07487909
000060 fc 50 14 bd 4d 93 eb bc 58 af 1a bd 84 1a 55 bc
       -0.036210045 -0.028756762 -0.037764877 -0.01300681
000070 60 ae 1b bc 79 17 18 3d 66 51 c8 bc e7 e5 74 3d
       -0.009502023 0.03713176 -0.024452876 0.059789564
000080 2d 66 91 3d 64 65 78 3d 98 27 46 3d 5c 29 64 3d
       0.070995666 0.06064357 0.048377603 0.055703506
000090 bb e6 08 bd 92 b5 26 bd e9 78 12 3d 40 78 6e 3d
       -0.033423167 -0.040700503 0.03575984 0.058220148
0000a0 21 aa 43 bc ee 7d 1e 3d c8 ac 26 3d 7d f3 d8 bd
       -0.011942417 0.038694315 0.04069212 -0.10593317
0000b0 b7 29 ff 3c cb e7 93 bb b7 6e 59 bd 94 75 05 3c
       0.03114782 -0.004513716 -0.0530841 0.008145709
0000c0 b7 85 b3 bc 50 17 cd 3c a6 53 01 3d 8d f7 0e bc
       -0.021914346 0.02503553 0.031573914 -0.008726013
0000d0 37 d2 c0 ba 3d 96 e4 3d 2d 80 64 bc e7 a3 20 3d
       -0.0014711086 0.11161468 -0.013946575 0.03921881
0000e0 ab 11 06 bb 31 f4 b6 3c 29 ab 4a 3d 3c a4 47 3c
       -0.0020457308 0.022333236 0.049479637 0.012185153
0000f0 3d 19 5f bd 0e 00 27 3d 70 6e 31 39 cb dd 65 3c
       -0.05446743 0.040771537 0.00016921177 0.01402993
000100 87 02 72 3c 3f 24 4c 3c 89 b9 49 bd e1 2d 57 bc
       0.01477111 0.012459814 -0.049249206 -0.013133497
000110 16 18 7f 3d cd d0 bb bc 98 45 71 3c 7f c6 4b 3c
       0.06227883 -0.022926712 0.014726065 0.012437462
000120 79 c4 ad 3b b5 89 e9 bc 86 f7 3d bc 21 aa cb bc
       0.0053029624 -0.028508047 -0.011594659 -0.024861397
000130 2c a3 b0 ba fc ad 8b bd dc 3c e1 b8 02 a7 10 3c
       -0.0013476363 -0.06820294 -0.00010740172 0.00882888
000140 80 b3 7b bc 4b 49 6d bc ac a0 56 bd 8f b3 93 bd
       -0.01536262 -0.014482806 -0.052399322 -0.072119825
000150 60 a3 c4 3c 97 f3 b0 bb f3 de 45 bc da c5 26 3d
       0.024003685 -0.005400132 -0.012077081 0.04071603
000160 e7 28 a9 bc f0 22 50 3d 78 1e c5 bc 86 49 e9 bc
       -0.020649387 0.05081457 -0.02406238 -0.028477442
000170 ea cb 9a 3b c4 1a 2a bd b3 03 55 3b e0 b0 08 bd
       0.0047240155 -0.041529432 0.0032503426 -0.033371806
000180 10 74 12 bd 53 0e 03 3d 54 78 2b 3d 86 72 04 bc
       -0.035755217 0.031996083 0.0418628 -0.008083945
000190 28 c8 79 3c 97 b5 99 3c 00 f6 2f 3d 5e 79 44 3d
       0.015245475 0.018763347 0.042959213 0.047967307
0001a0 d2 7a 9a 3c 6a 41 af bc d3 9d 31 3c 4d 06 65 3c
       0.018857393 -0.021393497 0.010840851 0.013978553
0001b0 06 cf e3 bb 80 9c dc bc f4 c9 e8 3b c5 22 88 3d
       -0.0069521694 -0.026930094 0.007104153 0.06647257
0001c0 43 10 6b bd 95 ae bd 3b 6e 2a cf 3c 43 b6 8c 3d
       -0.057388555 0.005788634 0.025288787 0.06870701
0001d0 1b 09 ea bb 4e c5 d1 3b 09 b8 46 3c 2a bb 2c 3c
       -0.0071421987 0.0064016944 0.012128838 0.01054267
0001e0 c3 98 25 3d e4 2b ef bd c5 74 b5 3b d4 c1 8c 3c
       0.040428888 -0.11678293 0.0055376017 0.017182268
0001f0 db c0 18 3d 01 74 f2 3c c6 f9 66 39 1b cc 21 3d
       0.037293296 0.02959633 0.00022027557 0.03950129

network_body.linear_encoder.seq_layers.0.weight f4 [128, 29]
000000 f6 a6 b0 3d ea c2 9c 3d 07 53 19 be 9c 18 d4 bc
       0.08625595 0.076543644 -0.14973079 -0.02589064
000010 36 75 40 bd f7 a8 16 be d0 a1 d0 3e 9c 74 37 3e
       -0.04698678 -0.14712892 0.40748453 0.17915577
000020 6c 08 ae bd 8f ac 1f 3e 45 2b 76 be 2b 78 1d 3d
       -0.084977 0.1559317 -0.24039944 0.03844468
000030 be ae 78 3d 7d fb f9 3c 82 7f 0b 3e 49 8b 8c be
       0.060713522 0.030515427 0.13622859 -0.27450016
000040 f2 41 1e bd 21 bc f2 3d 61 c4 af 3d fd 70 c6 3d
       -0.03863711 0.11852289 0.08582378 0.096895196
000050 05 1c 27 be 57 f6 0f 3c 66 4b 75 3e 29 02 70 bd
       -0.16319282 0.008786759 0.23954543 -0.05859581
000060 a1 02 b8 3e ad f8 fc be e4 8f 07 be 0e 1a ca 3d
       0.35939506 -0.49408475 -0.13238484 0.09868251
000070 72 ed 34 3e 4b 23 f3 bd 76 63 ac be 47 2f f3 bd
       0.17668703 -0.11871966 -0.33669633 -0.11874252
000080 74 c3 85 3e 61 59 7f 3d 68 a8 36 be 26 1e 0c be
       0.2612568 0.062341098 -0.1783768 -0.13683376
000090 1f af d6 3e 94 3a 1d 3d ea 45 3b bc 44 29 cd bd
       0.41930482 0.038385943 -0.011430243 -0.100176364
0000a0 46 5a 10 3e 4b 91 3b 3d 70 83 67 3d 5c a5 1a 3e
       0.14096937 0.04579286 0.056521833 0.15102142
0000b0 4f 1e a2 3e c6 12 9f 3c a8 43 fc 3d b7 2d 6f bd
       0.3166375 0.019418132 0.12317592 -0.058393206
0000c0 4f a5 99 bd 79 65 b9 3e 08 b1 07 bd e1 cb c8 3d
       -0.07502233 0.3621023 -0.033127815 0.09804512
0000d0 53 23 b2 be b5 74 37 be 61 28 53 3e 3d b0 5f 3e
       -0.34792575 -0.17915614 0.20620872 0.21844573
0000e0 cc 9b bf 3d 60 bd bf 3e cf 56 8d be fd 1e 63 3e
       0.09355888 0.3744917 -0.27605292 0.2217979
0000f0 86 56 ac 3d 83 3b e7 3b 37 13 f4 3d cd ea f9 3e
       0.084149405 0.007056655 0.119177274 0.4881195
000100 4c 3d 5c be cc 0a 8e 3d 9b df 22 be 2d c6 47 3e
       -0.21507758 0.06935653 -0.15905611 0.19509192
000110 c3 a2 0d 3d de db 36 be 02 43 e9 bd f6 44 77 3e
       0.03457905 -0.1785731 -0.11389734 0.241474
000120 96 be e9 bc a8 70 aa 3d e1 bc 19 bf 87 b8 9a bd
       -0.028533261 0.08322269 -0.6005383 -0.07554727
000130 43 85 39 3e b6 6b a3 be 7c 03 17 3e 0e 3a 28 bd
       0.18117242 -0.31918114 0.14747423 -0.04107099
000140 9b 9e ca bd 36 17 be bd ab 1d 47 3d 78 c8 20 3e
       -0.09893533 -0.09281771 0.048612278 0.15701473
000150 78 98 ff 3d e6 ab 35 3c d9 d3 b3 be 31 66 9f bd
       0.12480253 0.011088347 -0.35122564 -0.07783163
000160 3c 0b 87 be 1b 2f 6c be e8 2a 13 3e e2 96 7f be
       -0.2637576 -0.23064844 0.14371836 -0.24959901
000170 92 47 77 bd d6 39 94 3d 02 af b7 bc 5e 69 8b 3e
       -0.06037099 0.07237594 -0.022422317 0.27228826
000180 3d 45 a6 3e f2 24 7e bc d4 c7 f6 bd e0 03 a5 3e
       0.324747 -0.015511738 -0.12049833 0.3222952
000190 85 0b cb 3c 97 4c 23 3e 8a 22 5b 3d ba cc 7d be
       0.024785766 0.15947185 0.053499736 -0.24785128
0001a0 99 58 75 3d dc ba 08 3e 25 e5 06 be 9b ca 66 be
       0.059898946 0.13352531 -0.13173349 -0.22538225
0001b0 f0 f9 37 bc 3a 75 eb bd 5d 64 af be d5 da 86 bd
       -0.011229023 -0.114969686 -0.3425626 -0.06584708
0001c0 45 e1 eb 3e d3 51 56 3d 57 31 8c 3e e7 43 8c bd
       0.46070305 0.052324127 0.27381393 -0.06848889
0001d0 06 6e d1 3e 57 4f b5 bc ac 09 0c bc 04 f9 61 3e
       0.40904254 -0.022132559 -0.008547228 0.22067648
0001e0 63 ff 2f be 86 1e ba 3a b7 bd a9 3d f6 7e ea 3b
       -0.17187266 0.001419977 0.08288138 0.007156248
0001f0 6c 32 c3 3e d5 4e ea be 26 33 0d be a6 97 fe 3c
       0.38124406 -0.4576327 -0.13789043 0.031078171
000200 22 e8 99 bd f2 b4 fa 3c 0a 86 0d 3e 10 5e 3e 3e
       -0.07514979 0.03060386 0.13820663 0.1859057
000210 e1 f8 66 be c0 42 62 be 2d 51 35 3e ac f5 54 3d
       -0.22555877 -0.22095776 0.17706747 0.051992103
000220 7f 84 a1 be ea b6 a7 be 0e b9 d1 bc 9f 0c bc bd
       -0.315464 -0.3275674 -0.025600936 -0.09182095
000230 c3 c9 dc 3e ba 2a aa 3e 0c 8d 3b 3e 96 19 b1 3e
       0.43122682 0.33235723 0.18315524 0.34589833
000240 47 1d 04 be 26 88 a7 bd c8 2c 2b 3e 56 40 59 be
       -0.12901793 -0.08180265 0.16716301 -0.21215948
000250 eb ea 0b 3e 6f c4 e3 bc b6 b9 b4 be 81 be 46 3e
       0.13663833 -0.027803628 -0.35297936 0.19408609
000260 63 71 f2 bd c1 dc 8c 3d d0 68 fb 3d 8f 5d 31 be
       -0.11838033 0.06878043 0.12275851 -0.17320846
000270 4a f9 f1 3d 01 01 93 3e ba 51 8a 3e 70 3d 65 bc
       0.11815126 0.28711703 0.27015477 -0.013991699
000280 ff 0d 94 3e f6 11 ef 3d 3a 3f 96 3e 82 89 ce bc
       0.28916928 0.11673348 0.29345113 -0.025212053
000290 01 b4 c4 bd be 93 c1 bd c6 f8 2e 3e 88 74 25 3e
       -0.096046455 -0.09452008 0.17087087 0.16157734
0002a0 a6 3c 81 bd be aa 14 3f 57 cb f1 3c 61 89 bb bd
       -0.06310396 0.5807303 0.029515905 -0.09157062
0002b0 81 2f e5 bd be 60 bf be f0 26 9c be 7f c3 9a 3d
       -0.11190701 -0.37378496 -0.30498457 0.07556819
0002c0 9a 50 2c 3e b9 5b a8 3e 45 ae fa bd e6 d9 0f 3e
       0.16827622 0.3288248 -0.122402705 0.14047965
0002d0 21 db 67 3c 64 79 75 be 67 20 e8 3c 8d dc 2b 3d
       0.0141513655 -0.23972088 0.028335763 0.04195838
0002e0 40 14 56 3e f8 6b ec 3d 92 ae 2d 3e 0e 44 22 3e
       0.20906162 0.11544031 0.16961125 0.15846273
0002f0 18 99 73 3d a3 d6 ba bc 2b 98 00 3e 08 4c 31 3e
       0.059472173 -0.022807425 0.12558047 0.1731416
000300 cb 15 25 be f0 e2 88 3e 90 1d 20 bd 9b 98 c2 bd
       -0.16121595 0.2673564 -0.039090693 -0.095017634
000310 12 9f d2 bd 4f f5 34 3d 0a ff 7a 3e f1 d4 82 3e
       -0.102842465 0.044179257 0.24511352 0.25553086
000320 d1 db 40 be d0 68 4d 3e 9d 0f 3e be 29 0e 93 3e
       -0.18833853 0.20059514 -0.18560643 0.2872174
000330 b7 2e 38 3e 6f 6a 92 3d f6 8a a4 be 9b 8a 3e bd
       0.1798657 0.07149207 -0.3213727 -0.046518903
000340 eb 3e 8e be cf 5c 94 bc bd 46 73 3d bf 51 f6 3d
       -0.27782378 -0.01811066 0.059393633 0.120273106
000350 17 de f4 bc 8c 5f e0 3e be f9 2c be c2 80 5f 3d
       -0.029891057 0.43822896 -0.16892144 0.054566152
000360 2c 80 51 3e f2 f6 4c be 46 7f f0 3d 52 4c 21 be
       0.2045905 -0.20016077 0.117430255 -0.1575177
000370 ff d7 2f 3e 8c 93 10 3e 0c aa 9c 3e c1 04 2e bc
       0.1717224 0.14118785 0.30598485 -0.010621251
000380 09 e7 e8 bd 70 db db 3e 5c aa 21 be 55 52 75 3d
       -0.113721915 0.42940855 -0.15787643 0.05989297
000390 d6 04 29 3e d7 03 a0 3e 13 8d 00 3f 2c 15 f3 bd
       0.16505751 0.3125293 0.5021526 -0.118692726
0003a0 54 f9 cb bb 3f 10 2f bd 0e e8 fa 3d 5b e9 01 3d
       -0.0062247906 -0.042740103 0.12251292 0.031716686
0003b0 c6 25 5d 3d c9 2b 57 be da a6 6e be 1e 00 43 bd
       0.0539911 -0.21012796 -0.23305836 -0.047607534
0003c0 6b 87 75 be 12 31 ca 3e b6 3e a8 be 0a 1e 53 3e
       -0.23977439 0.39490563 -0.32860345 0.20616928
0003d0 5a 7d ed 3d 68 ea 87 bd f3 d3 10 be 9e 6e c1 3c
       0.115961745 -0.06636506 -0.14143352 0.023612317
0003e0 7e a7 8a bd a5 d0 af bd 32 54 a5 bc 48 00 3a 3e
       -0.06770228 -0.08584718 -0.020181749 0.1816417
0003f0 a7 1a 80 be be 8a 36 3e fb be 22 3d de ac dc 3d
       -0.25020334 0.17826363 0.039732914 0.10775159

network_body.linear_encoder.seq_layers.2.bias f4 [128]
000000 46 3f a4 bc e5 de df 3c 40 f9 56 3d 10 b6 12 bd
       -0.020049702 0.027327964 0.052483797 -0.03581816
000010 eb 5b 1d 3c 68 6d 64 3c a7 a6 28 bd f5 bc 39 bc
       0.0096044345 0.0139421 -0.041174557 -0.011336555
000020 82 9d a2 ba a4 99 83 3d b9 63 a4 bc f4 47 5a 3c
       -0.001240656 0.06425789 -0.020067083 0.013322819
000030 7a 5c 50 3c 89 0e 7e bb 79 fe 2e 3d 2d a8 c4 bc
       0.012717361 -0.0038765988 0.042723153 -0.024005974
000040 5a ca 35 3d 52 e1 75 3c 94 36 98 bc 44 95 dd bc
       0.04438243 0.015007334 -0.018580712 -0.027048714
000050 9d 20 92 bc 3f 4c c9 3c 49 24 8a bc d3 24 9e 3c
       -0.017837817 0.02457249 -0.016863005 0.019304669
000060 3c 7e f2 bc df fb e5 bc 1f 36 67 bd 45 5a 4b bc
       -0.029601209 -0.028074203 -0.0564481 -0.012411659
000070 06 7e c7 bc 7d 95 00 bc 7b 04 2b bd a9 ad 52 3c
       -0.024352085 -0.007848141 -0.04175232 0.012858787
000080 79 64 8d 3d cf c2 53 bd 66 5a 73 bd ed 53 13 bd
       0.06903929 -0.051699456 -0.059412383 -0.03596871
000090 cb 47 d4 3a 3e 0f 48 bd 3a ad 2f bd b6 06 73 3d
       0.0016195712 -0.04884266 -0.04288981 0.059332572
0000a0 71 0e 51 bc 79 b3 1d 3c 95 b4 11 3d 6d 9d 99 3c
       -0.012759791 0.009625309 0.035572607 0.018751824
0000b0 b9 b5 09 3c e9 69 77 3d 17 da 47 3c 88 0b fc bc
       0.008405142 0.06040374 0.012197993 -0.030767217
0000c0 b7 5c 0e bd 85 ad 2a 3d 97 ad 38 3c 97 40 30 bc
       -0.03475639 0.041669387 0.011271856 -0.010757587
0000d0 43 3c 29 bd db 27 3e 3d a8 fa eb 3c dd b1 0e 3d
       -0.041317236 0.046424728 0.028806046 0.034837592
0000e0 4d b6 92 3c 80 f5 77 bd ce 28 ad 3b 2c fb 64 bd
       0.017909193 -0.06053686 0.0052844053 -0.0559036
0000f0 36 a0 d8 3b 6b d9 30 ba 04 70 ae bc 9d bb 81 3d
       0.0066108955 -0.0006746265 -0.021293648 0.063346125
000100 65 25 fb bc 8e 03 11 bb 97 74 66 bc 54 a8 14 bb
       -0.03065748 -0.0022127363 -0.014065883 -0.002268334
000110 d8 ef 0c bd 52 19 8d bd 43 5f 3a 3d 0e 9e c9 bb
       -0.03440842 -0.06889595 0.045501005 -0.006152875
000120 9e b3 20 bd 04 70 44 bd 7f ea ce bb c1 66 19 bd
       -0.039233796 -0.04795839 -0.006314575 -0.03745151
000130 ad c8 7e bc 64 f0 65 3c 83 6b c1 3c ec ab 3b 3b
       -0.0155507745 0.014034364 0.023610836 0.002863641
000140 bf 0f b1 bc 19 a7 35 bc 08 dd b1 bc 27 49 01 bd
       -0.021613954 -0.0110872025 -0.021711841 -0.031563904
000150 ff 47 17 bd c0 17 cd bc 39 d8 09 bd 13 03 0e bd
       -0.036933895 -0.025035739 -0.03365347 -0.0346709
000160 cd c9 60 bd 17 84 11 3c 8d a7 b2 bc a0 30 ba bd
       -0.054879952 0.00888159 -0.02180841 -0.09091306
000170 6f fc 4a bc 5b 35 52 bd 80 d1 c6 3b 65 a1 49 3b
       -0.012389286 -0.051320415 0.006067455 0.0030766365
000180 ef 4d ef 3c a5 7d 36 3c d7 2c a8 3c fb 94 91 bc
       0.029211966 0.011138354 0.020529194 -0.017771235
000190 db c4 2f bc 5b fd b9 3c 2c e1 a2 ba 1c 0f 21 3c
       -0.010728086 0.022703817 -0.0012426726 0.0098302625
0001a0 1e fa 0e bd 30 1e 86 3c c0 24 83 bc bc 9e ab bc
       -0.0349065 0.016371816 -0.016008735 -0.020949714
0001b0 50 21 19 bd 81 c1 77 bd e1 f1 00 3d 83 8c ce bc
       -0.037385285 -0.060487274 0.031480674 -0.025213486
0001c0 09 8f 90 3c 86 0a 4d 3d be 63 85 bd 29 8c e1 3c
       0.01764633 0.050058864 -0.06513165 0.027532654
0001d0 75 43 d6 bc 8e 7b 0e 3d a3 3b fc ba 4a 1b ef bc
       -0.026155213 0.0347858 -0.0019243847 -0.029187817
0001e0 68 65 d8 bc 18 27 92 bc da 32 5c 3d 88 8c 1f bd
       -0.026415542 -0.017840907 0.053759433 -0.03895238
0001f0 e2 c3 c5 3c e9 1d 4d bc d7 79 f2 3c 09 87 ed 3c
       0.024141256 -0.012519338 0.029599113 0.028995054

network_body.linear_encoder.seq_layers.2.weight f4 [128, 128]
000000 cc 58 cd 3d dc 91 2a bd 4e d8 28 be 87 14 5c 3d
       0.10026702 -0.04164301 -0.16488764 0.053730514
000010 6c 80 b5 3d 4f 88 a0 3c 58 bd ee 3d e6 d7 21 bd
       0.08862385 0.019596247 0.11657208 -0.039512537
000020 1c 91 12 3e a6 f8 78 ba 99 95 49 3d 1c a4 13 be
       0.14313167 -0.0009497501 0.049214933 -0.14418072
000030 e1 32 be be 03 96 31 be c4 2f eb bc 67 3a 41 3d
       -0.37148193 -0.17342381 -0.0287093 0.047174837
000040 a3 0b cb 3c 0c 60 88 bd a2 39 af 3d ac 08 41 3e
       0.024785822 -0.066589445 0.085559145 0.18850964
000050 25 46 14 3c a2 95 60 be 8e c4 5d 3d 89 07 12 be
       0.009049927 -0.2193208 0.054142527 -0.14260687
000060 5e b0 05 3d 85 c0 47 3d 95 f4 c7 3d c1 e4 07 be
       0.0326389 0.048767585 0.09763447 -0.13270856
000070 de cb ad 3d b2 b5 02 3e ed 80 68 bd 75 66 1d bd
       0.0848615 0.12764624 -0.05676358 -0.03842779
000080 3d bf 8d bd 8b 46 6e bd fc 28 02 3e 7c 60 17 bd
       -0.069212414 -0.058172744 0.12710947 -0.03695725
000090 32 45 e3 bd 09 4c 30 3d bf b7 a3 3d 05 05 dd bd
       -0.11097182 0.043041263 0.07994031 -0.10791973
0000a0 42 c8 ab 3d 1f 56 9c 3d 97 25 d4 bd 7c 3c 83 3d
       0.083878055 0.07633614 -0.10358732 0.06408021
0000b0 7c 9a 73 bd 9a 26 0f 3b 4a 4f 40 bd db 3b 50 3d
       -0.0594735 0.0021843077 -0.046950616 0.050838333
0000c0 e6 fa 52 bd 79 d7 84 3d 39 fa b8 3d b1 18 b1 3d
       -0.051508807 0.06486411 0.09032101 0.08647288
0000d0 7a 0d 14 3e ed 5e 1f 3e b4 fd b2 3c 6c 58 45 be
       0.14458266 0.15563555 0.02184949 -0.19272012
0000e0 b7 25 95 3d 74 f1 f4 bc 19 3e 02 bd 26 70 7c 3e
       0.07282584 -0.02990029 -0.031797502 0.24652156
0000f0 f7 03 a8 3d c9 f3 a7 bd 23 74 db bd a3 a2 ae bd
       0.08203881 -0.08200795 -0.10715511 -0.08527114
000100 9a 50 6e bc d3 d8 5f be 3b 09 88 3e 82 27 fe 3d
       -0.014545584 -0.21860056 0.26569542 0.12409879
000110 92 8f 12 be e6 16 9e be f1 e9 7b 3c dc c1 a7 3d
       -0.1431258 -0.30876845 0.0153756 0.081912726
000120 4d fc f6 bc e9 63 c4 3d d6 9e d5 3c bf 6d dd bc
       -0.030149603 0.09589369 0.026076715 -0.02702987
000130 bb 4d 35 be 0b 42 a2 bd 42 27 43 bd 84 64 c8 bd
       -0.17705433 -0.07922753 -0.04764486 -0.09784797
000140 61 c9 e1 3c c8 38 c1 3c 28 4e 49 3e ec 40 4f be
       0.027561845 0.023586646 0.1965872 -0.2023961
000150 4d 51 70 3e ce fb e4 3c 56 25 4c 3e c6 88 b0 bc
       0.23468514 0.027952101 0.19936118 -0.021549594
000160 13 cf 34 3d 1a 56 04 bd 02 c5 d4 3d a4 bb 31 3e
       0.044142794 -0.032308675 0.10389139 0.17356735
000170 1f e6 e2 3d dd 5f 26 be 98 27 d2 bd bc 2c e0 3d
       0.11079048 -0.16247506 -0.10261458 0.109460324
000180 a3 60 35 3d 4f 96 35 3e 9b 38 29 bb 77 90 27 3e
       0.044281613 0.1773312 -0.0025821093 0.16363703
000190 57 96 1f 3e f5 ab 82 be 52 d6 45 3d fb 37 93 3d
       0.15584694 -0.25521818 0.048300095 0.07188412
0001a0 23 58 ea bd 30 b3 29 bd 74 af 04 be e0 7d 7c 3d
       -0.11442592 -0.041430652 -0.12957555 0.06164348
0001b0 f1 0b 03 bc fb 22 a6 3d 1b e1 fb bd c2 06 05 3e
       -0.0079984525 0.08112141 -0.12298795 0.12990859
0001c0 b2 1b 07 3e 66 b6 d1 3d 21 4c b3 3d d2 db dd bd
       0.13194159 0.10239868 0.08754755 -0.10832943
0001d0 34 af 7d bd 2a c9 a6 3c 87 4b 98 3d d2 ec 76 3e
       -0.061934665 0.020359594 0.07436281 0.24113777
0001e0 45 af a0 bb 7c 93 87 3c 00 3b f3 3c 4d c6 39 bd
       -0.0049037063 0.016549818 0.02969122 -0.04535513
0001f0 95 1f 10 bd 0f df ae bd 00 c9 c4 3c 96 7a 13 3d
       -0.03518637 -0.08538639 0.024021626 0.03600558
000200 76 96 c8 3d 78 39 f2 bc 3a 8f 32 3e 5d d7 7d bd
       0.09794323 -0.029568419 0.17437449 -0.061972965
000210 18 c0 d6 bd 07 77 49 be ca d3 ea 3d 0c 59 12 3d
       -0.10485858 -0.19674312 0.11466177 0.035729453
000220 53 88 18 be b1 eb 55 be 13 21 3e 3e 7d 99 a3 3c
       -0.14895754 -0.2089069 0.18567304 0.01997065
000230 79 4c 16 3e f3 ee d1 3d b2 03 db 3d f6 9d 21 3d
       0.1467761 0.10250654 0.10694064 0.039457284
000240 8c 3e 4e bd a0 f7 c2 3c 7b da 0c bb cd 70 47 3d
       -0.050352618 0.023799717 -0.002149253 0.04869156
000250 00 b9 19 3e cc 0b fb 3a 04 f2 74 3e 5c 44 e0 bd
       0.15011978 0.0019153296 0.23920447 -0.109505385
000260 3d c2 93 bc 64 20 3c 3e 3d 71 02 be 12 ef bb 3c
       -0.018036956 0.18371731 -0.1273851 0.022941146
000270 44 b5 30 3d 3f 8a 4f be db 3b 9b 3d 94 2e 14 3e
       0.04314162 -0.2026758 0.07579776 0.14470893
000280 ab c8 de 3d e1 8c bd 3d 1e d6 9b bc 6f c2 75 3a
       0.10878118 0.09255386 -0.019022997 0.0009374981
000290 08 ec ba 3d 7e 7d 40 3a 46 87 f1 3d ce a3 95 3d
       0.09127051 0.00073429185 0.117933795 0.07306634
0002a0 73 63 6d be a6 15 3f bd 62 02 b7 bd b9 7b 31 bd
       -0.23182468 -0.046651505 -0.08936001 -0.04333088
0002b0 62 0e 60 bd fa 7a a0 3d d5 3d ad 3d 5f e3 07 3e
       -0.054701217 0.07835956 0.08459059 0.13270329
0002c0 87 98 5b 3d 8f ed f2 bd c1 d1 24 3e f4 0f 00 be
       0.05361226 -0.11861717 0.1609564 -0.12506086
0002d0 a5 90 b9 3d 5d aa 89 3c 37 75 2c bd 67 63 c2 bd
       0.09060792 0.016804868 -0.042103972 -0.09491616
0002e0 22 61 05 bd 88 8a f1 3d e5 a4 a0 3d 57 bf fd 3c
       -0.032563336 0.11794001 0.07843951 0.030975027
0002f0 49 1e c5 bd 13 66 11 bc f0 99 91 3d a3 9d 16 be
       -0.09624917 -0.008874434 0.071094394 -0.14708571
000300 c3 71 12 3b ce ee b0 3d aa 30 90 bd 7f 11 90 3d
       0.002234564 0.086392984 -0.07040532 0.07034587
000310 0e 88 65 bd e8 c2 8b 3d 64 93 db bd bd db 1d be
       -0.056037955 0.06824285 -0.10721472 -0.15415855
000320 08 42 3f 3d 58 60 bf 3c 54 e2 96 3d 21 c9 ca 3a
       0.04669383 0.02336137 0.073673874 0.0015471318
000330 03 35 55 3e 6b 52 28 bd eb 20 de 3a 61 ea 4a bd
       0.20821004 -0.041094225 0.0016947066 -0.049539927
000340 67 1e fd bd ee 1a 89 3d 0c f2 82 3d 1e 46 29 3e
       -0.123593144 0.066945896 0.06393823 0.16530654
000350 a5 9d a5 bc 45 88 0f bc ee 34 ef b8 04 c3 0c 3e
       -0.020216772 -0.0087605165 -0.00011406267 0.13746268
000360 3d d8 bf 3b 35 df 49 3e 1a 06 e6 3d 75 d4 27 bc
       0.005854635 0.19714053 0.112316325 -0.010243525
000370 c4 c1 87 bb df 82 b9 bc d6 ee b2 3b 9a ff b1 bd
       -0.0041429717 -0.022645412 0.0054606004 -0.0869133
000380 11 f4 33 be 34 17 21 3e 7d 77 97 3e cf 02 88 3d
       -0.17573573 0.15731508 0.2958335 0.06641161
000390 dc e0 99 be b1 c2 a8 3c 10 45 27 3d 1f df c8 bd
       -0.30054367 0.020600649 0.040837348 -0.09808182
0003a0 ac 44 fb 3d 40 5e bc 3d 3e 83 84 3d 9e 27 90 bc
       0.122689575 0.09197664 0.06470345 -0.017597016
0003b0 30 71 37 3e 60 fb e6 3d b0 c3 f3 bd 68 90 4e bd
       0.17914271 0.11278415 -0.11902559 -0.050430685
0003c0 32 2c 89 3d d2 6d cd 3c 31 02 bc bd 51 0b 15 bd
       0.06697883 0.02507678 -0.091801055 -0.036387745
0003d0 74 3e ef 3d 92 2d 43 be f5 8a 3f 3c 1d bd 29 3e
       0.11681834 -0.19060352 0.011690845 0.16576047
0003e0 a8 f9 17 bc 02 4e 5a bd a4 4d 22 bd e5 3e 43 3c
       -0.009275831 -0.05329705 -0.039624825 0.011916851
0003f0 63 bd 77 bd 14 f8 1c 3c 24 78 04 bd 74 b5 5c be
       -0.060483348 0.009580631 -0.032341138 -0.21553594

network_body.vector_processors.0.normalizer.running_mean f4 [29]
000000 9f da 2b 3f a5 28 fb 3d 2f 0e 37 3c f1 77 0b 3e
       0.67130464 0.12263612 0.011172815 0.13619973
000010 ec 35 09 3f 46 78 18 3f 7a a3 39 3e 9b 84 90 3c
       0.53597903 0.5955852 0.18128768 0.017641356
000020 fd f0 35 3e 35 f6 fd 3e e7 ab 06 3f 24 a0 56 3e
       0.17767711 0.49601904 0.5260605 0.20959526
000030 ed 3a e4 3b 3f 72 4d 3e db 0f 11 3f 06 6a 08 3f
       0.0069650323 0.20063113 0.5666482 0.5328678
000040 82 fd 21 3e d5 46 0a 3e ed 60 14 3e 6e 9f fe 3e
       0.15819362 0.13503583 0.14490099 0.4973101
000050 06 6a 08 3f 82 fd 21 3e d5 46 0a 3e ed 60 14 3e
       0.5328678 0.15819362 0.13503583 0.14490099
000060 6e 9f fe 3e a9 17 65 42 68 7b 24 42 35 e8 7f 39
       0.4973101 57.273106 41.120514 0.00024405199
000070 59 b8 1a 3a
       0.0005902104
