Assets/Models/Scena1/22Feb/iRobot.onnx (onnx, 87193 bytes, 8 tensors)

58 f4 [30]
0.44698983 0.21198052 0.07313233 0.48944658 0.3490638 0.42466158 0.26651576 0.08067216
0.48902422 0.342745 0.44322234 0.24730644 0.06695317 0.48851958 0.3600258 0.41733572
0.280391 0.080976814 0.48744372 0.34856734 0.41733572 0.280391 0.080976814 0.48744372
0.34856734 38801.53 12398.146 8.240073 6.7930126 0.715573
00000000: dadb e43e 6c11 593e 67c6 953d be98 fa3e
00000010: 7eb8 b23e 3e6d d93e c174 883e 7237 a53d
00000020: 6261 fa3e 467c af3e 0aee e23e e63d 7d3e
00000030: be1e 893d 3d1f fa3e 4d55 b83e 07ad d53e
00000040: 698f 8f3e 2cd7 a53d 3992 f93e 6b77 b23e
00000050: 07ad d53e 698f 8f3e 2cd7 a53d 3992 f93e
00000060: 6b77 b23e 8891 1747 96b8 4146 57d7 0341
00000070: 5c60 d940 cb2f 373f

action_model._discrete_distribution.branches.0.bias f4 [5]
-0.03050009 0.061517507 -0.070159346 0.00049999444 -0.0055007944
00000000: 53db f9bc c8f9 7b3d b4af 8fbd 0f12 033a
00000010: 0240 b4bb

action_model._discrete_distribution.branches.0.weight f4 [5, 128]
0.04922307 0.01953415 -0.051108062 -0.041551393 0.017039057 0.019777337 0.004792653 -0.025141738
-0.0024726624 -0.06230278 0.0078432355 -0.0019366118 0.012910081 0.029644502 -0.16665252 -0.0015382186
-0.007838942 -0.00410552 0.056179486 0.047789644 0.018796222 -0.0018574444 -0.010396618 -0.06788752
-0.02722301 0.04621173 0.101061635 -0.06728193 0.004423189 0.016535653 0.012377051 0.023829892
0.045239985 0.014120062 0.014459609 -0.027185896 -0.05708319 0.0023118388 0.005003083 -0.0322944
0.011260548 0.012400078 -0.11137978 0.027804019 0.010227103 -0.008554517 0.06128846 -0.016770048
-0.026715895 0.0026756963 -0.047054544 -0.0040834546 0.053738207 0.018519038 0.039129537 0.056145
-0.029945277 -0.10053733 -0.10926773 0.010078093 0.0029181142 0.011286494 -0.095189966 -0.073169984
-0.010324296 -0.0067348764 0.07873728 -0.018952005 0.06700141 -0.003028282 -0.010095324 -0.055282705
-0.102690816 -0.019351458 -0.010937191 0.027946196 0.0037757542 0.09953946 0.06455793 -0.0011487198
0.040337507 0.019848129 0.01575855 -0.008155091 0.03379647 -0.004764374 0.010975642 -0.023310527
0.011835336 0.00737313 -0.0029857038 0.041193083 -0.02466036 -0.0033094476 0.06853981 0.013735618
-0.08753225 0.018953688 -0.07022293 0.031545762 -0.00023929398 0.004461353 0.0072614006 0.046114188
0.082239024 0.053775463 0.0010232076 0.031163359 -0.019118894 0.008338631 0.0042110374 0.03387356
0.027910652 -0.0016033365 -0.0035346597 -0.07817676 -0.022084234 0.037926607 -0.021252485 -0.011841912
-0.08862583 -0.022444868 0.005735416 -0.034590583 0.020520424 0.023575708 -0.062408864 0.05310272
-0.10472429 0.047355365 0.016916927 -0.03991249 -0.025594817 -0.055598244 0.03748018 0.013521412
0.0010631848 0.0032974295 -0.079622105 -0.012819928 -0.020556316 0.01411711 -0.03098487 0.055005994
0.0012549451 0.027744714 -0.12400075 -0.1361026 -0.08079224 0.010332451 -0.09939135 -0.0069288826
-0.06590467 -0.078054465 -0.07530964 0.0105529 0.039477035 0.0007784073 0.022164937 0.03141065
-0.09667177 -0.07070281 -0.008683762 -0.011673837 0.045096833 0.04027603 -0.022215981 0.0028169644
-0.061027516 0.027309181 0.0464868 -0.085122965 -0.033858586 0.031671062 -0.05206144 -0.09648139
0.029893527 0.02326187 -0.057642598 -0.06314902 -0.069948465 -0.046277277 -0.081217125 -0.11031737
0.031206852 0.03521697 0.03761068 -0.058080327 -0.0506411 0.005686635 -0.018727403 -0.072210856
-0.054110393 -0.08826355 -0.13150293 0.039597582 -0.0205414 -0.0015114067 0.0054187616 0.05495522
0.025207318 -0.02238161 0.020897279 -0.03440401 -0.008131639 -0.08261652 -0.11888754 0.0081287995
-0.057217162 0.00062178844 -0.044780213 0.058029305 0.0078403335 -0.01521083 -0.00831647 -0.0059822085
0.03479841 -0.03347188 0.03256196 0.04030792 -0.02484799 -0.04208233 -0.083290905 0.052257396
-0.04109801 0.039916255 -0.017536117 -0.056147285 -0.12339138 -0.018621484 -0.07136871 -0.037124097
-0.075359486 0.0040713423 -0.052138362 0.04478205 -0.056316607 -0.084843636 0.038499586 -0.04311802
-0.019572726 0.008984342 0.026473096 -0.020360686 0.024273233 -0.061426364 0.01690698 0.034389198
0.013639834 0.01436151 -0.012784862 0.039214745 -0.014816406 -0.052114405 0.024173547 -0.035933383
00000000: 219e 493d 1506 a03c b056 51bd cb31 2abd
00000010: 7e95 8b3c 1504 a23c b00b 9d3b 0cf6 cdbc
00000020: 640c 22bb 3331 7fbd ea80 003c e9d5 fdba
00000030: ce84 533c 07d9 f23c f5a6 2abe 0d9e c9ba
00000040: e86e 00bc 9987 86bb 761c 663d 13bf 433d
00000050: 89fa 993c 7e75 f3ba 9456 2abc 9d08 8bbd
00000060: ca02 dfbc 8348 3d3d 67f9 ce3d 1ccb 89bd
00000070: 66f0 903b c775 873c 1dc9 4a3c e836 c33c
00000080: 904d 393d d557 673c ffe7 6c3c f5b4 debc
00000090: 10d0 69bd 3882 173b e7f0 a33b 2247 04bd
000000a0: 297e 383c b229 4b3c 151b e4bd 41c5 e33c
000000b0: 948f 273c 3f28 0cbc 9c09 7b3d 5761 89bc
000000c0: 4bdb dabc bc5a 2f3b 44bc 40bd 80ce 85bb
000000d0: 981c 5c3d 3db5 973c 4b46 203d 4df8 653d
000000e0: cc4f f5bc 84e6 cdbd c2c7 dfbd 961e 253c
000000f0: d53d 3f3b fdea 383c f5f2 c2bd 25da 95bd
00000100: 3c27 29bc 3db0 dcbb 0341 a13d 3c41 9bbc
00000110: 0938 893d 2476 46bb dc66 25bc 1e70 62bd
00000120: 904f d2bd f386 9ebc e731 33bc 6cef e43c
00000130: a572 773b 58db cb3d f336 843d a490 96ba
00000140: f138 253d 8b98 a23c 1318 813c ee9c 05bc
00000150: 2b6e 0a3d 771e 9cbb 2ed3 333c b8f5 bebc
00000160: ffe8 413c 4c9a f13b ccab 43bb 14ba 283d
00000170: 8604 cabc 51e3 58bb 9a5e 8c3d 5c0b 613c
00000180: 1c44 b3bd c444 9b3c 0ad1 8fbd 2136 013d
00000190: fdea 7ab9 8b30 923b 0bf1 ed3b 3be2 3c3d
000001a0: ef6c a83d a943 5c3d 261d 863a 4d4a ff3c
000001b0: 3a9f 9cbc c19e 083c befc 893b 01bf 0a3d
000001c0: e1a4 e43c 0c27 d2ba c0a5 67bb 231b a0bd
000001d0: ffe9 b4bc ee58 1b3d b119 aebc 9404 42bc
000001e0: 7681 b5bd 4dde b7bc 28f0 bb3b dbae 0dbd
000001f0: 731a a83c d821 c13c 70a0 7fbd 3d82 593d
00000200: b079 d6bd b3f7 413d 5e95 8a3c 477b 23bd
00000210: 39ac d1bc fcba 63bd d184 193d ea88 5d3c
00000220: 905a 8b3a b019 583b ea10 a3bd ad0a 52bc
00000230: b865 a8bc 734b 673c fbd3 fdbc f74d 613d
00000240: f87c a43a e248 e33c 1bf4 fdbd 7b5e 0bbe
00000250: 6776 a5bd 7149 293c b18d cbbd ae0b e3bb
00000260: 07f9 86bd 05db 9fbd f13b 9abd 12e6 2c3c
00000270: acb2 213d 080e 4c3a 3e93 b53c 74a8 003d
00000280: d9fb c5bd a3cc 90bd 5646 0ebc 9f43 3fbc
00000290: 75b7 383d 7af8 243d 4afe b5bc d29c 383b
000002a0: fdf7 79bd 81b7 df3c f168 3e3d f354 aebd
000002b0: 4daf 0abd 84b9 013d 603e 55bd 0998 c5bd
000002c0: 45e3 f43c ad8f be3c a51a 6cbd 4654 81bd
000002d0: 2441 8fbd 3e8d 3dbd 2a55 a6bd 13ee e1bd
000002e0: 83a5 ff3c ab3f 103d a80d 1a3d a3e5 6dbd
000002f0: 0b6d 4fbd f456 ba3b 366a 99bc 49e3 93bd
00000300: dca2 5dbd 85c3 b4bd b4a8 06be 1331 223d
00000310: 7046 a8bc 651a c6ba de8f b13b ba18 613d
00000320: 947f ce3c a359 b7bc c530 ab3c 38eb 0cbd
00000330: 913a 05bc da32 a9bd 507b f3bd a82e 053c
00000340: 8b5c 6abd 84ff 223a 756b 37bd 23b0 6d3d
00000350: be74 003c d836 79bc ce41 08bc 6706 c4bb
00000360: c788 0e3d cf19 09bd b15f 053d eb19 253d
00000370: 038e cbbc 855e 2cbd 6c94 aabd da0b 563d
00000380: 6356 28bd 3a7f 233d e7a7 8fbc b2fa 65bd
00000390: 9fb4 fcbd 158c 98bc c229 92bd 700f 18bd
000003a0: 1356 9abd e568 853b 098f 55bd 626d 373d
000003b0: 3eac 66bd 80c2 adbd beb1 1d3d 859c 30bd
000003c0: fb56 a0bc 1033 133c 1bde d83c 74cb a6bc
000003d0: a9d8 c63c 369a 7bbd 8280 8a3c b0db 0c3d
000003e0: 9c79 5f3c 8a4c 6b3c 9977 51bc a49f 203d
000003f0: 83c0 72bc ea75 55bd 9a07 c63c e22e 13bd

network_body.linear_encoder.seq_layers.0.bias f4 [128]
0.0064977785 0.022281988 0.0071143 0.03318442 -0.012967446 0.027009007 -0.0013610777 0.0033544193
-0.039076872 0.04393021 0.00058239425 0.023683134 -0.027815118 0.0026518316 -0.06888986 0.027232569
0.05573302 0.009272894 0.03846902 0.029829359 -0.0099703595 -0.006927015 0.010983436 -0.028855862
0.00680123 -0.03666237 -0.024620915 0.0013868728 -0.01140157 -0.03196815 -0.017202204 0.014281158
-0.01833984 0.0013438491 0.093224816 -0.050097212 0.010222073 0.021276552 0.03548181 0.004875578
0.025860868 0.027620345 0.016025027 -0.031673398 0.001310156 -0.00966766 0.015052509 -0.022858571
0.01203139 0.004450671 -0.005639845 0.05954902 0.02175099 -0.022032615 0.04408397 0.048736464
-0.07788212 0.013510741 -0.007946561 0.0012210564 0.004314332 -0.004062426 -0.0064240242 -0.01640485
0.031056756 0.107005194 -0.00082915544 0.026857609 0.005400155 0.061011795 0.029500652 -0.054551333
-0.01820544 0.03330433 -0.009296593 -0.0024463055 0.022567311 -0.027240125 0.01683744 0.034257084
0.038339984 -0.033811856 -0.0025333865 0.036779236 0.07701078 -0.024219379 0.009334773 0.002597426
-0.0030525192 -0.055727743 -0.0072462982 -0.013304446 0.00589165 0.01793352 -0.02128801 -0.0060503124
-0.029841755 -0.040600274 -0.0174162 0.014259641 0.056257866 0.05864033 9.616706e-05 -0.060695555
-0.046463236 -0.036060467 0.004969406 -0.029142026 0.026160022 0.010854206 0.039205726 0.003752566
0.028478144 -0.01529883 0.037312772 0.00223017 0.014251784 0.03562185 -0.002321065 0.0014522744
-0.0077897664 0.014023548 0.033622425 -0.048582558 -0.043542076 0.05263844 0.004871801 -0.010996515
00000000: 51eb d43b b788 b63c 131f e93b 63ec 073d
00000010: 6975 54bc fe41 dd3c 3066 b2ba d1d5 5b3b
00000020: 120f 20bd 2af0 333d d1ab 183a 2203 c23c
00000030: 88dc e3bc 5aca 2d3b 2016 8dbd d616 df3c
00000040: 4f48 643d 56ed 173c b191 1d3d b35c f43c
00000050: b85a 23bc 03fc e2bb dff3 333c 2163 ecbc
00000060: dadc de3b 482b 16bd cdb1 c9bc bbc7 b53a
00000070: a7cd 3abc 09f1 02bd a3eb 8cbc 85fb 693c
00000080: 6f3d 96bc 1824 b03a a7ec be3d bc32 4dbd
00000090: 7b7a 273c 2a4c ae3c 6055 113d 50c3 9f3b
000000a0: 2cda d33c 1044 e23c eb46 833c f7bb 01bd
000000b0: 8ab9 ab3a 1b65 1ebc cc9e 763c e641 bbbc
000000c0: 4f1f 453c efd6 913b 73ce b8bb ace9 733d
000000d0: 222f b23c be7d b4bc 6591 343d e39f 473d
000000e0: a980 9fbd 285c 5d3c 4b32 02bc db0b a03a
000000f0: 3d5f 8d3b 191e 85bb 9f80 d2bb 7763 86bc
00000100: bd6a fe3c 8a25 db3d ae5b 59ba 7d04 dc3c
00000110: c9f3 b03b 81e7 793d 5aab f13c 3871 5fbd
00000120: 9323 95bc 1f6a 083d bd50 18bc 3252 20bb
00000130: 15df b83c af26 dfbc acee 893c 2851 0c3d
00000140: 630a 1d3d 4d7e 0abd 2c07 26bb d3a5 163d
00000150: d4b7 9d3d b867 c6bc e0f0 183c 9439 2a3b
00000160: c60c 48bb c642 64bd 5b72 edbb e4fa 59bc
00000170: be0e c13b 51e9 923c 3164 aebc b341 c6bb
00000180: b276 f4bc 794c 26bd 6bac 8ebc 45a1 693c
00000190: a66e 663d d830 703d 4cad c938 e79b 78bd
000001a0: 3c50 3ebd 24b4 13bd 66d6 a23b 42bb eebc
000001b0: 8b4d d63c d7d5 313c 2f96 203d 9ced 753b
000001c0: ff4a e93c f2a7 7abc 47d5 183d 0b28 123b
000001d0: 5180 693c 38e8 113d 021d 18bb 3e5a be3a
000001e0: 4c41 ffbb 06c3 653c abb7 093d 81fe 46bd
000001f0: 2d59 32bd 689b 573d a1a3 9f3b ba2a 34bc

network_body.linear_encoder.seq_layers.0.weight f4 [128, 30]
-0.20559032 -0.2779592 0.13337207 0.45801467 -0.19914229 -0.12242671 0.28450507 0.18879855
-0.022115452 -0.15383855 -0.18133539 0.33245668 -0.13725291 0.19028094 0.058881544 -0.12651686
0.07931985 -0.14522727 0.020134307 -0.07631588 0.17631543 0.19057436 -0.058864594 -0.11963211
-0.4028255 -0.12519883 -0.20567268 0.13565016 -0.20482445 -0.10944076 0.104458705 -0.10787309
-0.590009 -0.13129245 0.034862682 -0.18508081 -0.0046995957 -0.04222826 -0.22466917 0.09754232
0.027863039 -0.037602983 0.07219496 0.26177025 0.07322334 -0.371157 0.20409231 0.06929804
-0.05731554 0.36235592 0.034537897 0.18486038 0.18297525 0.061786316 -0.19338536 0.14271344
0.25736868 0.52924705 0.072565556 -0.012378044 -0.06757628 -0.13266867 -0.0687063 -0.015160096
-0.03963963 -0.13660671 -0.010003931 -0.004094641 -0.27881697 0.17117925 -0.16907027 -0.13567615
0.075672254 -0.083913505 0.046809833 0.14545135 0.17391236 0.09797371 -0.08346897 -0.046589114
0.011917818 0.24957015 -0.17142229 -0.34530777 -0.017863663 0.3418935 0.038360775 0.18967624
0.14222679 0.1330984 0.08360572 0.051901914 -0.31228152 -0.09193426 -0.26924878 0.14566822
0.2338571 0.119788654 -0.29167527 0.28843945 0.04256068 0.19327979 0.0929417 -0.033902213
-0.15481515 0.26077205 0.1515469 0.036958568 -0.09642623 -0.046080828 -0.051088598 -0.07675831
0.0025491512 -0.17724699 0.13959257 0.34192818 0.2904252 -0.1972223 -0.060972366 0.056908306
-0.20646237 0.030799003 -0.16675583 -0.14892972 0.05113127 -0.03340398 0.3568988 -0.336847
-0.06698745 -0.19613041 -0.1442094 -0.23703489 0.07468024 -0.06300106 -0.06640359 -0.2868659
0.08242185 0.17100589 0.41181773 -0.2712049 0.0519081 0.13362631 -0.091159455 0.22257017
-0.28971276 -0.057724588 0.039631844 -0.014740909 -0.17022279 -0.033936743 -0.4097771 0.16039565
-0.13852473 -0.15038799 -0.21719958 0.000978851 -0.18870664 -0.42339477 -0.11731399 0.27520478
0.5389079 0.024227427 -0.20485985 -0.111590415 -0.13548432 -0.017341916 0.71337533 -0.22600625
0.15750709 0.10936079 0.24279934 0.03295195 -0.022123637 -0.16658215 -0.11833323 -0.0385677
0.032286394 0.050004933 -0.14377959 0.11890315 -0.19805807 -0.4566124 0.38029492 0.20168535
-0.13749145 0.37624034 0.06858381 0.080082096 -0.06271812 0.43478703 0.22352599 0.20905334
-0.17850323 0.15043916 -0.28983983 0.14678507 -0.20449877 -0.36933124 -0.010842538 -0.42094892
0.31145868 0.06063319 0.030145139 0.12114022 -0.009223137 -0.25937477 0.07738145 0.13470128
-0.3452705 -0.09117279 -0.089909725 0.0882373 -0.104696274 -0.017083928 0.020321326 0.16277207
-0.13598618 0.012489611 -0.051844917 -0.13989158 0.3280343 0.17718288 0.11662512 -0.101142436
-0.04490803 0.22470585 0.2539795 0.27968955 0.10516333 -0.07026647 0.05841369 0.12776713
-0.06552741 0.21202774 -0.19069818 -0.28371063 0.28580648 0.13262382 0.049551304 -0.33654395
-0.10317529 -0.15184322 0.33875078 0.19304305 -0.26328784 -0.12254109 0.09863552 0.07421271
0.038477328 -0.1950053 0.13223302 0.2694463 0.008452578 0.06702456 0.015604716 -0.5308321
00000000: 4586 52be ab50 8ebe b092 083e e680 ea3e
00000010: f5eb 4bbe dbba fabd a6aa 913e 6854 413e
00000020: 772b b5bc da87 1dbe fcaf 39be c337 aa3e
00000030: 078c 0cbe 02d9 423e c62d 713d a38d 01be
00000040: 7272 a23d 75b6 14be b4f0 a43c 804b 9cbd
00000050: 088c 343e ed25 433e 001c 71bd ae01 f5bd
00000060: 253f cebe 1f34 00be dc9b 52be e0e7 0a3e
00000070: 80bd 51be 7a22 e0bd 72ee d53d 91ec dcbd
00000080: d40a 17bf 8771 06be 2ccc 0e3d d385 3dbe
00000090: 11ff 99bb 8af7 2cbd ad0f 66be 45c4 c73d
000000a0: 0741 e43c 9605 1abd f4da 933d c006 863e
000000b0: 1ef6 953d 4a08 bebe 93fd 503e 21ec 8d3d
000000c0: b3c3 6abd b786 b93e 9c77 0d3d 0a4c 3d3e
000000d0: dd5d 3b3e a613 7d3d d006 46be 7923 123e
000000e0: d4c5 833e bc7c 073f 409d 943d 48cd 4abc
000000f0: 6f65 8abd 4cda 07be e3b5 8cbd 0d62 78bc
00000100: 2a5d 22bd a1e2 0bbe 87e7 23bc 572c 86bb
00000110: 19c1 8ebe 9d49 2f3e c220 2dbe b0ee 0abe
00000120: 0efa 9a3d d8da abbd abbb 3f3d 33f1 143e
00000130: 1516 323e 71a6 c83d c8f1 aabd 3ad4 3ebd
00000140: f442 433c 518f 7f3e 5389 2fbe 2ecc b0be
00000150: d156 92bc aa0c af3e 3020 1d3d 7d3a 423e
00000160: e6a3 113e f24a 083e 7a39 ab3d 1a97 543d
00000170: 5de3 9fbe 0848 bcbd fada 89be 0d2a 153e
00000180: 3c78 6f3e c153 f53d 7656 95be 56ae 933e
00000190: 1c54 2e3d 23eb 453e 3858 be3d 0cdd 0abd
000001a0: dd87 1ebe ea83 853e 1c2f 1b3e de61 173d
000001b0: 1e7b c5bd 40bf 3cbd 4742 51bd 7633 9dbd
000001c0: a90f 273b 3c80 35be 5bf1 0e3e 3611 af3e
000001d0: 9db2 943e a5f4 49be 29be 79bd af18 693d
000001e0: df6a 53be 314e fc3c 0ac2 2abe 0881 18be
000001f0: 066f 513d 9dd2 08bd 71bb b63e 3677 acbe
00000200: b730 89bd 69d6 48be a1ab 13be 46b9 72be
00000210: f4f1 983d b306 81bd 9bfe 87bd 16e0 92be
00000220: c9cc a83d 2b1c 2f3e c6d9 d23e 5edb 8abe
00000230: 969d 543d 56d5 083e cfb1 babd 6fe9 633e
00000240: 3b55 94be 9e70 6cbd 0055 223d db83 71bc
00000250: e24e 2ebe 4101 0bbd 4ece d1be c23e 243e
00000260: 6dd9 0dbe 4fff 19be 9169 5ebe ca4c 803a
00000270: 503c 41be 33c7 d8be 5142 f0bd a4e7 8c3e
00000280: def5 093f 9978 c63c c8c6 51be 8489 e4bd
00000290: 67bc 0abe a210 8ebc c49f 363f 2f6e 67be
000002a0: 8a49 213e 8df8 df3d 64a0 783e a0f8 063d
000002b0: a13c b5bc 8394 2abe b158 f2bd 2af9 1dbd
000002c0: bd3e 043d f9d1 4c3d f53a 13be 7f83 f33d
000002d0: bccf 4abe 1ac9 e9be 04b6 c23e 9b86 4e3e
000002e0: 8fca 0cbe 93a2 c03e ab75 8c3d 1502 a43d
000002f0: 5c72 80bd 689c de3e ffe3 643e 1412 563e
00000300: 8dc9 36be b90c 1a3e e365 94be d34e 163e
00000310: 2068 51be fc18 bdbe e7a4 31bc 9e86 d7be
00000320: 8377 9f3e 825a 783d f0f2 f63c 5d18 f83d
00000330: a41c 17bc c5cc 84be 2a7a 9e3d 22ef 093e
00000340: 4cc7 b0be cdb8 babd 9722 b8bd c2b5 b43d
00000350: 006b d6bd 98f3 8bbc e978 a63c b9ad 263e
00000360: f63f 0bbe 3aa1 4c3c 565b 54bd bd3f 0fbe
00000370: 1df4 a73e 6e6f 353e 27d9 ee3d c423 cfbd
00000380: 7cf1 37bd 4a19 663e 9a09 823e 7833 8f3e
00000390: df5f d73d dee7 8fbd 3243 6f3d 63d5 023e
000003a0: 3c33 86bd cd1d 593e 6246 43be 8542 91be
000003b0: 3a55 923e 8ace 073e 4ff6 4a3d 7d4f acbe
000003c0: 914d d3bd ca7c 1bbe be70 ad3e 14ad 453e
000003d0: aacd 86be d3f6 fabd 6b01 ca3d d5fc 973d
000003e0: 679a 1d3d 78af 47be 1868 073e def4 893e
000003f0: af7c 0a3c 2c44 893d ecaa 7f3c 9de4 07bf

network_body.linear_encoder.seq_layers.2.bias f4 [128]
-0.013783645 0.024984581 -0.0017522246 -0.0003723243 -0.034942377 -0.07895048 0.002219468 0.008792922
-0.054296136 0.017261095 -0.03972184 0.010447766 -0.08476695 0.025229419 0.008975103 0.023571713
0.036941476 0.028563606 0.019998949 -0.039775964 0.0014335746 -0.038452953 -0.012285282 0.030125748
-0.04735441 -0.0015162902 0.019176094 0.004358407 0.050252277 -0.032769088 0.020480078 -0.009544092
0.0009823752 -0.01375224 -0.041186992 -0.011874198 0.017605646 0.021253543 -0.032114986 -0.0113767125
-0.050553787 0.018316837 0.05436746 -0.026265603 0.020047247 0.00011899852 0.02899138 -0.021999756
0.0022474274 0.015103231 -0.037026573 -0.05575964 -0.013381935 -0.024983548 -0.001383661 -0.04291884
0.0645259 0.03235254 0.00080453936 -0.0004303762 0.03602995 0.015402946 0.0043137553 0.009387367
0.0047898623 0.014956272 -0.010511925 0.00097729 -0.022751378 0.009655706 0.021068085 0.025719982
0.02909416 -0.014611198 0.04159044 -0.04336681 0.034122374 -0.0019433185 -0.09429419 -0.0002452117
-0.030005176 -0.06938506 -0.024659593 0.052452393 -0.019823508 -0.02970553 0.02781338 -0.010600739
0.022527413 0.053660743 -0.040225945 0.034435615 0.0032170685 0.0022950072 -0.018653305 0.008371974
-0.03997357 0.041348387 -0.03892899 -0.07267627 -0.00034950778 0.01164031 -0.018683307 -0.01215918
-0.02966016 -0.013682011 -0.014420978 0.057538018 -0.031695217 -0.019781416 0.023877181 -0.033430003
0.0056773648 -0.041516643 0.071907125 -0.058780693 0.011257866 -0.013260105 -0.015240239 0.0112883635
-0.00016548704 0.017240332 -0.07178708 0.0029500304 -0.040174827 -0.040003773 0.023201214 -0.03133463
00000000: ccd4 61bc 77ac cc3c e7aa e5ba 8634 c3b9
00000010: bd1f 0fbd cab0 a1bd 7e74 113b 3010 103c
00000020: a065 5ebd 2467 8d3c 5eb3 22bd 1b2d 2b3c
00000030: 4b9a adbd edad ce3c 4f0c 133c 7719 c13c
00000040: f24f 173d 39fe e93c d6d4 a33c 1fec 22bd
00000050: c8e6 bb3a d880 1dbd 3548 49bc 46ca f63c
00000060: b3f6 41bd 42be c6ba 2f17 9d3c f8d0 8e3b
00000070: 55d5 4d3d e138 06bd d6c5 a73c d35e 1cbc
00000080: 0bc3 803a 1351 61bc b1b3 28bd ff8b 42bc
00000090: b739 903c e91b ae3c 018b 03bd 6465 3abc
000000a0: 7d11 4fbd 310d 963c 6ab0 5e3d f62a d7bc
000000b0: 203a a43c d88e f938 557f ed3c d538 b4bc
000000c0: 9349 133b 8b73 773c 2da9 17bd 3864 64bd
000000d0: e73f 5bbc 4caa ccbc f55b b5ba aacb 2fbd
000000e0: 2826 843d 1984 043d b9e7 523a 1ea4 e1b9
000000f0: 2494 133d a35c 7c3c 675a 8d3b 79cd 193c
00000100: 47f4 9c3b 270b 753c 363a 2cbc 6918 803a
00000110: 1961 babc f732 1e3c fa96 ac3c b6b2 d23c
00000120: e056 ee3c ce63 6fbc bd5a 2a3d 65a1 31bd
00000130: e7c3 0b3d f3b6 feba 501d c1bd c28f 80b9
00000140: 6acd f5bc c119 8ebd ea02 cabc 52d8 563d
00000150: e964 a2bc 0359 f3bc e3d8 e33c b9ae 2dbc
00000160: 698b b83c 5ecb 5b3d f6c3 24bd 5c0c 0d3d
00000170: 74d5 523b d567 163b d1ce 98bc 9b2a 093c
00000180: 53bb 23bd ed5c 293d 0174 1fbd 4cd7 94bd
00000190: 243e b7b9 00b7 3e3c bc0d 99bc 4c37 47bc
000001a0: ddf9 f2bc 832a 60bc f745 6cbc fcac 6b3d
000001b0: d8d2 01bd a30c a2bc 149a c33c e6ed 08bd
000001c0: 3009 ba3b 5b0d 2abd 0b44 933d 06c4 70bd
000001d0: ea72 383c e940 59bc 32b2 79bc d4f2 383c
000001e0: 9786 2db9 993b 8d3c 1b05 93bd 4c55 413b
000001f0: 5c8e 24bd ffda 23bd 7910 be3c be58 00bd

network_body.linear_encoder.seq_layers.2.weight f4 [128, 128]
0.0016404337 -0.17705493 -0.03816554 -0.014124952 -0.1762226 0.10442356 0.061143167 0.07235665
-0.10836482 0.15313171 -0.05367126 -0.013857424 -0.067050174 -0.12416701 0.07741162 -0.08540767
-0.099625 -0.050002847 0.06685451 0.090518735 0.13534786 0.20426992 0.06460627 0.0059258146
-0.015989779 -0.06489191 -0.07293352 0.10014759 0.028717287 -0.06147446 -0.02145056 0.0077924463
-0.12169439 -0.072744004 0.050030813 0.118720554 -0.009439182 0.043100815 -0.0024007112 -0.016123073
0.053915214 0.037300367 0.09101235 0.010971055 -0.082248114 0.014011834 0.14765115 -0.14395268
0.031920113 -0.14955544 0.041250177 -0.10307197 0.055344466 0.05734739 0.16636704 -0.0789616
0.16692716 -0.0001377781 -0.2287191 -0.05677824 0.0034219164 0.2557163 -0.06945213 0.20031607
-0.12822667 0.115995176 0.03236937 0.1713374 -0.105313204 -0.05884133 0.05598806 -0.098496005
-0.045676515 -0.118385814 0.040579353 -0.070443645 -0.054891177 0.14914408 -0.12035528 0.16844061
-0.07747521 0.17388174 0.0030342164 -0.014498609 0.046898227 -0.0019147932 -0.04425446 -0.01877755
-0.013090686 0.11991685 -0.15466495 0.062443987 0.12343408 -0.10867445 0.091388315 -0.022110248
0.016534744 -0.23357789 0.1608057 0.077324174 0.1944854 -0.05371696 -0.0087492475 0.007851468
0.08141344 0.08648998 0.12063742 -0.07229931 -0.0011287153 0.0398677 -0.14091988 -0.13753031
-0.16462234 -0.16274337 -0.14506692 0.03281904 -0.018036997 0.12909472 -0.06568351 -0.041884102
-0.15738057 0.1393481 -0.24003498 0.016163573 -0.10725079 0.0867989 0.099963345 0.10898257
0.035865538 -0.025990408 0.060865328 -0.050669927 0.10644021 0.030600911 -0.0038011873 0.04124381
0.056426983 -0.05665337 -0.06846933 -0.1053903 -0.009057698 0.09139954 -0.13004696 0.2246326
0.0071769953 0.104048505 0.0954655 0.008943557 -0.21408674 -0.08862082 0.07751554 0.012434798
-0.0009001738 -0.21801914 -0.15711637 -0.016593108 -0.001857754 0.17316943 -0.014516095 0.19156456
-0.075518474 0.029423468 0.12423043 0.080284424 0.1915912 -0.15751348 0.09279121 0.030554205
0.1093023 -0.044311833 -0.03303337 -0.07547984 -0.0010313697 -0.017262934 0.07024266 0.075844675
0.10665052 0.1646224 0.21002838 0.22470282 -0.0071629607 0.1265459 0.057163656 -0.18401036
0.07074085 -0.017452009 0.12519605 -0.1494561 0.12726808 0.16573553 -0.13172828 -0.11675366
0.25485608 0.262022 -0.036511064 -0.015355062 -0.053985737 -0.09687499 0.0045077237 0.0034388208
0.14518921 0.041852932 -0.021511497 -0.029199125 0.02109928 -0.024435485 0.12422348 0.0675673
0.052779727 0.042389676 -0.022717271 0.0913875 0.028772293 -0.1114816 0.033304874 0.008750499
0.020149466 0.028399574 0.021724345 -0.14424737 -0.14573659 0.1637471 0.11360008 -0.116831295
-0.14170048 -0.0017449489 -0.10775969 0.10865102 0.09212673 0.15118566 0.03763512 0.029847778
0.13156788 0.107550554 0.059239995 0.038430158 -0.085333616 0.09181544 -0.03604562 -0.08437092
-0.022672668 0.055998288 -0.059920818 0.1464521 0.023349946 0.10560452 0.09402457 -0.10190864
-0.2159393 -0.019734116 0.04022463 0.013942111 -0.24509329 0.04274763 -0.06701499 0.07048243
00000000: d203 d73a e34d 35be 7853 1cbd 586c 67bc
00000010: b273 34be 05dc d53d 4271 7a3d b92f 943d
00000020: 60ee ddbd 8fce 1c3e 65d6 5bbd 400a 63bc
00000030: 9a51 89bd 464b febd fc89 9e3d 37ea aebd
00000040: 3108 ccbd c9cf 4cbd 04eb 883d e361 b93d
00000050: a198 0a3e 222c 513e 4b50 843d 562d c23b
00000060: fffc 82bc 0de6 84bd 2b5e 95bd 2e1a cd3d
00000070: 8440 eb3c a5cc 7bbd 16b9 afbc c757 ff3b
00000080: e93a f9bd cffa 94bd 1ced 4c3d c323 f33d
00000090: cca6 1abc 7b8a 303d 4055 1dbb 8914 84bc
000000a0: 33d6 5c3d 45c8 183d af64 ba3d f1bf 333c
000000b0: b371 a8bd e491 653c dd31 173e 5568 13be
000000c0: aabe 023d 1025 19be f2f5 283d 6617 d3bd
000000d0: e1b0 623d 19e5 6a3d 1f5c 2a3e 9fb6 a1bd
000000e0: f4ee 2a3e 8778 10b9 5735 6abe 4d90 68bd
000000f0: 3b42 603b 3fed 823e eb3c 8ebd a81f 4d3e
00000100: da4d 03be e18e ed3d bf95 043d 1273 2f3e
00000110: 73ae d7bd 9b03 71bd bc53 653d 46b8 c9bd
00000120: 4c17 3bbd 4374 f2bd 8936 263d c244 90bd
00000130: 92d5 60bd 3ab9 183e d47c f6bd b27b 2c3e
00000140: 53ab 9ebd 0e0e 323e b4d9 463b 938b 6dbc
00000150: 5b18 403d ccf9 faba 2a44 35bd 60d3 99bc
00000160: 517a 56bc f796 f53d 7d60 1ebe 44c5 7f3d
00000170: 02cb fc3d b690 debd cc29 bb3d 8d20 b5bc
00000180: df73 873c 0b2f 6fbe 40aa 243e 235c 9e3d
00000190: 2e27 473e 5106 5cbd 0159 0fbc 72a3 003c
000001a0: 17bc a63d a921 b13d c010 f73d a911 94bd
000001b0: 67f1 93ba 504c 233d 4d4d 10be bfd4 0cbe
000001c0: c292 28be 33a6 26be 6c8c 14be 426d 063d
000001d0: 53c2 93bc 6831 043e 1385 86bd aa8e 2bbd
000001e0: 5f28 21be 45b1 0e3e bbcb 75be 7869 843c
000001f0: 4da6 dbbd 9fc3 b13d 95b9 cc3d 4132 df3d
00000200: bee7 123d d6e9 d4bc ec4d 793d 458b 4fbd
00000210: 53fd d93d c3ae fa3c 571d 79bb 45ef 283d
00000220: fb1f 673d 5d0d 68bd a639 8cbd dfd6 d7bd
00000230: bd66 14bc af2f bb3d 082b 05be 1706 663e
00000240: 002d eb3b 6217 d53d 6b83 c33d ff87 123c
00000250: 8e39 5bbe d57e b5bd 78c0 9e3d 53bb 4b3c
00000260: a4f9 6bba 6940 5fbe 1de3 20be 45ee 87bc
00000270: e17f f3ba 5453 313e ead4 6dbc 8029 443e
00000280: 6ea9 9abd 7c09 f13c 866c fe3d 296c a43d
00000290: 7c30 443e 374b 21be 5109 be3d d04c fa3c
000002a0: e2d9 df3d 5380 35bd 004e 07bd 2d95 9abd
000002b0: 062f 87ba ff6a 8dbc 62db 8f3d 7454 9b3d
000002c0: 966b da3d c692 283e ae11 573e 7f18 663e
000002d0: 45b7 eabb 4095 013e 7024 6a3d 366d 3cbe
000002e0: 94e0 903d 84f7 8ebc 6533 003e 050b 19be
000002f0: 9052 023e 93b6 293e c7e3 06be 8b1c efbd
00000300: 7f7c 823e bf27 863e a08c 15bd cc93 7bbc
00000310: 2620 5dbd 6566 c6bd 87b5 933b d75d 613b
00000320: 7bac 143e fb6d 2b3d e138 b0bc 0133 efbc
00000330: 66d8 ac3c ed2c c8bc e168 fe3d b960 8a3d
00000340: 8e2f 583d cca0 2d3d 9219 babc 5f29 bb3d
00000350: dfb3 eb3c 7750 e4bd b16a 083d 415e 0f3c
00000360: 7e10 a53c 39a6 e83c 41f7 b13c 95b5 13be
00000370: f93b 15be 52ad 273e 29a7 e83d 3f45 efbd
00000380: ee19 11be c5b6 e4ba 1db1 dcbd 6d84 de3d
00000390: f0ac bc3d 6ad0 1a3e 4927 1a3d 5483 f43c
000003a0: bbb9 063e 7743 dc3d a3a5 723d f168 1d3d
000003b0: 64c3 aebd bc09 bc3d 92a4 13bd a9ca acbd
000003c0: 08bc b9bc 765e 653d 886f 75bd 8af7 153e
000003d0: 6348 bf3c 2f47 d83d f48f c03d 7ab5 d0bd
000003e0: 311f 5dbe 71a9 a1bc 95c2 243d 746d 643c
000003f0: bcf9 7abe 2418 2f3d 283f 89bd 1859 903d

network_body.vector_processors.0.normalizer.running_mean f4 [30]
0.2759416 0.047157545 0.005375241 0.60219646 0.78049326 0.23605952 0.07694995 0.006548892
0.60419834 0.7900534 0.2685786 0.065441035 0.0045009903 0.60653985 0.7667339 0.2246222
0.08601585 0.006598792 0.6113581 0.78769696 0.2246222 0.08601585 0.006598792 0.6113581
0.78769696 30715.15 -5968.0117 1.7975365 -0.9390454 0.040835634
00000000: 3848 8d3e 4528 413d ca22 b03b 8c29 1a3f
00000010: 68ce 473f 96b9 713e ef97 9d3d 1698 d63b
00000020: beac 1a3f f140 4a3f 2283 893e f305 863d
00000030: 0b7d 933b 3246 1b3f ac48 443f 5d03 663e
00000040: 1429 b03d ae3a d83b f781 1c3f 82a6 493f
00000050: 5d03 663e 1429 b03d ae3a d83b f781 1c3f
00000060: 82a6 493f 4df6 ef46 1880 bac5 ad15 e63f
00000070: 4865 70bf 4443 273d
