Assets/Models/Scena2/18Feb/Checkpoint/iRobot-499000.onnx (onnx, 86672 bytes, 8 tensors)

58 f4 [29]
00000000: 29f5 f23e 700e a83e 0dc2 de3d 704d b53e
00000010: 121c a83e 5954 ed3e ccb1 b03e 6f61 d53d
00000020: a420 a73e cad3 a73e 79b8 fe3e e102 cc3e
00000030: 8fe7 cd3d 9579 bb3e 364e a03e cad5 fc3e
00000040: 1701 cb3e 1fbc db3d 89e0 c33e d438 aa3e
00000050: cad5 fc3e 1701 cb3e 1fbc db3d 89e0 c33e
00000060: d438 aa3e d2f7 eb41 d5f1 9641 0fac 3b40
00000070: 0a1a 2f40
0.47452667 0.32823515 0.10876856 0.35410643 0.32833916 0.46353415 0.34510648 0.104189746
0.3264209 0.3277877 0.49750116 0.39845946 0.10053932 0.36616197 0.3130967 0.49381858
0.3964927 0.107292406 0.38257244 0.3324648 0.49381858 0.3964927 0.107292406 0.38257244
0.3324648 29.496006 18.868082 2.9323766 2.7359643

action_model._discrete_distribution.branches.0.bias f4 [5]
00000000: 842f 92bb 2045 ef3a d140 12bd 648e 44ba
00000010: 7630 ec3c
-0.0044612307 0.0018254854 -0.035706345 -0.00074980245 0.028831702

action_model._discrete_distribution.branches.0.weight f4 [5, 128]
00000000: 7dc1 e73c 747e fdbc dbf3 a73c ee7f 91bd
00000010: ad65 cc3c 127b 0abd cab1 a2bd bea7 08bd
00000020: c84c 04bd 20dd 673d dff0 113d ead6 4b3b
00000030: bd80 b4bd a5dc 443d d087 8b3d 6d2b 5b3c
00000040: 6fb3 333d 688c d43d f736 bdba 303c 913d
00000050: 4d20 24bd 837d 0abe 4f85 d63c 0c18 69bd
00000060: 21d0 b83c 3cd3 fc3c 8413 ea3c 451e 263c
00000070: c56e 3e3d f880 7e3d 6722 babc 156e fbbd
00000080: 48ce 9b3d 3434 283d b739 133d a4d4 0fbd
00000090: 0344 703d 537f 2a3d 3d59 e4bb ecbb 11be
000000a0: 8ac5 8d3c bbbe 37bd c3a3 96bc c827 cc3d
000000b0: ba9a a43c 2811 8e3d 253d 313c 3b97 813d
000000c0: af0d f7bd f65a 97bd 6821 c93c b0f0 103d
000000d0: 5ba3 c03c e47c 203d 2347 f4bd e50d edbc
000000e0: 229a 733c 5ac5 8c3c 9357 51bc eecf 403d
000000f0: da9a dd3d ac68 55bd 14a6 bdbc 2ea5 eb3b
00000100: 61c1 6fbd ed6e 1bbd ddad e13c ea17 083d
00000110: 8ddf a3bb 0929 373d d134 bcbd b7dc e9bc
00000120: fa02 b8ba d9c6 bcba 81c2 c7bd a3c8 41bd
00000130: 6d86 7bbc dfca b63c 9a36 0fbc b6db a4bd
00000140: 2e0f ea3c 6fd6 53bc 8016 093d 4eaa 043c
00000150: a760 05bd 17f0 a8bb 222f babd 6405 47bd
00000160: 842d 5b3d 29b9 ec3a 212a c8bc bc90 8c3d
00000170: 770e b539 a29d 9d3c 21ef 3c3d a5f2 763d
00000180: 66e3 25bc 2b1a 56bc fe06 d539 fc59 c0bb
00000190: a734 313d 44dc 463d 2aea 24bc 54ec 31bb
000001a0: b972 dfbd 75d0 c4bd 9ccc 773d 55e2 033d
000001b0: dd9e 263b 8b63 3dbd e790 363d d58a 723d
000001c0: 7bf4 8bbd 1db1 27bd 6a2c 083d 534b c3bd
000001d0: dc89 bd3c 7705 933d 6b5b 363d 3b51 0f3d
000001e0: e966 21bb f80b 3aba 5fb6 0aba 1f05 6dbd
000001f0: 5a3c cbbd 82fd 493c b955 b8bd f653 1abe
00000200: a365 5dbd 0953 383d afc9 8f3d 51ac d63b
00000210: fbaf 62bd 9e17 6e3d cf32 7fbd b9e5 e93d
00000220: c294 253c 5d0c 683d e354 acbd 7bbf 0bbd
00000230: c2ab b83c d3cc 49bd 5903 85bb 9cf2 903d
00000240: d6bc 7a3c 57fa 97bd 284e 9a3d 658f dcbd
00000250: da81 5a3d 18df 083d c2e3 03be dbea cf3d
00000260: 4b60 763d 9d4f c73c 4aff a7bc 4c14 ee3d
00000270: 2200 e43c ac80 5abc 5709 b1bd 5943 9e3d
00000280: 77a5 dabb f630 19be 970f 8d3c 471d ecbd
00000290: 433f 5c3b 1f86 86bd e6d5 c93d 54e4 cbbd
000002a0: 886d 4ebd b1fd bb3d 8fb6 503d 7ba6 07be
000002b0: 28a5 abbd d2b7 17be 9c68 56bd 7fe8 88bc
000002c0: b292 59bd 470e 4b3d 57d5 5fbe f7e4 a1bd
000002d0: b2cf d4bd 58f8 31bc 60a6 7dbc 9a4b fabd
000002e0: 238c 0abd 951c 35bc 6172 463d b4d9 273d
000002f0: f52c 6ebc cad8 c13d 0424 a0bd 8c93 7f3d
00000300: f765 c3bc 434b 8f3d 6b7e 893c 43e6 c53d
00000310: e842 993d 1efc c1bd 1a62 5cbd 636c 4abc
00000320: 519b 6f3c fdb1 20bd 799a 82bd 8139 c4bb
00000330: 8383 c2bc 3994 ea3d 8338 903c 05e1 ab3d
00000340: d4a2 063d f94b 12be 14c7 47be 44a8 053d
00000350: 7602 643d 8ddc 4e3d 1be5 ca3c 2feb 29be
00000360: e00b 8abd 2e6a 42bc 84ce 60bd 0b20 6bbd
00000370: 885c 4ebd 825f 02be 231c 3e3d e06f ec3c
00000380: 4e09 3d3d c3da 0abd ef82 a5bd 7c56 6e3d
00000390: dbf7 7b3c feb8 23be 8c06 0cbe c544 d5bd
000003a0: 6c11 483c 4578 963c 41df 23be 0a9f 173d
000003b0: 1197 da3c 4136 4ebd 4985 1abe 40d2 77bd
000003c0: 107c b4bb 9c82 1ebe adf4 af3d 098a c0bc
000003d0: a729 7fbc 29b6 2a3d a0ea c83c eda0 49bc
000003e0: 10f6 6ebd 0463 9b3d 304d bf3d 490c 9cbd
000003f0: 6146 97bd 85dc 9fbc a4bb fcbd 071d 09be
0.028290505 -0.030944087 0.020502022 -0.07104479 0.024950827 -0.033808775 -0.07944067 -0.033363096
-0.032299787 0.056607366 0.035630103 0.003110344 -0.088136174 0.048061986 0.068130136 0.013377053
0.043872293 0.10378343 -0.0014435936 0.07091558 -0.040069867 -0.13524441 0.026186613 -0.0569077
0.022560181 0.030862443 0.028573759 0.010139053 0.046492357 0.062134713 -0.022721482 -0.12276856
0.076077044 0.04106541 0.035943713 -0.0351149 0.05865861 0.041625332 -0.006968646 -0.14231843
0.017306108 -0.04485963 -0.018388635 0.09968525 0.02009331 0.06936866 0.010817801 0.06327673
-0.12063157 -0.07390396 0.024552062 0.035385787 0.023515394 0.039181605 -0.11927631 -0.02893729
0.014868291 0.017183948 -0.012777227 0.047073297 0.10820551 -0.052101776 -0.023150481 0.007191322
-0.05853403 -0.037947584 0.027548725 0.03322593 -0.0050010146 0.04471687 -0.091897614 -0.028547628
-0.0014038973 -0.0014402523 -0.097538956 -0.047310483 -0.015351874 0.022313533 -0.008741045 -0.08049719
0.028571691 -0.012929543 0.033468723 0.008097244 -0.032562878 -0.005155574 -0.09091021 -0.048589125
0.053510204 0.0018060553 -0.024434151 0.068635434 0.00034533787 0.019240204 0.04612649 0.060289998
-0.010125017 -0.013067762 0.00040631735 -0.005870102 0.043263104 0.048549905 -0.010065595 -0.002714892
-0.109105535 -0.096100725 0.060497865 0.03219827 0.002542428 -0.04623751 0.044571783 0.05921443
-0.0683374 -0.040940393 0.03324548 -0.09535851 0.023137026 0.07178777 0.044520777 0.034989577
-0.002462799 -0.00070971204 -0.00052914576 -0.057866212 -0.099236205 0.012328507 -0.09000725 -0.15071091
-0.054052006 0.045001063 0.0702089 0.0065513034 -0.05534361 0.05812799 -0.062304314 0.11420769
0.010106267 0.056652416 -0.08414628 -0.034118157 0.022542838 -0.0492676 -0.004059237 0.07077524
0.015303811 -0.074207954 0.07534438 -0.10769538 0.053346492 0.033415884 -0.12879851 0.10152217
0.060150426 0.024329955 -0.020507473 0.11624965 0.027832095 -0.013336342 -0.086443596 0.07727689
-0.006672557 -0.14960083 0.017219348 -0.11529022 0.0033607043 -0.0656855 0.09855251 -0.099556595
-0.050397426 0.09179247 0.05095535 -0.13247101 -0.083811104 -0.14816216 -0.052345857 -0.016712425
-0.053118415 0.049574163 -0.21858726 -0.07905 -0.10391177 -0.010862432 -0.015481561 -0.12221451
-0.03382505 -0.011054178 0.048448924 0.040979102 -0.014537086 0.09465177 -0.078193694 0.06239657
-0.023852332 0.06996777 0.016783914 0.096630596 0.074834645 -0.09471916 -0.053804494 -0.012354943
0.014624433 -0.039232243 -0.063771196 -0.0059883003 -0.02374435 0.114540525 0.017605072 0.083925284
0.03287013 -0.14286794 -0.19509536 0.032631174 0.05566641 0.050503302 0.02476745 -0.16593622
-0.06740546 -0.0118661355 -0.05488445 -0.057403605 -0.050381213 -0.12731746 0.046413552 0.02886194
0.04615145 -0.033900034 -0.08081614 0.058187947 0.015378918 -0.15988538 -0.13674372 -0.10413507
0.012211185 0.018367896 -0.16003133 0.037016906 0.026683362 -0.05034471 -0.15089907 -0.060503244
-0.0055079535 -0.15479511 0.0859159 -0.02350332 -0.015573896 0.041677628 0.02452594 -0.012306434
-0.058340132 0.07587245 0.09340894 -0.07619531 -0.073864706 -0.019514332 -0.12340477 -0.1338998

network_body.linear_encoder.seq_layers.0.bias f4 [128]
00000000: 798a 74bc 96d3 523d 20a3 27bc c8b6 87bc
00000010: 44c3 81bd 3a38 033d efc3 4abc 7f93 7bbc
00000020: 5542 d5bc 6807 3c3d c4e2 4e3d 4701 45bb
00000030: 9a60 61bd 0d24 b23d 9f3e 1bb9 6332 0e3c
00000040: 44d6 1c39 8999 c33c 3aef c43c 41b8 923c
00000050: d90a 2b3c 613c 20bc 9057 643b c299 643d
00000060: 561a 15bd 58b3 0cbd 4b0b 04bd 5b50 6d3c
00000070: a66d 96bc 19ea 1a3d fdf7 17bd 4cae 003d
00000080: 14c2 893d 6620 a43d 0f98 c83c ef39 da3c
00000090: bcea 2ebd 5ed2 68bb 9df4 753c 3185 293d
000000a0: 4418 bcbb 18a5 193d e4f8 603d 8710 d8bd
000000b0: 089b 3a3c 3a42 b73b 291a 66bd a10c bebc
000000c0: 1a79 d73a 91f7 5d3c 1fec a83c 2759 c0bc
000000d0: 9c9f d73c e8ba 043e 708c 2b3c 952f 033d
000000e0: 8547 343c 4813 0bbc 6d6e 9d3c 27e8 97bc
000000f0: 9205 29bd 2598 083c 32ea d3bc 56cd 963c
00000100: 66aa 8dbb d600 db3b e574 42bd 4cdb 46bc
00000110: e355 7e3d c0ee 5abd 3f0b af3c f54c 57bc
00000120: fd75 a6bc 3f8b 00bd 24a4 d9bc 550f 97bc
00000130: bc69 243a 99da 3fbd 2f3d 89bb e812 473b
00000140: 8a1b 04bc 2806 babc d6b2 33bd 3caa 81bd
00000150: baa6 0d3c f80b 76ba 8af2 cebc bff4 fc3c
00000160: bab5 45bc d742 0d3d c157 c3bc 33ac 39bd
00000170: 909c ab3c d356 17bd af53 69bc e49d 45bc
00000180: 34e8 f5bc b66d f83c efb1 fb3c 23d7 6cbc
00000190: 252e 943c 9066 f03a 621b 3b3d 518c 933d
000001a0: c9d6 393c 5f82 a4bc dc03 b93c 288d fc3c
000001b0: 53d0 113c cf28 51bc 0570 9b3b 5968 8b3d
000001c0: 9f52 6abd bdf3 463c 87fa 9e3c c87b 373d
000001d0: b881 e0bc 7ab4 533c a92b 8fbc 27a1 343b
000001e0: 3b40 0a3d d249 dcbd 2731 93bb 2276 8b3c
000001f0: 1fb9 a73b 4b75 eb3c 8ea1 adbc 633b 503c
-0.014925593 0.051471315 -0.010231763 -0.01656665 -0.06336072 0.032036044 -0.012375816 -0.01535499
-0.026032606 0.0459055 0.05050923 -0.0030060576 -0.055023767 0.086982824 -0.0001480528 0.008679005
0.0001495714 0.023876922 0.024039853 0.017910125 0.010439598 -0.00978002 0.003484223 0.055810697
-0.03640207 -0.034350723 -0.032237332 0.01448449 -0.018362831 0.03782091 -0.037101734 0.031416222
0.067264706 0.08013992 0.02448657 0.026638953 -0.04270433 -0.003552578 0.015011934 0.041386787
-0.0057401974 0.03751096 0.05492486 -0.10550027 0.011389501 0.0055926116 -0.056177292 -0.023199381
0.0016439289 0.013547794 0.020620404 -0.023480011 0.026321225 0.12961924 0.010470495 0.0320278
0.01100338 -0.008488484 0.019217694 -0.018543316 -0.041265078 0.008337055 -0.025868509 0.018408459
-0.0043232916 0.0066834493 -0.04747476 -0.012137245 0.062093627 -0.053450346 0.021367667 -0.013140907
-0.020319933 -0.031382795 -0.026567526 -0.018439928 0.0006271859 -0.04683933 -0.004188202 0.003037626
-0.008063206 -0.022708014 -0.043871723 -0.06331298 0.008645708 -0.0009385939 -0.025262136 0.030878423
-0.012067253 0.03448757 -0.023845555 -0.045330238 0.020948678 -0.036948036 -0.014241143 -0.01206157
-0.03001795 0.030325752 0.030724494 -0.0144555895 0.01808841 0.0018341113 0.04568041 0.072044976
0.011342713 -0.020081697 0.022584848 0.030829027 0.008899766 -0.012766077 0.0047435784 0.06807012
-0.0572077 0.012143073 0.01940657 0.04479578 -0.027405605 0.012921447 -0.017476873 0.0027561875
0.03375266 -0.107562676 -0.0044919434 0.017024104 0.0051185037 0.028742453 -0.0211952 0.012709471

network_body.linear_encoder.seq_layers.0.weight f4 [128, 29]
00000000: f096 ac3d 42cb b03d 7149 48be 1ab2 f2bc
00000010: 655a 34bd d3a3 19be 8800 c93e ccee 203e
00000020: 8a00 62bd 9865 2c3e 4a0c 83be e6f4 9c3d
00000030: 3679 ac3d b376 b9b9 b1d6 0d3e 08aa 88be
00000040: 1f76 d3bc 5484 f43d b228 ae3d 6616 a53d
00000050: 075a 1fbe f708 b13c 602f 763e 5139 73bd
00000060: 52ac af3e c08b efbe 4c4d e6bd 9497 d73d
00000070: cd8f 2a3e 8d4d d3bd cee5 9fbe b4fc e9bd
00000080: 183e 813e 380b d83c df3e 30be 5b27 0ebe
00000090: 824e c13e f530 f03c 48d6 c6bb 09cc fdbd
000000a0: 806a 1a3e 3027 4f3c 0bcd bb3d 56b5 033e
000000b0: c31b aa3e c6b8 48bc fbec c83d 9b41 69bd
000000c0: ebd3 58bd ed62 c13e 39b4 84bd 3475 953d
000000d0: ac65 b1be 0ed7 20be 86ed 2c3e 4fb1 403e
000000e0: 9606 aa3d 80ad b43e 3e6b 76be 9b03 493e
000000f0: 3918 9b3d cb49 8a3c 5865 043e ed47 f33e
00000100: 2508 6abe c679 bc3d ca82 ffbd 1324 503e
00000110: 7484 1e3d 4231 52be ce3d 7ebd 3042 763e
00000120: 14c2 34bb 8e98 743d 1d75 1abf 3a49 9dbd
00000130: be45 5c3e 63b5 96be bee2 fd3d 3dbd 33bd
00000140: 462f cdbd 842e 71bd 7a68 963d 6370 043e
00000150: 1721 b73d cbb8 2e3d 4aa2 c3be d126 76bd
00000160: 997e 71be 3945 64be 5d80 003e d614 7fbe
00000170: 93ac 95bd 9458 bb3d d0b2 35bd 3a17 8b3e
00000180: 008a a63e db4e bcbc b64d cdbd 8213 9b3e
00000190: 70cd 9d3c 3bf8 0a3e 1745 ea3c bcb1 57be
000001a0: 4cb1 213d d66c 063e a9ab f9bd 2125 80be
000001b0: a1dd d43c 71a4 0abe 618b b0be 8e79 65bd
000001c0: 6500 ee3e 6b24 683d 8f61 733e 34ff 9ebd
000001d0: 6074 c73e a470 07bb 5850 85bc 22cf 6e3e
000001e0: 26e3 27be 3e52 e43c 6902 f73d 0be8 f13b
000001f0: f844 b23e 659b f9be b496 11be 0250 7a3d
00000200: 8c1e f9bd af75 3abc 36ad 293e af5e 283e
00000210: 154a 42be 0244 64be cdca 293e f54c 3a3d
00000220: 7b84 acbe fb5f 95be 71c3 e1bc 071a d3bd
00000230: ae74 d93e 660b 913e 2d70 403e 4b21 a93e
00000240: 654c 95bd 6018 e7bd 7cd7 373e 8c4e 3dbe
00000250: 57f7 0c3e 540b c33c ad80 bdbe 9bd2 693e
00000260: 2604 c8bd c130 933d eb6b 053e 08fe 27be
00000270: eec9 0e3e 6f34 953e 6a19 793e 4043 a5bb
00000280: fde5 883e ec85 143e fa9a 883e 45f3 e9bc
00000290: 0944 b1bd a134 eebd ccf5 4b3e 112c 0a3e
000002a0: 6617 88bd ea18 173f d168 123b a8f5 d6bd
000002b0: 8bf4 8cbd 9505 b9be 1fc4 9cbe e16d 803d
000002c0: b82d 3f3e 1fee a43e e08f 22be 2edf 2d3e
000002d0: a0a0 f43b 8a21 73be 92d2 38bc 2568 113c
000002e0: b2ed 3b3e 2cf1 0f3e 0190 343e 50bf 1d3e
000002f0: 41f1 8a3c 4082 d9bc 6ff8 0b3e edcd 403e
00000300: c335 25be 9575 8f3e 5273 2fbd d0d8 abbd
00000310: f49b b3bd 0477 343d c211 843e 04c0 853e
00000320: 6e1a 34be 0682 463e 4c72 6dbe 1b44 8e3e
00000330: 6e89 573e 4b6e 903d c151 afbe 5121 43bd
00000340: 32db 96be 7750 813c 53b3 353d 4cc6 d93d
00000350: fdb0 58bd 3a4c e93e 7c69 35be c8f4 6b3d
00000360: 117f 283e 9316 5dbe 8035 f93d 5063 18be
00000370: 8e8f 073e aacb 103e 88cc 9d3e 7dab d0bb
00000380: dc15 d7bd a3b7 c73e 3e72 21be 5367 7e3d
00000390: 8118 1d3e b189 9c3e e391 f63e b791 dfbd
000003a0: cf19 20bd 528e 41bd 045b 043e 81dc cc3c
000003b0: 17c9 cf3d 322c 61be 5abc 33be e183 02bd
000003c0: 08d0 7abe 8e87 d73e c352 99be a5a4 483e
000003d0: fa1b e33d 3507 97bd 2e87 f8bd 6527 93bb
000003e0: 0e66 79bd 8150 acbd fb8f 22bc dce1 373e
000003f0: 4e7e 8ebe e184 3d3e 0cbf 293d c9af f13d
0.084272265 0.08632518 -0.19559266 -0.029625941 -0.04403152 -0.150039 0.39258218 0.15716094
-0.055176295 0.1683563 -0.25595313 0.07663898 0.08421557 -0.00035374388 0.1385143 -0.26692224
-0.02581316 0.11939302 0.08503856 0.08060913 -0.15561686 0.02161072 0.2404151 -0.059380833
0.34311157 -0.46786308 -0.11245212 0.10526958 0.16656418 -0.10317526 -0.31230015 -0.114251524
0.25242686 0.026372537 -0.17211483 -0.138822 0.3775521 0.02932022 -0.006068025 -0.12392432
0.15079689 0.01264362 0.09169968 0.12862143 0.33224306 -0.012251085 0.098108254 -0.056947332
-0.052936476 0.37770787 -0.06479687 0.07297745 -0.34647882 -0.15707037 0.16887483 0.18817638
0.083020374 0.3528862 -0.24064347 0.19630282 0.075729795 0.01688089 0.12929285 0.47515813
-0.2285467 0.09202914 -0.12476118 0.20326261 0.038700536 -0.20526603 -0.06207066 0.24048686
-0.00275815 0.0597158 -0.6033495 -0.076799825 0.2151098 -0.29435262 0.12396763 -0.043881644
-0.10018782 -0.05888225 0.07344146 0.12933497 0.08941858 0.0426567 -0.38209754 -0.060095612
-0.2358345 -0.22292031 0.12548967 -0.24910292 -0.073083065 0.09147754 -0.044359982 0.27166158
0.3252716 -0.02298682 -0.10024588 0.3028832 0.019263 0.13571255 0.028597398 -0.21063894
0.039475724 0.13127455 -0.12190945 -0.25028327 0.025984587 -0.13539292 -0.34481338 -0.056024127
0.46484676 0.056675356 0.23767684 -0.0776352 0.38955975 -0.0020666504 -0.016273662 0.23321202
-0.16395244 0.027871247 0.120610066 0.007382398 0.34818244 -0.4875137 -0.14217645 0.061111458
-0.121640295 -0.011380597 0.16569981 0.16442369 -0.18973573 -0.22291568 0.16581269 0.04548355
-0.33694825 -0.2917479 -0.027559014 -0.10307699 0.42471832 0.2832901 0.18792792 0.33033213
-0.07289962 -0.11283946 0.17953295 -0.18486995 0.13766228 0.023809113 -0.37012234 0.22834246
-0.09766416 0.071870334 0.13029449 -0.16405499 0.13944218 0.29141566 0.24326101 -0.005043417
0.26737967 0.14504212 0.26680738 -0.028558383 -0.08655555 -0.11631132 0.19917983 0.13493372
-0.06645088 0.5902239 0.0022340307 -0.10496074 -0.0688258 -0.3613707 -0.3061838 0.06270958
0.18669784 0.32212922 -0.15875196 0.16979668 0.007465437 -0.23743263 -0.011280673 0.008874928
0.18352392 0.14056844 0.17633058 0.15405011 0.016960742 -0.026551366 0.13668989 0.18828554
-0.1613379 0.28019395 -0.042834587 -0.08390963 -0.0876998 0.044058815 0.25794798 0.2612306
-0.17588207 0.19385538 -0.23188132 0.27786335 0.21048519 0.07052287 -0.3424206 -0.047639195
-0.29464108 0.015785439 0.04436047 0.10633525 -0.052903164 0.4556597 -0.1771602 0.05760649
0.16454722 -0.21590643 0.121684074 -0.14881635 0.13238356 0.14140192 0.30820107 -0.0063680992
-0.10502216 0.3900729 -0.15766236 0.062110256 0.15341379 0.305738 0.48158178 -0.10916465
-0.039087113 -0.047254868 0.12925345 0.025007488 0.10145777 -0.21989515 -0.17552319 -0.03186405
-0.2449342 0.42095608 -0.29945955 0.19594057 0.110893205 -0.073744215 -0.121351585 -0.00449078
-0.060888343 -0.084137924 -0.009922023 0.17957252 -0.27830738 0.1850772 0.041441962 0.118011065

network_body.linear_encoder.seq_layers.2.bias f4 [128]
00000000: b02a debc 226a a5ba 31c8 083d 8a24 d8bc
00000010: 3d12 4c3c c52d dc3b 9a98 42bd de78 8abc
00000020: e041 27ba 347b 493d 7269 c5bc 3f1f 10bc
00000030: eecd f83c 9228 f73a 728e 0f3d baf5 56bd
00000040: f3a8 f63c 8162 883c e815 f8bc 04be 39bc
00000050: 49a7 a2bc 8a0f 0f3d 03fb f9bc e412 e23b
00000060: 597a 97bc 03ef 03bd 9508 5fbd 435b 7dbb
00000070: 2273 1abd 4844 50ba 9ede 2cbd c7a3 b1bb
00000080: c77d 253d 67a3 3bbd 0b06 4bbd cce7 04bd
00000090: 2dcb debc 1662 2cbd b2dc 65bd 6a00 593d
000000a0: 0be2 aabc 78aa 963b 24da b83b 9a26 9f3b
000000b0: 9f08 7fbc d5b5 763d 12eb 03bb 4609 94bc
000000c0: e24f 18bd 5ad0 bf3c 4f06 07bb 5881 ffbc
000000d0: 2dfc 4cbd 8876 0a3d c249 763b 9fcb b53c
000000e0: 9a52 12bc 6551 a5bd 64b7 c7bc 81b5 f7bc
000000f0: 2d73 acbc 02f2 1bbd 93ff 33bd 15be 433d
00000100: 99e6 36bd 1762 41bc 0784 fcbb aa8c cebc
00000110: 5c8e 52bd 373d 93bd 4163 783c e33e 0bbc
00000120: 7cb8 6cbd e9e5 73bd 844d 123b 062c 61bd
00000130: c1e5 46bb 36e2 003c 68ab 1f3c 4a14 b2bc
00000140: f76f 12bd 6899 a9bc 76ef b6bc a1fb 77bd
00000150: 702e 0cbd 3705 1abd 22bb 45bd a36b 06bd
00000160: b80d 34bd 7df9 f7bb 5cdc 7ebc eb03 4fbd
00000170: 4c8a dabc 17f5 57bd ef46 a6bc a684 f43b
00000180: 3614 603c c4fa 10bc dd5c 193c eccc e0bc
00000190: 2bc7 4abc f909 aa3b 4506 c9bb c7b2 00bc
000001a0: c7cf 43bd 48c4 dcbb 4722 09bc cd05 05bd
000001b0: f25a 2fbd 33ac 8bbd a14a 093d 1c76 2cbd
000001c0: 0cac 8bbb 7965 063d d254 47bd 1423 273c
000001d0: 14e4 1dbd ad28 b33c 6101 66bc 9892 02bd
000001e0: 9209 36bd 1e0c 9ebc aa2e c23c 611b 6dbd
000001f0: 4fc1 bb3c 6e68 0bbd 0984 873c 6e33 d13c
-0.027119964 -0.0012620131 0.033394042 -0.02638461 0.01245552 0.0067193233 -0.047508813 -0.016903337
-0.00063803606 0.04918976 -0.024098132 -0.008796512 0.030371632 0.0018856695 0.035047956 -0.052480437
0.030109858 0.016648533 -0.030283883 -0.011336807 -0.019855158 0.03492693 -0.0305152 0.0068992246
-0.018490957 -0.03221036 -0.054451544 -0.0038659133 -0.037707455 -0.0007944745 -0.04220449 -0.005421135
0.040403154 -0.04581013 -0.04956631 -0.03244762 -0.027196491 -0.04208573 -0.056118675 0.05297891
-0.020859739 0.004597958 0.0056412388 0.0048568966 -0.01556602 0.060232002 -0.0020129126 -0.018070828
-0.037185557 0.02341478 -0.0020603125 -0.031189606 -0.05004518 0.033804446 0.0037580584 0.02219182
-0.008930827 -0.080721654 -0.02437944 -0.030237915 -0.021051014 -0.038072594 -0.043944906 0.0477887
-0.04465351 -0.011803172 -0.0077061686 -0.025213558 -0.051405296 -0.0718941 0.015160383 -0.00849888
-0.057793126 -0.05954543 0.0022324035 -0.054973625 -0.0030349346 0.007866433 0.009745456 -0.02173819
-0.03575131 -0.020703033 -0.02233098 -0.060542706 -0.034223974 -0.03760263 -0.048274167 -0.032817494
-0.043958396 -0.007567583 -0.015555467 -0.050540846 -0.026677273 -0.05272397 -0.020297496 0.007462102
0.013676694 -0.00884885 0.009360519 -0.027441464 -0.012376587 0.005189177 -0.0061347806 -0.007855124
-0.047805574 -0.0067372657 -0.008369989 -0.032476235 -0.04281134 -0.06819954 0.033518437 -0.042104825
-0.004262453 0.032811616 -0.048664875 0.010201234 -0.03854759 0.021869982 -0.014038415 -0.031878084
-0.04444272 -0.019292887 0.023703892 -0.05788744 0.022919325 -0.03403514 0.016542451 0.025537219

network_body.linear_encoder.seq_layers.2.weight f4 [128, 128]
00000000: f5df a63d 2334 35bd 6dd4 21be 2033 0b3d
00000010: 9170 613d 987a e03c c3e3 e73d dc32 81bd
00000020: 324c 0a3e 88f3 c2bb cf46 613c 61ed 02be
00000030: c3cb bfbe 7999 4ebe 9a73 36bd 2562 4f3d
00000040: 4452 e53b b14b 2cbd b491 643d 7a99 343e
00000050: 1700 6e3d dffc 5abe 288b ff3c ffce ebbd
00000060: f983 1c3d 79de 813d d6d6 143e 3eab e7bd
00000070: 01ac 843d 5e4d d23d e663 adbd 11fb 8ebd
00000080: d5e0 8dbd 9503 82bd 0fd9 f63d e48c 5dbd
00000090: dc45 ccbd bfa7 3e3d d417 d73d 96f2 8ebd
000000a0: 3173 953d c2be 003d 3fca 05be 32c5 a43d
000000b0: 65a5 abbd e100 83bc 618b 79bd 3426 2e3d
000000c0: a278 98bd 37be b73c ae55 a33d f2ac 7d3d
000000d0: 70f5 da3d 631a ed3d dff7 223d 89e3 39be
000000e0: f68e 893d a0d4 38bd 6c69 75bd edc6 443e
000000f0: 8bca 5b3d ad07 5fbd b8ca 17bd 01ae e3bd
00000100: d716 7cbc c519 6ebe 0731 683e 7cc6 f33d
00000110: f163 11be 07f0 8abe 6631 12bc 3286 663d
00000120: 5663 64bd 8726 a53d d98b bc3c 0cc0 39bd
00000130: 04eb 30be 0c8d b0bd 6925 88bd 0f30 cebd
00000140: f56f 1e3d d058 b23c a65b 523e 51c2 65be
00000150: f17f 3c3e f4fd dc3c e174 623e 8fbc 23bb
00000160: b617 0d3d 37ee 21bd 300a dc3d f04f 373e
00000170: 4564 953d ce27 f1bd 8d4e 87bd f113 e83d
00000180: 4cc8 353d 32db 293e 1e29 4ebc 6c18 0a3e
00000190: 7cb5 013e a410 8dbe d3b2 3b3d 33b0 a13d
000001a0: fcec f6bd acaf a6bd 11da f1bd 0f54 8c3d
000001b0: c713 46bd 2468 903d 3b91 cdbd 68b9 f93d
000001c0: 0ae8 e03d 0878 df3d e006 553d ae25 f9bd
000001d0: c595 6bbc 9508 c03b 12b1 043d fb80 533e
000001e0: ef51 f2bb a98b c53c e8ae 153d 8a69 c3bc
000001f0: 16eb 5fbd 0352 65bd 5f8f b83c 588d 763c
00000200: b4b9 a23d 7cae 4ebd 6138 1d3e e0ee a8bd
00000210: 5e69 e8bd ffcc 5fbe 92ca da3d 52e9 953c
00000220: bdc0 27be b20b 69be faba 373e 6911 453d
00000230: 17de 1a3e e7b7 bd3d f74e ee3d ecc5 88bc
00000240: e9e8 b7bd 93bb a63c e81d 23bd af81 da3c
00000250: 9e9a 083e fb80 b9bb 46c8 5c3e 32fc 0fbe
00000260: 56c7 39bd ab71 143e 7e67 0fbe 6ff6 8d3a
00000270: 61f1 9e3d b7bb 3bbe a30e 983d 10be 343e
00000280: a74e ae3d 2a17 893d d4ba 05bd c7d6 adbc
00000290: f74b 783d a79c afbc 2207 cf3d 521a 363d
000002a0: cfbf 84be 4cc0 62bd bc0d b1bd c81d babd
000002b0: 9ab9 b9bd c8f0 513d 59cb ec3d a30c a83d
000002c0: 27ae 753c fc79 ebbd a50f 003e 1bf1 0fbe
000002d0: c0e5 ca3d b41c 31bb 940a 3abb b5ee e1bd
000002e0: c45e babc 4f20 db3d 3806 b23d 4695 943d
000002f0: 8396 afbd 3026 febc 643b 393d 72eb 07be
00000300: 3fee 1f3d 85b5 9c3d 6579 8abd 6aeb 963d
00000310: 530c 9ebd 3fad e33c bddc f1bd 4bf8 09be
00000320: b10d 593c 7881 da3a 8961 3b3d 2ab3 27bd
00000330: bb03 663e 04df 86bd 3af9 0dbc abd3 9abd
00000340: 2c80 9ebd 3835 d03d 6fd3 cf3c b8af 2a3e
00000350: 2eaa 4d3c 7747 a93c 91e0 253d 47ad af3d
00000360: 9a9d a7bc b1c0 363e b778 023e 1096 fc3c
00000370: 6d61 cc3a f39f 16bd c1c7 10bd 8b16 26be
00000380: c537 4ebe 3ad0 bb3d dd9c 833e 10a7 933d
00000390: 9462 92be dc7d 023d 7b94 6d3d aebc f2bd
000003a0: 5ca2 033e e531 0e3e b5bf 063d ddaf 2cbd
000003b0: f698 063e babe f13d ba8e 36be ff7e 45bd
000003c0: 2981 233d 937a 35bc 9049 91bd 9452 78bc
000003d0: f2e7 cf3d 6cd2 40be 7585 21bc 019b 4f3e
000003e0: 24de 0dbd 4fba f3bd b243 66bd c459 e1ba
000003f0: cf8f bbbd 41aa a83c c402 f9bc 6a84 4ebe
0.08148185 -0.044239175 -0.1580369 0.033984303 0.055038992 0.027402207 0.11322739 -0.06308529
0.13505629 -0.0059494413 0.013749792 -0.12785865 -0.37460145 -0.20175733 -0.04454384 0.050630707
0.006998332 -0.042064372 0.055803016 0.17636672 0.058105554 -0.21385525 0.031194285 -0.11514091
0.038211796 0.063412614 0.14535078 -0.11311959 0.0647812 0.10268663 -0.0846632 -0.06981481
-0.06927649 -0.063483395 0.120531194 -0.054089442 -0.09974262 0.046546694 0.10502592 -0.06979863
0.07297362 0.03143192 -0.13065432 0.080454245 -0.08381156 -0.01599163 -0.060923938 0.042516902
-0.07444884 0.022429569 0.079753265 0.06193251 0.10691345 0.115772985 0.03978717 -0.18153204
0.06716721 -0.04512465 -0.05991499 0.19216509 0.053659957 -0.05445068 -0.037058562 -0.11117173
-0.015386305 -0.23252018 0.22674952 0.11903092 -0.14198281 -0.2713625 -0.00892291 0.056280322
-0.055758797 0.08063989 0.023015903 -0.045349166 -0.17277151 -0.086206526 -0.066477604 -0.1006776
0.03868099 0.021770865 0.20542774 -0.22437407 0.18408181 0.026976563 0.22114898 -0.0024984216
0.03444644 -0.03953382 0.107441306 0.17901587 0.072945155 -0.1177517 -0.06606779 0.113319285
0.04438047 0.16587523 -0.012583045 0.13485879 0.12666887 -0.27551758 0.045824837 0.078949355
-0.1205692 -0.081389755 -0.11809171 0.068519704 -0.048358705 0.07051113 -0.10037466 0.121935666
0.10981758 0.10911566 0.05200851 -0.1216539 -0.01437897 0.005860398 0.03239543 0.20654671
-0.007395021 0.024114447 0.036543757 -0.023854036 -0.054667555 -0.055986416 0.022529302 0.015048347
0.07945576 -0.05045937 0.15353538 -0.08248687 -0.11348222 -0.21855544 0.106831685 0.018299732
-0.16382118 -0.22758368 0.1794242 0.048112307 0.15123783 0.09263592 0.11636155 -0.016695939
-0.08979971 0.020353114 -0.039823443 0.026673166 0.13340232 -0.0056611276 0.21560773 -0.14061049
-0.045356117 0.14496486 -0.14004323 0.0010830889 0.07760883 -0.18333326 0.07424667 0.17650628
0.085110955 0.06693871 -0.032648876 -0.021220578 0.06061932 -0.021437002 0.10108782 0.044458695
-0.25927588 -0.05535917 -0.08645198 -0.090877116 -0.09068604 0.051255018 0.11562223 0.08205535
0.014995134 -0.11497876 0.12505968 -0.14056818 0.099071026 -0.0027025165 -0.0028387653 -0.11031858
-0.022750266 0.10699522 0.086925924 0.07255034 -0.0857363 -0.031024069 0.045222655 -0.13273409
0.03904557 0.076518096 -0.067614354 0.073691204 -0.077171944 0.027792571 -0.118096806 -0.13473623
0.013247893 0.0016670665 0.045747314 -0.04094235 0.2246236 -0.065855056 -0.008665377 -0.07559904
-0.077392906 0.10166401 0.025369374 0.16668594 0.012552781 0.02066396 0.040497366 0.08577972
-0.020460892 0.17846943 0.12741362 0.030833274 0.0015593 -0.036773633 -0.03534675 -0.16219537
-0.20138462 0.091705754 0.25705615 0.07209599 -0.28590834 0.03185831 0.05800293 -0.11852394
0.12854904 0.13886221 0.03289767 -0.042159904 0.13144287 0.11803956 -0.17827883 -0.048216816
0.0399181 -0.011076587 -0.07094109 -0.015156407 0.10151662 -0.1883027 -0.009858479 0.20273973
-0.034635678 -0.1190077 -0.056216903 -0.001719289 -0.09158289 0.020588996 -0.030396827 -0.201677

network_body.vector_processors.0.normalizer.running_mean f4 [29]
00000000: 1c56 283f be89 fb3d e425 443c 8e86 163e
00000010: 5f21 fc3e d2fc 2f3f ba82 0d3e 06cc 333c
00000020: 1352 f83d f47e d43e 37c9 0c3f 56b4 4a3e
00000030: 8949 273c e158 233e 86e0 0e3f 7f11 143f
00000040: bd10 483e cacb 3e3c 6357 363e 5f1f 053f
00000050: 7f11 143f bd10 483e cacb 3e3c 6357 363e
00000060: 5e1f 053f 2561 5e42 dee6 2e42 9768 b33a
00000070: fc1d 993a
0.6575639 0.122821316 0.011971924 0.14699766 0.4924421 0.6874515 0.138194 0.010973936
0.121250294 0.41503108 0.5499453 0.19795355 0.010210403 0.15951873 0.55811346 0.57839197
0.19537635 0.011645267 0.17806773 0.52000993 0.57839197 0.19537635 0.011645267 0.17806773
0.5200099 55.594868 43.725456 0.0013687786 0.001168191
