Assets/Models/Scena3/22Feb/iRobot.onnx (onnx, 86672 bytes, 8 tensors)

58 f4 [29]
0.49777046 0.42979655 0.1674027 0.119454734 0.3699449 0.49895737 0.38704956 0.14134133
0.087313384 0.363092 0.4884414 0.40294027 0.15002409 0.15470305 0.37098637 0.4856466
0.26915562 0.21203172 0.121401176 0.37924433 0.4856466 0.26915562 0.21203172 0.121401176
0.3792443 27.714401 20.590849 1.791018 2.057517
00000000: c5db fe3e 4b0e dc3e 9d6b 2b3e afa4 f43d
00000010: 6b69 bd3e 5777 ff3e 5c2b c63e c8bb 103e
00000020: 5cd1 b23d 32e7 b93e fe14 fa3e 304e ce3e
00000030: ea9f 193e 7a6a 1e3e edf1 bd3e aca6 f83e
00000040: c4ce 893e d81e 593e 2ea1 f83d 502c c23e
00000050: aca6 f83e c4ce 893e d81e 593e 2ea1 f83d
00000060: 4f2c c23e 18b7 dd41 0fba a441 1440 e53f
00000070: 5cae 0340

action_model._discrete_distribution.branches.0.bias f4 [5]
-0.008281335 0.016212113 0.0034748567 -0.06201523 0.043523144
00000000: 70ae 07bc 44cf 843c 6cba 633b af03 7ebd
00000010: 5345 323d

action_model._discrete_distribution.branches.0.weight f4 [5, 128]
0.013847914 0.04639309 0.007814304 0.016795577 -0.12892053 0.024105268 -0.025229434 0.012635837
-0.009067627 -0.042861745 -0.06563032 0.032493252 0.009951432 -0.043130945 -0.0570992 0.020769618
0.045551054 0.022775501 -0.08435268 -0.012994611 -0.03391774 -0.015707895 -0.011960788 -0.05149286
0.015118448 0.037920855 0.036989674 -0.08493841 0.010425445 0.024155581 -0.07132988 -0.03537608
0.009643186 -0.018809846 0.023382584 -0.024438558 -0.02122825 0.0144395 -0.00075806415 0.025801593
0.06179725 0.043108307 0.025300158 0.027014421 0.081841975 -0.048393678 -0.016045773 -0.030375734
0.040325437 0.06198923 0.052651662 -0.11638751 -0.105780974 -0.045349136 0.018109407 -0.007820317
-0.005329675 -0.03801536 -0.07736867 -0.01068307 0.021675324 -0.0076363487 -0.030066842 -0.049626283
0.033880252 0.0050633918 -0.011598495 0.0112933945 0.015756717 0.012374003 0.02689002 -0.015671544
0.052293487 0.0066470127 -0.04026254 0.0040105097 0.0069417343 0.042150907 -0.008915417 0.004317971
0.043056495 0.005582667 0.014748079 -0.07016674 0.0051169014 -0.010951498 0.03234255 0.053502414
-0.016195776 -0.010413659 -0.00402759 -0.08663789 0.008204708 -0.08352457 0.04274526 -0.0064620916
-0.0277678 -0.03114615 0.050891314 -0.008881889 -0.07633221 -0.062421884 0.013142729 -0.049378365
0.030505758 0.008982906 -0.07975109 0.09755191 0.06646011 0.030432153 -0.014620359 0.06297884
-0.031411115 0.034152463 0.012929777 -0.0036704047 -0.059345942 0.012192485 0.06999606 0.015284604
-0.10398859 -0.0076700007 0.0051818546 0.04833431 -0.025445811 7.319046e-05 -0.042234898 -0.06658338
-0.028150579 -0.09424398 0.07921032 -0.08684207 0.014617538 -0.025737243 0.046388578 0.018831786
-0.06697533 -0.016011007 0.04875382 -0.048085403 0.027327102 0.1173667 -0.04564588 -0.05658455
-0.03428438 -0.012057449 -0.029108137 0.0040281625 -0.035526082 -0.009485454 -0.009905353 0.027774217
-0.04934495 -0.009990199 -0.023626726 0.11081473 -0.11979312 -0.015662568 -0.10839885 -0.037820164
-0.09613762 0.018709471 -0.08682659 0.015861332 0.09016886 0.06729954 0.013395653 0.0035823907
-0.059490178 -0.06024221 -0.04820248 -0.05240376 -0.08294931 0.014938748 0.07954605 0.07668142
0.004267034 -0.11763366 -0.064474255 0.062458016 0.07660982 0.028412547 -0.08569291 -0.078446776
-0.03877934 0.11090979 -0.031035075 0.06254111 -0.007754923 -0.05342931 -0.10042712 0.04306115
0.017252607 0.013944468 -0.079286255 -0.0012147359 0.070082046 0.025614688 0.04760551 -0.014322976
-0.07100632 -0.022106484 -0.0116810035 -0.035808045 0.01904994 -0.06088251 -0.027349103 0.031804953
-0.06695438 0.044837892 -0.039233364 0.07708425 -0.018976435 0.01862734 -0.03285669 -0.03919789
-0.084132984 0.024906158 0.07763007 0.039651934 0.012080606 0.070574306 -0.07191698 -0.06869775
0.013751682 0.09935991 0.083426364 0.112264715 0.00019144091 -0.0018163685 0.07313776 0.009344608
0.079967275 0.062771365 0.053944882 -0.050816458 0.0031813984 -0.02499186 0.007511455 -0.060833573
-0.074467 0.007491684 -0.0748197 0.08807855 -0.014523467 -0.10593878 -0.04186992 0.04627683
-0.01841127 -0.11137801 0.04754638 -0.067005225 0.019947313 0.0113785835 -0.024230216 0.01967018
00000000: 5ce2 623c ae06 3e3d 9107 003c e196 893c
00000010: be03 04be 6978 c53c f5ad cebc 8b06 4f3c
00000020: 6290 14bc cc8f 2fbd 3069 86bd a517 053d
00000030: 550b 233c 13aa 30bd dae0 69bd 0c25 aa3c
00000040: be93 3a3d b093 ba3c 19c1 acbd 59e7 54bc
00000050: 54ed 0abd d8ad 80bc 2ef7 43bc 2dea 52bd
00000060: 5eb3 773c e652 1b3d 7c82 173d 30f4 adbd
00000070: 7ccf 2a3c ede1 c53c 6615 92bd 82e6 10bd
00000080: 74fe 1d3c 1b17 9abc d58c bf3c 5f33 c8bc
00000090: dee6 adbc a793 6c3c d3b8 46ba dd5d d33c
000000a0: 1d1f 7d3d 5692 303d 4742 cf3c 594d dd3c
000000b0: c49c a73d 7338 46bd 6d72 83bc 88d6 f8bc
000000c0: 492c 253d 6be8 7d3d 45a9 573d 935c eebd
000000d0: b2a3 d8bd 04c0 39bd 2e5a 943c c920 00bc
000000e0: 8ea4 aebb feb5 1bbd 7773 9ebd 0b08 2fbc
000000f0: 7390 b13c 563a fabb bd4e f6bc ee44 4bbd
00000100: 05c6 0a3d cfea a53b 9d07 3ebc ee07 393c
00000110: 3b14 813c 55bc 4a3c 7648 dc3c 9c61 80bc
00000120: b231 563d 2fcf d93b 55ea 24bd 986a 833b
00000130: 7d77 e33b 6ea6 2c3d f811 12bc c47d 8d3b
00000140: 025c 303d ceee b63b eda1 713c 94b3 8fbd
00000150: aeab a73b e96d 33bc 9f79 043d 5925 5b3d
00000160: 01ad 84bc 0d9e 2abc e0f9 83bb 356f b1bd
00000170: 0a6d 063c ee0e abbd a715 2f3d f4bf d3bb
00000180: 4c79 e3bc 3626 ffbc 6973 503d 5885 11bc
00000190: 1054 9cbd 17ae 7fbd 9a54 573c f840 4abd
000001a0: 36e7 f93c 0a2d 133c 8a54 a3bd 4cc9 c73d
000001b0: 3d1c 883d da4c f93c 3b8a 6fbc 0dfb 803d
000001c0: f1a8 00bd 74e3 0b3d 6ad7 533c 2c8b 70bb
000001d0: bb14 73bd fdc2 473c 185a 8f3d 476c 7a3c
000001e0: f8f7 d4bd a154 fbbb 8ccc a93b 33fa 453d
000001f0: bc73 d0bc d47d 9938 80fe 2cbd de5c 88bd
00000200: 0b9c e6bc fd02 c1bd 0539 a23d 41da b1bd
00000210: 667e 6f3c e9d6 d2bc f301 3e3d 1e45 9a3c
00000220: 5d2a 89bd 8429 83bc 16b2 473d 33f5 44bd
00000230: 16dd df3c f45d f03d 2df7 3abd 33c5 67bd
00000240: c76d 0cbd 9b8c 45bc 3074 eebc adfe 833b
00000250: cc83 11bd e168 1bbc 104a 22bc c186 e33c
00000260: ee1d 4abd eead 23bc d68c c1bc d5f2 e23d
00000270: 1856 f5bd c94e 80bc 3700 debd 51e9 1abd
00000280: cde3 c4bd 9b44 993c 24d2 b1bd a0ef 813c
00000290: 74aa b83d 57d4 893d 7179 5b3c 8bc6 6a3b
000002a0: f9ab 73bd 89c0 76bd f76f 45bd 53a5 56bd
000002b0: 54e1 a9bd a7c1 743c 0ae9 a23d 260b 9d3d
000002c0: 7ad2 8b3b ebe9 f0bd 140b 84bd fad3 7f3d
000002d0: 9ce5 9c3d 6ec1 e83c c47f afbd b4a8 a0bd
000002e0: 16d7 1ebd ac24 e33d 453d febc 8e15 803d
000002f0: 021d febb b1d8 5abd bcac cdbd e360 303d
00000300: 5755 8d3c 5777 643c d560 a2bd c637 9fba
00000310: 2d87 8f3d e5d5 d13c fffd 423d eaaa 6abc
00000320: c36b 91bd a818 b5bc ae61 3fbc 75ab 12bd
00000330: 9f0e 9c3c f05f 79bd 3a0b e0bc e945 023d
00000340: 611f 89bd f0a7 373d 2ab3 20bd 59de 9d3d
00000350: 7874 9bbc 5d98 983c bd94 06bd f78d 20bd
00000360: ea4d acbd 0008 cc3c 84fc 9e3d 116a 223d
00000370: bced 453c 4389 903d 3649 93bd 68b1 8cbd
00000380: bc4e 613c 357d cb3d 71db aa3d 0beb e53d
00000390: 87bd 4839 3713 eeba 40c9 953d 201a 193c
000003a0: e2c5 a33d 468e 803d 4ff5 5c3d eb24 50bd
000003b0: 027f 503b bbbb ccbc a722 f63b a02c 79bd
000003c0: 2882 98bd cd7c f53b 123b 99bd 8762 b43d
000003d0: d6f3 6dbc 6ef6 d8bd cb7f 2bbd c68c 3d3d
000003e0: 3bd3 96bc 271a e4bd febf 423d 093a 89bd
000003f0: 8c68 a33c 3d6d 3a3c 727e c6bc 5b23 a13c

network_body.linear_encoder.seq_layers.0.bias f4 [128]
-0.058631513 0.041370235 0.033972036 0.022356324 -0.020846017 -0.004978123 0.033888336 -0.04126324
-0.0025148652 -0.014301059 0.054645773 0.03561051 -0.045007 0.026867453 -0.024843235 0.0010107697
0.04190761 -0.0020827856 0.020202983 0.020858428 -0.016046427 0.008916185 -0.03571243 -0.0010324592
0.052218933 0.0009702333 -0.010907088 -0.0037893835 -0.029602282 0.010030495 0.0026093714 -0.0812407
0.048709027 -0.01619192 -0.006462922 -0.06925766 -0.050173342 0.00757316 -0.006658149 0.06122094
0.0042989748 -0.005982874 -0.06583024 -0.05846235 -0.0243823 -0.021710917 -0.0022529191 0.052712526
-0.029730448 -0.031244336 -0.006281262 -0.011110797 0.0052787126 -0.043386366 0.08387807 0.032981493
0.029422555 -0.0100511 -0.016514337 -0.0012590556 -0.06804095 -0.041863307 0.017014077 0.0686204
-0.025311882 -0.015721632 -0.013502336 -0.025884273 0.07982943 0.0058772136 0.036539465 0.017342702
-0.039026238 0.046877306 0.013597998 -0.032559432 -0.03300162 0.09749857 0.016494453 -0.036778104
-0.027973013 0.027043859 -0.0015664726 0.05692444 0.014339785 0.015518479 0.030154744 -0.049952343
-0.03906538 -0.027613638 -0.005898525 0.03386984 -0.01267035 -0.03404299 0.06232204 0.0056540077
-0.003705603 0.009635529 0.015047406 -0.04507488 -0.02442141 0.0068243146 0.045829244 0.088402845
0.011716339 -0.041442577 -0.013611229 -0.02279908 0.057424203 -0.002763446 0.017613351 -0.005793784
-0.030181862 -0.048261452 0.0036091574 0.05914942 0.020811627 -0.012515642 0.018418608 0.06593582
0.01972974 0.056773916 0.025677457 0.029012343 -0.03770307 -0.021932535 -0.0051233405 -0.0059697693
00000000: 9927 70bd d673 293d 4326 0b3d 9c24 b73c
00000010: 44c5 aabc 861f a3bb 7fce 0a3d a503 29bd
00000020: 70d0 24bb fd4e 6abc 3fd4 5f3d 53dc 113d
00000030: 4359 38bd 2219 dc3c 0a84 cbbc ce7b 843a
00000040: 50a7 2b3d 587f 08bb ba80 a53c 4bdf aa3c
00000050: cc73 83bc 3115 123c 3247 12bd 9553 87ba
00000060: 85e3 553d 4157 7e3a a5b3 32bc 4e57 78bb
00000070: 7c80 f2bc f256 243c fd01 2b3b 8661 a6bd
00000080: 1e83 473d eba4 84bc ebc6 d3bb f6d6 8dbd
00000090: 9082 4dbd 4528 f83b 9a2c dabb cfc2 7a3d
000000a0: 6ade 8c3b fc0b c4bb 01d2 86bd 3876 6fbd
000000b0: 64bd c7bc 18db b1bc b6a5 13bb 17e9 573d
000000c0: 458d f3bc 1ff4 ffbc 0bd3 cdbb 0f0a 36bc
000000d0: 0df9 ac3b e7b5 31bd 44c8 ab3d 9a17 073d
000000e0: 9207 f13c 5ead 24bc 1349 87bc e506 a5ba
000000f0: 0e59 8bbd dc78 2bbd 1b61 8b3c da88 8c3d
00000100: dd5a cfbc a7ca 80bc e738 5dbc 410b d4bc
00000110: 9d7d a33d a495 c03b 68aa 153d 4812 8e3c
00000120: fad9 1fbd 6b02 403d 23ca 5e3c 0a5d 05bd
00000130: b52c 07bd 55ad c73d 601f 873c a3a4 16bd
00000140: a927 e5bc 158b dd3c 1952 cdba 9a29 693d
00000150: 6bf1 6a3c 3841 7e3c 1507 f73c d49a 4cbd
00000160: 0503 20bd ff35 e2bc 6a48 c1bb 1abb 0a3d
00000170: 4d97 4fbc aa70 0bbd 6545 7f3d 4145 b93b
00000180: b4d9 72bb 56de 1d3c 6589 763c 70a0 38bd
00000190: 690f c8bc 809e df3b 72b7 3b3d 8d0c b53d
000001a0: e3f5 3f3c b1bf 29bd a201 5fbc 23c5 babc
000001b0: a435 6b3d ee1a 35bb e049 903c c8d9 bdbb
000001c0: f43f f7bc cdad 45bd 9d87 6c3b aa46 723d
000001d0: 257d aa3c 680e 4dbc 9fe2 963c 5c09 873d
000001e0: 44a0 a13c c48b 683d 8859 d23c 4bab ed3c
000001f0: 896e 1abd dcab b3bc b2e1 a7bb 0e9e c3bb

network_body.linear_encoder.seq_layers.0.weight f4 [128, 29]
0.03331133 -0.10611572 -0.01832937 -0.0038934185 -0.09038727 0.28875285 0.24035071 -0.11598198
0.018825756 -0.050215766 0.1833019 -0.062343594 -0.20934494 0.08181319 0.014680106 -0.17082006
0.009107871 0.11314253 0.11161459 0.062499892 0.21972111 0.5747668 0.0859762 0.09644862
-0.13265504 -0.03487725 -0.060857136 0.5042591 0.02637434 0.083349474 0.21119054 -0.34960154
-0.29881763 -0.25577483 0.04455589 0.13212773 -0.05997161 0.19020073 -0.07936735 0.41307417
-0.34086743 -0.11558727 -0.074433126 0.1563115 -0.15401565 -0.1633323 0.24468227 0.006910305
0.016855633 -0.14931287 0.03845604 -0.1358511 -0.21438144 0.028682947 0.25452492 -0.13809194
-0.12249407 0.36577114 0.30144614 -0.07908535 -0.15082899 -0.123218246 -0.12378372 0.07116515
0.09077696 -0.08950663 -0.16890256 0.035983834 -0.1835076 0.08454716 -0.4923769 0.12603448
0.06989359 0.12630357 0.13257864 0.012263932 0.07760533 0.020618988 0.12837766 0.28604415
-0.22600846 0.08545959 -0.22084105 0.14633285 0.0964462 -0.16352655 -0.091943204 -0.030486945
-0.26216698 0.11465076 -0.05961863 -0.0038681463 -0.057273522 -0.14961435 0.052682757 0.013004824
-0.13098963 -0.08515971 0.20474724 -0.1418389 -0.27502063 0.009314229 -0.12558904 -0.34064847
0.14017822 0.3467159 -0.104367994 -0.068072364 -0.13225046 0.21458781 0.012415579 -0.0923027
-0.08859833 0.09083272 0.32568797 0.11652338 -0.12770852 -0.08498803 0.12913647 0.07086536
0.07875641 -0.45194134 0.21571435 -0.14218049 -0.30175585 0.5363965 0.07497815 -0.05954762
0.124600135 0.13819577 0.023670461 0.2753178 -0.021282012 -0.22975107 -0.19021994 -0.17210755
-0.140219 0.17031088 -0.010854918 0.23135665 -0.03469724 0.040846366 -0.53947467 -0.179651
-0.21925664 0.25303918 0.21397455 -0.16250609 0.23594429 -0.061677996 0.22258195 -0.09993954
0.026481321 -0.10403516 -0.07673855 0.30714422 0.15866812 -0.0744305 -0.10957184 -0.019560728
0.12954359 0.19510572 -0.009688928 -0.07028219 -0.012836508 0.1747549 -0.20144816 0.104824975
0.0030987614 0.008095415 -0.21847801 0.118845366 0.34065115 -0.07682603 0.2002591 0.08906187
-0.08868881 0.07529725 0.19305275 0.30972034 0.337847 0.31525826 -0.08931301 -0.025471266
0.41189378 0.07272684 0.2851515 0.02017485 0.22482279 0.29676935 0.16395009 -0.040317465
0.3148487 -0.3405533 0.13654295 0.020646725 -0.13241386 -0.31863374 0.3223372 0.17687263
0.23883268 -0.24603567 0.18398766 0.2021718 -0.012695289 0.034991544 -0.12478609 -0.0024419853
-0.13511616 -0.15048994 -0.11016265 0.011027345 -0.044836454 -0.12983055 -0.34522304 0.026008751
0.24870802 -0.034507833 -0.17621551 -0.42918512 0.0880682 0.024129964 -0.18395895 -0.28619957
-0.11734297 0.04380373 -0.0013821676 -0.08708583 -0.20336957 0.053817015 -0.43005043 0.2238935
0.1198417 0.10071607 -0.14009361 0.22857688 -0.18373303 0.0055252304 -0.04907359 0.2733053
0.057800304 0.28762615 0.29929072 -0.17217919 0.24025816 -0.078536876 0.08565345 -0.18822856
-0.48745984 0.17170537 0.27702758 -0.26777858 -0.22354753 -0.2505209 0.11687222 -0.43476763
00000000: 7671 083d 3353 d9bd 7a27 96bc b928 7fbb
00000010: f61c b9bd 6ad7 933e 7f1e 763e f687 edbd
00000020: 7938 9a3c 0caf 4dbd 7eb3 3b3e ff5b 7fbd
00000030: 855e 56be ac8d a73d d484 703c 74eb 2ebe
00000040: 2e39 153c 45b7 e73d 3196 e43d e3ff 7f3d
00000050: 92fe 603e eb23 133f 4a14 b03d db86 c53d
00000060: b9d6 07be 73db 0ebd 5545 79bd 2017 013f
00000070: 000f d83c 21b3 aa3d 5542 583e f9fe b2be
00000080: a0fe 98be ebf4 82be 3d80 363d 7e4c 073e
00000090: caa4 75bd fbc3 423e 598b a2bd 757e d33e
000000a0: 2d86 aebe 05b9 ecbd 6570 98bd 1f10 203e
000000b0: 47b6 1dbe 9540 27be fd8d 7a3e d76f e23b
000000c0: d314 8a3c 79e5 18be 1584 1d3d 8d1c 0bbe
000000d0: cf86 5bbe 80f8 ea3c 1751 823e f967 0dbe
000000e0: 2cde fabd 5b46 bb3e 2657 9a3e 80f7 a1bd
000000f0: ea72 1abe d959 fcbd 5282 fdbd 09bf 913d
00000100: 45e9 b93d 414f b7bd cbf4 2cbe c963 133d
00000110: 6be9 3bbe 1027 ad3d d318 fcbe 2f0f 013e
00000120: 5f24 8f3d b955 013e b2c2 073e a9ee 483c
00000130: 8bef 9e3d 27e9 a83c 6f75 033e 6174 923e
00000140: c36e 67be 7005 af3d 2824 62be 47d8 153e
00000150: 9685 c53d 8173 27be b84c bcbd c2bf f9bc
00000160: c03a 86be 05ce ea3d aa32 74bd ba80 7dbb
00000170: a497 6abd 8134 19be e0c9 573d 2f12 553c
00000180: 2522 06be 3768 aebd 43a9 513e 373e 11be
00000190: 81cf 8cbe b59a 183c 6a9a 00be 7a69 aebe
000001a0: e18a 0f3e bf84 b13e e3be d5bd 8669 8bbd
000001b0: aa6c 07be e8bc 5b3e b66a 4b3c 3309 bdbd
000001c0: 0b73 b5bd 8106 ba3d 93c0 a63e cfa3 ee3d
000001d0: 06c6 02be 340e aebd 5a3c 043e dc21 913d
000001e0: 0a4b a13d db64 e7be 39e4 5c3e c397 11be
000001f0: be7f 9abe 4851 093f 258e 993d 35e8 73bd
00000200: 5b2e ff3d 3183 0d3e 8ee8 c13c 74f6 8c3e
00000210: 9d57 aebc dd43 6bbe 04c9 42be f63c 30be
00000220: 9295 0fbe fa65 2e3e d3d8 31bc c2e8 6c3e
00000230: b11e 0ebd 854e 273d 031b 0abf 6ff6 37be
00000240: d084 60be 5a8e 813e 251c 5b3e ff67 26be
00000250: 619b 713e 11a2 7cbd 86ec 633e 1aad ccbd
00000260: 5bef d83c 6310 d5bd 1a29 9dbd 0242 9d3e
00000270: e579 223e 056f 98bd 3367 e0bd d23d a0bc
00000280: 13a7 043e cbc9 473e 4fbe 1ebc 1cf0 8fbd
00000290: 3850 52bc f3f2 323e 6d48 4ebe 7aae d63d
000002a0: 9714 4b3b a2a2 043c b3b8 5fbe 3365 f33d
000002b0: d469 ae3e f756 9dbd b910 4d3e 1266 b63d
000002c0: 7ba2 b5bd 7235 9a3d 9faf 453e aa93 9e3e
000002d0: 48fa ac3e 8869 a13e bde9 b6bd 1ea9 d0bc
000002e0: bee3 d23e cff1 943d 61ff 913e ba45 a53c
000002f0: f237 663e 27f2 973e 88e2 273e ed23 25bd
00000300: d933 a13e 015d aebe ead1 0b3e 5223 a93c
00000310: 8097 07be f623 a3be 6209 a53e 191e 353e
00000320: 8e90 743e c6f0 7bbe 4367 3c3e 2006 4f3e
00000330: e7ff 4fbc 4b53 0f3d d98f ffbd b709 20bb
00000340: e45b 0abe 091a 1abe f59c e1bd 0aac 343c
00000350: 6ea6 37bd 4df2 04be 13c1 b0be 4e10 d53c
00000360: 51ad 7e3e 1658 0dbd d771 34be 27be dbbe
00000370: 1a5d b43d 34ac c53c bc5f 3cbe c088 92be
00000380: 8351 f0bd 8a6b 333d d929 b5ba 0e5a b2bd
00000390: 1d40 50be 3b6f 5c3d 922f dcbe 5644 653e
000003a0: 916f f53d 3a44 ce3d b374 0fbe 0f10 6a3e
000003b0: 8324 3cbe fe0c b53b 6401 49bd acee 8b3e
000003c0: 03c0 6c3d bc43 933e a23c 993e be4f 30be
000003d0: 3c06 763e f1d7 a0bd 136b af3d fdbe 40be
000003e0: 5694 f9be 88d3 2f3e 8fd6 8d3e 461a 89be
000003f0: a5e9 64be 4744 80be b45a ef3d dd99 debe

network_body.linear_encoder.seq_layers.2.bias f4 [128]
-0.04803115 -0.008431896 0.003945258 -0.046167545 0.02704019 -0.046576925 0.06645378 -0.028130986
-0.0554332 -0.009359885 -0.011187532 0.004327136 0.008861493 0.065218404 -0.009957284 -0.036868516
0.016226491 -0.032782555 0.03818784 -0.04520451 0.0037292866 -0.059393533 0.067948736 0.037673913
0.007933052 -0.03306821 -0.008676481 0.020129308 -0.012392545 0.027429847 -0.026938435 0.036407635
-0.005231801 0.035165347 -0.012025508 -0.036999997 0.036028974 0.022290142 -0.046713658 0.026726749
0.03169663 -0.017538808 -0.01364229 -0.09429267 -0.02074149 -0.04279195 0.047067888 -0.024413593
-0.04518253 -0.0046287547 -0.029021066 0.061045036 0.0016341304 0.02144744 -0.035225768 0.04527627
-0.019237904 0.028638521 -0.0019182487 0.012058858 -0.0010533786 -0.012424031 0.0063621835 -0.0014002172
-0.040679593 -0.004576744 -0.02195992 -0.042345885 0.0359609 -0.027530555 0.0043103276 -0.056106046
-0.0440487 0.0540997 0.041758437 -0.015037493 -0.038157016 0.009086799 -0.052648336 -0.0013325374
-0.014540608 0.033869024 -0.025288539 0.08315624 -0.032923035 -0.052485853 -0.0012791262 0.0022415812
-0.014620153 0.053555332 0.043077797 0.052756786 -0.004610023 0.032054193 -0.005436144 -0.0016625284
-0.040812213 0.0761095 0.019408612 0.003075288 0.083239116 0.012943987 -0.030196957 0.0174887
0.024396623 0.05564871 0.05238704 -0.012745046 0.0047104596 -0.025418209 -0.0027498684 0.026938846
0.055353872 -0.05986022 0.053132955 -0.0017081926 0.043045335 -0.015485434 -0.013639295 0.037533976
0.0039899745 0.01671459 0.015810234 -0.014853779 0.06425588 -0.010428241 0.083304115 0.02095693
00000000: 50bc 44bd ef25 0abc 3947 813b 2e1a 3dbd
00000010: 6383 dd3c 72c7 3ebd eb18 883d f472 e6bc
00000020: ec0d 63bd 345a 19bc e94b 37bc a6ca 8d3b
00000030: cc2f 113c 3a91 853d e023 23bc 7103 17bd
00000040: 6bed 843c 0047 06bd da6a 1c3d 5d28 39bd
00000050: 0c67 743b a246 73bd b528 8b3d f64f 1a3d
00000060: a2f9 013c 8872 07bd cd27 0ebc 38e6 a43c
00000070: 1a0a 4bbc 8fb4 e03c fead dcbc 2c20 153d
00000080: 876f abbb 8a09 103d a306 45bc 4f8d 17bd
00000090: 1e93 133d d199 b63c d256 3fbd 0ef2 da3c
000000a0: 53d4 013d 8cad 8fbc e983 5fbc 841c c1bd
000000b0: 0fea a9bc 9d46 2fbd 42ca 403d 04ff c7bc
000000c0: 5111 39bd cfac 97bb 96bd edbc 5c0a 7a3d
000000d0: 5130 d63a 8bb2 af3c e548 10bd 9c73 393d
000000e0: cf98 9dbc 559b ea3c bf6d fbba 8492 453c
000000f0: 8511 8aba 2a8e 4bbc dd79 d03b 7e87 b7ba
00000100: a59f 26bd 83f8 95bb 4ae5 b3bc e172 2dbd
00000110: bd4b 133d c287 e1bc a63d 8d3b 74cf 65bd
00000120: 696c 34bd a697 5d3d e50a 2b3d d15f 76bc
00000130: 884a 1cbd cce0 143c c8a5 57bd 89a8 aeba
00000140: bb3b 6ebc 3fba 0a3d e929 cfbc d24d aa3d
00000150: 4eda 06bd 68fb 56bd 5aa8 a7ba 7ee7 123b
00000160: 5e89 6fbc d65c 5b3d 5872 303d 8017 583d
00000170: ad0f 97bb 424b 033d ae21 b2bb 32e9 d9ba
00000180: b52a 27bd 4cdf 9b3d cffe 9e3c c58a 493b
00000190: 4579 aa3d 0413 543c 9c5f f7bc 7644 8f3c
000001a0: 6ddb c73c e7ef 633d cb93 563d 99d0 50bc
000001b0: 335a 9a3b d939 d0bc 2337 34bb dbae dc3c
000001c0: beba 623d fd2f 75bd f1a1 593d 6fe5 dfba
000001d0: 4e50 303d 9eb6 7dbc 5977 5fbc 3abd 193d
000001e0: 55be 823b 09ed 883c 7784 813c 445d 73bc
000001f0: 9698 833d 37db 2abc 599b aa3d dead ab3c

network_body.linear_encoder.seq_layers.2.weight f4 [128, 128]
0.090593606 0.117596656 -0.042340897 -0.027146574 -0.0022632044 0.18516822 0.12736633 0.091516465
-0.081937164 -0.1664449 -0.20713314 -0.07099133 -0.07652677 0.02601826 -0.10130602 -0.167265
0.028647033 0.15009855 -0.07963917 0.09679377 -0.048983768 -0.1876203 -0.17550725 -0.12376751
-0.034693204 0.022996442 0.249093 -0.083002195 -0.028711526 -0.026441142 0.12841514 -0.0061667576
-0.06651542 -0.01508956 0.12321298 -0.029465536 0.016309898 0.0039793523 -0.04716039 -0.08196717
0.119027056 -0.11920414 0.0587191 0.093708344 0.15396325 -0.10191013 0.09019799 -0.079811424
-0.025918378 -0.116633095 -0.17477411 0.037809916 -0.15502988 -0.0032479053 0.14811562 0.037705913
-0.16468073 -0.15681556 0.016538369 -0.21979891 0.12799706 0.042050406 -0.032022692 -0.088990584
-0.12365283 -0.0102678975 -0.04406649 -0.17004576 -0.13119432 -0.01786923 -0.058410224 0.0027027547
-0.03400727 -0.13489039 -0.03850225 0.0038780263 -0.05992482 0.014265766 -0.0015940513 0.07939617
-0.018923633 -0.097386636 -0.051558737 -0.17316023 -0.11423892 -0.119761676 -0.10794089 0.099601425
-0.059215833 0.03948514 0.13729134 -0.011912221 0.09989165 -0.06963647 0.0111995395 -0.086180806
-0.022760842 -0.009016831 -0.17756124 -0.044514608 0.019384809 -0.12467782 0.002003823 0.034007423
-0.18924241 -0.07637445 0.06033749 -0.035329558 -0.105994545 0.0046046907 0.09135008 -0.009774468
-0.050512392 0.075958274 -0.04465696 -0.07968868 -0.20067972 0.09555944 -0.10891662 -0.17237955
-0.10023798 0.06994124 0.021312723 -0.06366444 0.052322667 -0.08257863 0.0060373493 -0.12043073
-0.016816132 -0.033096403 0.0398568 -0.15474151 -0.055616852 0.049047515 -0.1362907 0.1445851
0.10254617 -0.1193242 -0.043526895 0.014759846 0.15926133 -0.05243661 -0.051619764 0.110441215
0.024387782 -0.18875462 0.03077144 -0.13543126 0.03165337 0.08162034 0.179639 0.062268473
0.0960903 0.034007236 -0.083166204 0.08291746 0.10245671 -0.27598864 -0.008953203 0.042098816
-0.10416813 0.1359881 0.0030284934 -0.08691492 0.10278015 -0.17246512 -0.15013583 -0.06750641
0.10496585 -0.22198701 0.025063166 0.04677047 0.06199806 -0.13398184 0.06757074 0.06454253
0.28297737 0.078283995 -0.04235497 0.37497166 0.08502668 -0.12270516 0.047975168 -0.12095798
-0.021048194 0.041796543 -0.05981298 0.10825713 -0.24074982 -0.08689402 -0.035683755 0.0049711163
0.17052193 -0.09676361 -0.10077333 0.15526365 0.018748185 0.11469288 0.03387989 -0.10602651
0.15379626 -0.085249886 -0.013437783 0.0887541 -0.10998303 -0.04610318 0.004991647 -0.10841759
-0.24713969 0.069548436 -0.2774702 -0.014258332 0.06037142 0.0659933 0.040000446 -0.17368513
0.11491694 -0.08876146 -0.13480511 0.00010845959 -0.21796611 0.04523702 0.040516987 0.10048306
-0.2398077 -0.08902133 0.11870332 0.07748951 0.061231766 0.23294005 -0.14760005 0.016466687
-0.056563832 -0.27231014 -0.03696237 0.033391263 -0.052860033 -0.23596813 0.056926284 -0.109700635
0.05586971 -0.042056642 -0.064955294 -0.1811712 -0.065521926 0.040744532 -0.057505004 0.02564724
0.22173347 -0.1913301 -0.037312463 0.08103174 -0.0687578 0.18099633 0.072891645 0.09593281
00000000: 2489 b93d 84d6 f03d a66d 2dbd 7e62 debc
00000010: 4552 14bb bd9c 3d3e 526c 023e fc6c bb3d
00000020: acce a7bd 8870 2abe b61a 54be e763 91bd
00000030: 11ba 9cbd 3f24 d53c 8879 cfbd 8447 2bbe
00000040: 2fad ea3c 6fb3 193e dc19 a3bd d03b c63d
00000050: 34a3 48bd 891f 40be 2cb8 33be d279 fdbd
00000060: 761a 0ebd 0963 bc3c 3c12 7f3e 0efd a9bd
00000070: 6f34 ebbc 189b d8bc 427f 033e 8312 cabb
00000080: 3d39 88bd 343a 77bc 1657 fc3d b561 f1bc
00000090: 569c 853c 3a65 823b 412b 41bd 67de a7bd
000000a0: 75c4 f33d 4d21 f4bd 7083 703d 29ea bf3d
000000b0: 8ba8 1d3e 42b6 d0bd b9b9 b83d 2c74 a3bd
000000c0: c752 d4bc 55dd eebd fcf7 32be 92de 1a3d
000000d0: 27c0 1ebe cfda 54bb 9fab 173e 8471 1a3d
000000e0: 11a2 28be 4294 20be 797b 873c f712 61be
000000f0: a911 033e 0c3d 2c3d 3a2a 03bd b240 b6bd
00000100: b23d fdbd af3a 28bc 107f 34bd 7a20 2ebe
00000110: ce57 06be 7e62 92bc 8f3f 6fbd b320 313b
00000120: 354b 0bbd b520 0abe 89b4 1dbd 7c26 7e3b
00000130: ba73 75bd f6ba 693c 7cef d0ba 769a a23d
00000140: bc05 9bbc a572 c7bd 412f 53bd ea50 31be
00000150: 18f6 e9bd 9c45 f5bd 1d10 ddbd d5fb cb3d
00000160: 4d8c 72bd 2cbb 213d 1a96 0c3e 7a2b 43bc
00000170: fe93 cc3d 919d 8ebd 467e 373c 907f b0bd
00000180: f274 babc 55bb 13bc 9dd2 35be f354 36bd
00000190: e4cc 9e3c 1657 ffbd 9252 033b 5e4b 0b3d
000001a0: c3c8 41be 356a 9cbd 7224 773d bab5 10bd
000001b0: ab13 d9bd f2e2 963b c015 bb3d 1725 20bc
000001c0: 15e6 4ebd 0390 9b3d 37ea 36bd d233 a3bd
000001d0: fc7e 4dbe abb4 c33d ad0f dfbd 4484 30be
000001e0: 9249 cdbd 5a3d 8f3d 0598 ae3c 8062 82bd
000001f0: 4b50 563d fc1e a9bd f5d4 c53b 63a4 f6bd
00000200: fcc1 89bc 1890 07bd e240 233d 8f74 1ebe
00000210: 7fce 63bd 0ce6 483d ca8f 0bbe 1e0e 143e
00000220: ba03 d23d 3f60 f4bd 4249 32bd 48d3 713c
00000230: 6715 233e c5c7 56bd 3f6f 53bd 012f e23d
00000240: e3c8 c73c e448 41be 6314 fc3c 7eae 0abe
00000250: f7a6 013d 9128 a73d 49f3 373e 3a0d 7f3d
00000260: feca c43d 2c4b 0b3d 0b53 aabd a1d0 a93d
00000270: d3d4 d13d 624e 8dbe 75b0 12bc cf6f 2c3d
00000280: 1a56 d5bd 7740 0b3e b079 463b 7300 b2bd
00000290: 667e d23d b29a 30be 35bd 19be cd40 8abd
000002a0: 56f8 d63d 9050 63be 4551 cd3c 6492 3f3d
000002b0: aef1 7d3d 8932 09be 8762 8a3d e02e 843d
000002c0: 69e2 903e 5c53 a03d 687c 2dbd 49fc bf3e
000002d0: 7822 ae3d d84c fbbd 9c81 443d d1b8 f7bd
000002e0: 436d acbc da32 2b3d 75fe 74bd eab5 dd3d
000002f0: 1f87 76be 7ef5 b1bd 2129 12bd bfe4 a23b
00000300: 4d9d 2e3e 002c c6bd 3f62 cebd 6ffd 1e3e
00000310: cb95 993c 1ae4 ea3d a4c5 0a3d 6d24 d9bd
00000320: c47c 1d3e 7e97 aebd 262a 5cbc b6c4 b53d
00000330: c83e e1bd b0d6 3cbd f890 a33b 0b0a debd
00000340: 3012 7dbe 696f 8e3d 9310 8ebe c79b 69bc
00000350: 0648 773d 7f27 873d 82d7 233d 84da 31be
00000360: 9359 eb3d 91c8 b5bd 5a0a 0abe cd74 e338
00000370: 8232 5fbe 744a 393d 24f5 253d 10ca cd3d
00000380: 2690 75be d150 b6bd ba1a f33d d2b2 9e3d
00000390: 29ce 7a3d d687 6e3e 7824 17be 25e5 863c
000003a0: 7aaf 67bd 3c6c 8bbe db65 17bd 47c5 083d
000003b0: c383 58bd a1a1 71be 892b 693d baaa e0bd
000003c0: a3d7 643d 9643 2cbd 4807 85bd f184 39be
000003d0: 5c30 86bd bde3 263d 5e8a 6bbd 291a d23c
000003e0: 190e 633e 0aec 43be f4d4 18bd f8f3 a53d
000003f0: e4d0 8cbd 1a57 393e 3748 953d 6c78 c43d

network_body.vector_processors.0.normalizer.running_mean f4 [29]
0.5471864 0.24450654 0.028854221 0.014477018 0.448666 0.4676959 0.18346469 0.020391187
0.0076806257 0.6272701 0.6068968 0.20395783 0.023035873 0.024532888 0.37546253 0.6189508
0.078624554 0.04718152 0.01496005 0.5397686 0.6189508 0.078624554 0.04718152 0.01496005
0.5397686 57.069817 41.554 0.0053392136 -0.0002629793
00000000: 6814 0c3f ec5f 7a3e b05f ec3c 0431 6d3c
00000010: 8db7 e53e d675 ef3e 2bde 3b3e 6b0b a73c
00000020: c2ad fb3b c694 203f 975d 1b3f 52da 503e
00000030: bab5 bc3c 32f9 c83c a03c c03e 8f73 1e3f
00000040: e905 a13d 6941 413d ff1a 753c 462e 0a3f
00000050: 8f73 1e3f e905 a13d 6941 413d ff1a 753c
00000060: 462e 0a3f 7e47 6442 4c37 2642 92f4 ae3b
00000070: 7ce0 89b9
