Assets/Models/Scena3/18Feb/iRobot.onnx (onnx, 86672 bytes, 8 tensors)

58 f4 [29]
000000 7d 3b f7 3e d8 85 a6 3e cc 6b 72 3e 25 97 fd 3d
       0.48287573 0.3252399 0.23673934 0.12382344
000010 ea b9 b4 3e ca cf f9 3e cc 3a b1 3e ae de 92 3e
       0.3529809 0.48791343 0.3461517 0.28685516
000020 f7 9b 3e 3d c2 0a 9f 3e a4 bd f3 3e 7e 8f e5 3e
       0.04653546 0.31062895 0.47605622 0.44836038
000030 6e c3 90 3e 9e 11 d1 3d 6d 23 ba 3e b9 0c eb 3e
       0.282741 0.10208438 0.36355153 0.45908144
000040 7f 84 f5 3e 2f b0 94 3e 05 ca 27 3d 71 02 b4 3e
       0.4795265 0.29040667 0.040964145 0.35158113
000050 b9 0c eb 3e 7f 84 f5 3e 2f b0 94 3e 05 ca 27 3d
       0.45908144 0.4795265 0.29040667 0.040964145
000060 71 02 b4 3e bf 00 75 41 a2 a5 3e 41 70 ee 99 3f
       0.35158113 15.312682 11.915438 1.202589
000070 c4 0b b3 3f
       1.3987966

action_model._discrete_distribution.branches.0.bias f4 [5]
000000 3c 1c 78 bc 90 b7 c9 b9 d8 ef da 3a b7 b0 a1 3a
       -0.01514345 -0.00038474472 0.0016703559 0.001233599
000010 ad 1f 2d 3c
       0.010566634

action_model._discrete_distribution.branches.0.weight f4 [5, 128]
000000 b2 e1 93 bc 99 0c 75 bc f2 e3 66 3c 56 86 2e 3c
       -0.018051956 -0.014956617 0.014092432 0.010652145
000010 d9 6c 20 3d eb c4 a2 3c 79 cb ec 3b 9b 7e 40 bc
       0.039166305 0.019869288 0.0072264043 -0.011748935
000020 53 6a 15 3c 4d 7b 6e 3c 09 64 6c 3c 18 05 59 3c
       0.009119588 0.014555764 0.014428147 0.013245843
000030 de ca c5 38 0b ec c9 bb a9 1d 45 3b 8d 14 e0 bc
       9.431479e-05 -0.0061621717 0.0030077493 -0.02735355
000040 b5 f3 f7 bb ba 8a 70 bc 40 9b ee bb 24 20 5a bb
       -0.007566894 -0.0146815125 -0.007281691 -0.0033283317
000050 70 1a 1c 3c d8 0c 64 3c e2 7f fe 3b 2a 89 90 bc
       0.009527788 0.013919078 0.0077667097 -0.01764353
000060 cc 51 15 bd 0f f8 9f bc f6 a6 31 ba 4f f7 e5 3b
       -0.03645496 -0.019527463 -0.0006776893 0.007018007
000070 2b e3 43 bd 36 41 14 3d ce 91 e6 bb 49 08 00 3d
       -0.047824066 0.036195002 -0.0070364242 0.0312579
000080 ef e7 41 bc 69 65 e4 3c 73 5f 8b 3c c2 fc fd 3c
       -0.011835082 0.027880387 0.017013287 0.031004313
000090 15 5e 0e bc 4b a4 91 3c aa 9f 65 3c ff c5 4a bb
       -0.008689423 0.017778536 0.014015118 -0.0030940769
0000a0 14 b1 4d 3c b9 f2 f7 3c 70 ef 0f bd 70 59 a7 3c
       0.012554426 0.030267106 -0.035140455 0.02042839
0000b0 bf ca ac bc a5 3e 40 ba 78 02 d1 bb 57 59 dc 3c
       -0.02109277 -0.00073335535 -0.006378468 0.02689807
0000c0 f3 5b 15 bc 19 7c d2 3b 55 a0 66 3c 04 9d e1 3b
       -0.009116161 0.006423485 0.014076312 0.006885173
0000d0 fd dd c8 36 3e 97 8d 3c 7f f6 cb 3c c1 bd 3c 3c
       5.9863073e-06 0.017284032 0.024897812 0.01151985
0000e0 e5 8c b1 bb 6d 13 10 bc e2 42 f9 bc d2 ab e7 3c
       -0.0054184073 -0.008793694 -0.0304274 0.028280172
0000f0 a7 cb 9e bc 85 a7 3f bc 8b 1e 87 3c 10 f9 fb bb
       -0.019384218 -0.011697655 0.016494056 -0.0076896027
000100 79 58 a9 3c 65 5f a9 3c dc b2 a4 3c 4c 6e dd 3b
       0.02067207 0.02067537 0.020104818 0.006757533
000110 ee 46 44 bb 47 b6 2b 3d 06 52 6e 39 d9 0e 04 3c
       -0.0029949504 0.04192188 0.00022728005 0.008060181
000120 b9 8a 06 bd ae e8 18 3b 19 e2 55 bc ca 81 73 bc
       -0.03284714 0.0023332047 -0.013054394 -0.014862487
000130 7e 83 c9 3a 92 55 19 bd ff a3 8a bd e7 02 c6 3c
       0.0015374271 -0.03743512 -0.06769561 0.024171306
000140 b0 01 22 bb 34 0f a5 bb 5c 43 91 3a 75 90 bb 3b
       -0.0024720244 -0.0050372127 0.0011082697 0.0057240077
000150 b1 6e 96 3c 7e 99 a8 bb ef 03 32 bc d5 50 b2 ba
       0.018363329 -0.005145251 -0.010865196 -0.0013604412
000160 b7 90 25 3c ad c4 14 bd 14 59 fe bc 9d 88 d1 bc
       0.0101053035 -0.036320377 -0.031048335 -0.025577838
000170 76 5b a6 bb 19 29 b5 3c 6c 7a 0a bc 76 7f d7 3c
       -0.005076821 0.022114323 -0.008452039 0.026305895
000180 31 d2 19 3d 73 53 05 bd 8b c1 d3 3b bb c5 9c 3c
       0.03755397 -0.032550287 0.006462281 0.019137254
000190 72 8b 38 3c 0a fa 22 bd 86 ed ae 3c 0b 60 4d 3c
       0.011263715 -0.039789237 0.021353494 0.012535105
0001a0 2e 57 ef bb 09 6d 5a 3c 68 27 e9 3c 6e ff 6f bc
       -0.007304094 0.01333166 0.028461173 -0.0146483015
0001b0 da 36 ba bb 98 4b 69 3c b0 1e b9 bc a2 91 4a bc
       -0.0056828083 0.014239214 -0.02259764 -0.012363823
0001c0 77 66 07 3c ec aa c8 3c d4 04 11 bb 00 2f 74 3b
       0.008264176 0.024495564 -0.0022128122 0.003725946
0001d0 0a 44 05 3c 39 be a8 bb 76 7a 35 3d 8c 13 75 3b
       0.008133898 -0.0051496294 0.04430624 0.0037395684
0001e0 e1 cd e9 bc e6 0a 65 3b b1 ab f6 bc c7 17 06 bd
       -0.028540554 0.0034949123 -0.030111166 -0.03273752
0001f0 47 07 02 3c 3a dd 31 3c 5b 75 51 bb 7a d1 cb 3a
       0.007936305 0.010855967 -0.0031960818 0.00155501
000200 df 65 d1 bc 6b a0 be 3b 32 c3 0f 3c 69 ed d5 3c
       -0.025561271 0.005817463 0.0087745655 0.026114183
000210 b7 f2 bb bc 32 69 e8 bc 5b d3 5d bc 05 b9 b7 bc
       -0.022942884 -0.028370474 -0.013539161 -0.022427091
000220 e8 0e 85 bb 1a b5 bc 3b 3e b5 d7 ba 56 6c 1b 3c
       -0.004060615 0.0057588937 -0.0016457213 0.0094862785
000230 41 0f 52 3c fb 9b a3 bc 9e bd 10 3b 7e 80 f2 3c
       0.01282102 -0.019971838 0.0022085677 0.029602285
000240 7c a2 fc ba 69 da 7e ba cb b4 54 ba 7a 2b 11 3b
       -0.0019274498 -0.00097218767 -0.00081140985 0.0022151158
000250 8e d2 1f 3d 77 24 60 bb 63 8a 8a ba 7b 69 9b 3c
       0.03901916 -0.0034201422 -0.0010569807 0.018971195
000260 20 33 5d 3d d9 d8 9f bc a9 77 b7 3c 3f ef a8 3c
       0.054003835 -0.01951258 0.022395926 0.020621894
000270 7a 9b d0 bc 1f 1f a6 bb a9 ca 02 bc b2 de 12 bd
       -0.025464762 -0.005069628 -0.007982888 -0.03585691
000280 f6 57 30 3b f0 00 7f bb 0b 9a 75 bc 50 73 a6 bb
       0.0026907898 -0.003891047 -0.01499034 -0.0050796643
000290 e3 70 7f 3b c0 46 ca 3c 80 df 44 3d 8d 23 9c 3c
       0.0038977198 0.02469194 0.04806471 0.01905992
0002a0 f5 c7 0e bd 76 ef 4a 3c 7b fc 15 bc 36 23 22 bd
       -0.034858663 0.0123861935 -0.009154434 -0.03958436
0002b0 f0 94 95 3c 7f 70 03 3d 5b ac 60 3d b3 bf 9f 39
       0.018259495 0.032089707 0.05485187 0.0003046967
0002c0 9f e9 59 bc fc 1d 8c bb 62 ec 00 bd d8 19 1b 3c
       -0.0133003285 -0.0042760354 -0.031475432 0.009466611
0002d0 14 29 7f bc fe 30 bd bc c1 fa 2b ba 28 e3 ad bc
       -0.015573759 -0.02309465 -0.00065604976 -0.02122648
0002e0 87 75 66 3c b9 61 0e 3b 8c 75 9c bb dc 98 14 bc
       0.014066107 0.0021725728 -0.004774755 -0.009069648
0002f0 59 06 6e bb d2 a5 81 bc f0 56 cd 3b 98 56 d1 b9
       -0.0036319701 -0.01582614 0.0062664673 -0.00039928104
000300 67 67 d2 bb 7f 1e bd bb ce fe c0 bb 09 44 4f 3a
       -0.006421018 -0.0057714577 -0.00588975 0.00079065614
000310 aa 72 a8 bc ca f3 03 bd 06 4b 22 bd ca d8 7b ba
       -0.020562489 -0.032214917 -0.03962233 -0.0009607194
000320 18 f6 93 3a 60 ef 01 3d 50 c9 0e bc b9 e2 e4 3c
       0.0011288552 0.031722426 -0.008714989 0.027940141
000330 9a a7 ef bc b1 00 1d bb c9 78 46 3c f7 74 e0 3c
       -0.029254723 -0.002395671 0.012113758 0.027399523
000340 8d c6 2b 3c df 88 f2 3c 95 4b fb 3c 06 66 a3 bc
       0.01048435 0.02960628 0.030675689 -0.01994611
000350 7f b1 b6 bb 6f c5 0f bd cb d6 9a 3c d1 cb 2f 39
       -0.0055753584 -0.035100397 0.01890125 0.00016765228
000360 b0 12 2a bc bd ec 86 bc 53 74 0f 3b 10 e2 16 3b
       -0.010380432 -0.016470307 0.0021889403 0.0023022927
000370 8a a3 94 3b e2 05 11 ba 28 86 d9 b8 d7 03 5e bd
       0.004536097 -0.00055321876 -0.00010372355 -0.05420288
000380 3d 3d 0f bd 87 db 54 bd 17 0e 8f bb 2d c2 3d bc
       -0.03497051 -0.05196717 -0.0043656933 -0.01158194
000390 a8 b9 5d bc 80 6d 85 3c 5c 6a 22 bc b2 8a a9 bb
       -0.013533033 0.016287565 -0.009913053 -0.0051740045
0003a0 61 b5 81 3c 31 df 1f 3d 60 95 44 3a 02 b3 a6 bc
       0.015833559 0.03903121 0.0007499065 -0.02034903
0003b0 69 97 78 3c f0 17 d8 bc f2 8f e0 3c 15 ca c1 3c
       0.015172818 -0.026378602 0.027412388 0.02365593
0003c0 39 ac 4f bc 50 72 fe 3c 8b d1 45 3c 90 41 9a bc
       -0.012675338 0.031060368 0.012073885 -0.01883009
0003d0 c6 84 f0 3b 84 49 00 3d 66 4b 10 bd 01 2d 59 bc
       0.0073400466 0.03132011 -0.035228156 -0.013255359
0003e0 9b f7 5d bc 4a c1 d5 3b ab 73 d1 3c c3 c1 02 3d
       -0.013547803 0.006523286 0.02556785 0.031923067
0003f0 8c b8 d2 bc 57 16 ba bc fa 92 60 3b 69 5d 88 bb
       -0.025722764 -0.02271573 0.0034267292 -0.004161526

network_body.linear_encoder.seq_layers.0.bias f4 [128]
000000 be 7b 7a bc 1f 43 27 bb a1 4c 31 3c 03 c5 c3 bc
       -0.0152882915 -0.0025522185 0.010821492 -0.023897653
000010 d9 6e bd 3c 84 bf cc 3c 4d 02 dc 3c 35 79 48 bb
       0.023124145 0.024993666 0.026856566 -0.0030589823
000020 bd 86 ae 3c 58 ab 0d bb e8 88 17 3c 57 cd 08 bc
       0.021304483 -0.0021617021 0.00924895 -0.008349738
000030 36 bf 3f bc bd 81 2e bc 18 84 de 3c d6 17 22 3d
       -0.011703303 -0.010651049 0.027162597 0.039573513
000040 31 3f 91 bb 46 96 d2 3c e7 b9 f1 bb d8 9c a4 bc
       -0.004432582 0.025706422 -0.0073768976 -0.02009432
000050 43 f9 aa bb b0 d3 78 3b 9e c0 50 3b 14 f6 07 bc
       -0.0052177026 0.0037967972 0.003185309 -0.008298416
000060 74 db bb bb 89 9e 2a bb d7 53 38 bc ae 71 ed 3c
       -0.005732948 -0.0026034436 -0.011250458 0.02898487
000070 11 d5 a8 3b ea 86 08 3b c9 df 7f 3c 45 31 43 bb
       0.0051523526 0.0020832368 0.015617319 -0.0029784006
000080 33 34 f7 3c 07 98 2e 3b aa 53 98 bc 5f b7 f1 3b
       0.030176258 0.0026640908 -0.018594582 0.007376596
000090 d5 b3 07 3d 12 00 b8 3b 50 09 9f 3b fa df 05 3b
       0.033130486 0.0056152428 0.004853405 0.002042769
0000a0 70 96 39 3b 38 72 3f 3c 52 85 b9 bb ba 2a 3a bc
       0.0028318428 0.011684947 -0.005661645 -0.011362726
0000b0 e5 f8 ba 3b 8a b6 02 bc d0 77 c6 bc f5 9d c9 bb
       0.00570594 -0.007978091 -0.024227053 -0.006152863
0000c0 2f ef 93 3b b2 49 00 bc 10 75 a6 bc df 3e e4 3c
       0.004514597 -0.00783007 -0.020319492 0.02786201
0000d0 0e 99 c1 3b 49 e2 7e bb ca 8b e9 3b 5e ff d2 bb
       0.005908138 -0.00388922 0.00712726 -0.0064391335
0000e0 7d 11 1b bc 7e 68 9f 3c 8a 1e fa 3b d9 6d b5 bb
       -0.009464619 0.019459005 0.007633035 -0.0055367765
0000f0 cb 22 47 b9 9f 28 2a 3c a1 1e 4a bb a5 bf a0 3c
       -0.0001899108 0.010385661 -0.003084101 0.019622633
000100 9b 50 17 3c f4 de 33 3c 4d 80 aa bb 83 a6 ad bc
       0.009235526 0.010978449 -0.005203283 -0.021197563
000110 fb b6 8b bc 1f 8a 94 3c 66 5c e1 bb d7 d1 ec 3b
       -0.017055025 0.018132268 -0.00687747 0.0072271633
000120 56 46 3f 3b f8 fa 77 3c 94 04 21 bc 33 d5 08 3d
       0.002918621 0.015135519 -0.009827752 0.033406448
000130 d4 bb ff 3b 97 69 05 bd df 60 bf bc 8b 02 0b 3c
       0.0078043733 -0.0325714 -0.023361621 0.008484493
000140 38 11 83 39 c0 32 0e 3a 6d e8 0b bd d5 0e 43 3b
       0.00024999096 0.00054244325 -0.034157205 0.002976348
000150 f4 16 42 bb 2a ca 92 3c cc 5e 6d 3c e2 bb 85 bc
       -0.0029615732 0.017918665 0.014487933 -0.016324941
000160 0e 61 45 bc 69 f5 7c bc 8f 5b ab bc e8 ca 6c bc
       -0.012047065 -0.01543937 -0.020917682 -0.0144526735
000170 db a9 82 3b 97 35 0d bc 48 82 76 3b 57 d3 75 3c
       0.0039875335 -0.008618734 0.0037614275 0.015004001
000180 5f 68 c9 3c 91 4c 23 3b 89 68 c7 3b a1 9e 87 3c
       0.0245859 0.0024917463 0.0060854596 0.016555132
000190 f7 24 87 3c 23 62 a2 bc 45 86 7a bb 0e ad 69 bb
       0.016497118 -0.019822186 -0.0038227004 -0.0035656127
0001a0 df 40 df bb 00 f4 f9 bc bd 6d b8 3c f6 4b 9c 3b
       -0.006813153 -0.030511856 0.022513265 0.0047697974
0001b0 0d 9d 56 3c 1c 1b 62 bc 3a c2 85 bc 73 46 87 3b
       0.013098967 -0.013800409 -0.016327966 0.0041282712
0001c0 95 75 72 3c 39 f9 c2 3c 31 3a 42 bb 15 3e 0c 3c
       0.014798542 0.02380048 -0.0029636736 0.008559723
0001d0 c6 99 16 3c 49 31 10 3a 79 9d 26 bd 61 e8 88 bc
       0.009191936 0.0005500508 -0.04067752 -0.01671237
0001e0 a2 d5 cd 3c da 76 07 bd 23 0a 54 3b 2c 86 1d 3c
       0.025126282 -0.03307233 0.0032354675 0.009614509
0001f0 3c 6d 97 3a a4 63 22 bc 32 11 df ba 1d 51 ba bc
       0.001155294 -0.0099114515 -0.0017018674 -0.022743756

network_body.linear_encoder.seq_layers.0.weight f4 [128, 29]
000000 0e 0a 99 3d 45 a3 a8 be 1c 06 a6 bd 75 09 86 3e
       0.07472621 -0.32937065 -0.08106634 0.2617909
000010 7e ba 6b 3d df 8c 8c 3e 81 18 22 3c a5 b6 d8 3d
       0.0575509 0.27451226 0.0098935375 0.10581712
000020 53 9e 61 be 06 6a 79 3e 93 a3 27 be 26 25 cb bc
       -0.22033052 0.24356851 -0.16370992 -0.024797987
000030 b5 a2 33 3d 8b 39 58 bd 4b b5 a9 3d 2c 23 64 bd
       0.04385634 -0.052789252 0.08286532 -0.055697605
000040 c7 a8 a4 3c 63 06 cf 3d 93 94 11 3d c0 80 1b be
       0.02010001 0.1010864 0.035542082 -0.15185833
000050 e9 8a 3c 3e 85 fc 35 3e e9 ef a2 be 83 c3 25 bc
       0.18412365 0.1777211 -0.31823662 -0.010117414
000060 f6 32 e5 3d 92 c5 bf bc ed 10 c8 bd 48 9f fe 3a
       0.11191361 -0.023409639 -0.09768853 0.0019426132
000070 ee 5a 06 be 7c a8 05 be c6 14 02 be b0 9a a4 be
       -0.13120624 -0.13052553 -0.12703237 -0.32149267
000080 9c f2 8e bd ef db 7e 3c 66 b7 b0 bd 46 e1 14 3d
       -0.06979868 0.015555366 -0.086287305 0.03634765
000090 61 1d eb bd 34 30 10 be e8 fa 1b 3d 35 a7 49 be
       -0.11480213 -0.14080888 0.03808108 -0.1969269
0000a0 a1 22 2d 3e 0f 59 ae be e3 57 3e 3e 18 88 0a bd
       0.16907741 -0.3405232 0.18588214 -0.033821195
0000b0 5d b6 12 3e fd 15 8c bd 26 36 11 be e1 fc c5 be
       0.14327379 -0.068401314 -0.14180812 -0.38669494
0000c0 a5 1a 53 3c c5 50 96 3e 22 ff cd bd b1 ee 28 3e
       0.0128847705 0.29358497 -0.10058428 0.16497304
0000d0 7f ec 7d be a5 8e 0d bd af 74 d0 bd 19 a2 44 3e
       -0.24797247 -0.034559865 -0.10178506 0.1920246
0000e0 bd 07 e2 3d 2f 90 b0 bd cf 0d f2 3c e1 7d c0 3e
       0.11036632 -0.08621251 0.0295476 0.37596038
0000f0 0b 3c 61 bd 64 19 fc bd 12 9d 88 3d 43 e6 2b 3d
       -0.054988902 -0.123095304 0.06670584 0.04196764
000100 4c 8f e4 bd c5 41 47 3d a2 b8 e5 3d 0a 2e 7f bd
       -0.11160144 0.048646707 0.112168565 -0.062299766
000110 f5 a3 98 bd 6a 33 79 be 14 c2 95 3b 97 84 7c 3e
       -0.07453147 -0.24336019 0.004570255 0.24659954
000120 f0 4e e6 bc 37 b0 28 3b 0c 0d aa bd 30 29 5b 3b
       -0.028113812 0.0025739798 -0.0830327 0.0033441298
000130 8f b5 5d be b7 7c 8f bd 49 cd c2 bd cd 9a d7 bb
       -0.2165129 -0.07006209 -0.09511811 -0.006579733
000140 d9 52 04 bd 26 ed 56 bd ae 0e bf be f1 81 8f 3e
       -0.032305572 -0.052472256 -0.37315887 0.28028825
000150 f3 4f c4 3e 8c 65 64 3d e7 27 d8 3e f6 c7 27 ba
       0.38342246 0.055760905 0.42217943 -0.0006400341
000160 d1 3d f6 bd 94 1d 0e bd dc e1 ae bb ed 0d c7 3d
       -0.12023509 -0.034696177 -0.005336983 0.09719453
000170 95 ae 4c 3e b8 ca d6 bd 47 d0 04 3d ac e0 1e be
       0.19988473 -0.10487884 0.03242519 -0.15515393
000180 71 87 b1 bd 3d e0 81 bd e3 c4 3a bd 7f e8 05 be
       -0.086684115 -0.06341598 -0.045597922 -0.13076971
000190 a0 f2 ff 3d f0 46 1e be 4d aa 52 be 5b e2 c3 3d
       0.12497449 -0.15456748 -0.20572777 0.09564658
0001a0 56 9c 4f be 9b dd 2f be 6d 4a 8a bd 4f c6 8f 3d
       -0.20274481 -0.1717438 -0.06752477 0.07020246
0001b0 9f f8 86 be 60 ca 42 3e e2 c6 93 bd 62 51 0e be
       -0.26361558 0.19022512 -0.07215668 -0.13898233
0001c0 87 e5 bb bd 2e d8 73 be d3 a3 4a be 6b 6e 50 3c
       -0.09174638 -0.23812935 -0.19789056 0.012721638
0001d0 ab 65 a1 bd 68 70 8f be d6 00 ba be 23 cc 84 3d
       -0.0788072 -0.28015447 -0.36328763 0.064842485
0001e0 22 55 ae 3d 1e b0 38 be 70 00 2b 3e 5a 8b bf bd
       0.085123315 -0.18035933 0.16699386 -0.09352751
0001f0 4e 2b 7f bd 4c 5c 9d 3d 59 74 97 be 14 52 c2 bc
       -0.062297158 0.0768362 -0.29580954 -0.023720779
000200 bb 55 66 3c 4e 4b 82 be a7 67 8b 3d e5 8d 60 bd
       0.014058526 -0.25448078 0.068068795 -0.05482282
000210 08 8a 01 be c2 dd c8 3d 04 45 1a 3e d3 12 a6 3d
       -0.12650311 0.09807922 0.1506539 0.08109059
000220 e4 6f 4c be 68 64 db b9 ee 63 85 be 4c 58 29 be
       -0.19964558 -0.00041845744 -0.26052803 -0.16537589
000230 0d bc 0e be 6e 5a eb bd 6a 7e 80 3e 18 62 69 3e
       -0.13938923 -0.114918575 0.25096446 0.22791326
000240 68 08 f0 be 16 7a 29 bd 51 f4 dd 3e 97 75 c8 bd
       -0.46881413 -0.041376196 0.4335046 -0.097880535
000250 f4 d0 6d be 4b 11 c2 bd 8c 3b 56 bd 88 5d ce 3c
       -0.2322424 -0.094759546 -0.052302882 0.025191084
000260 84 74 c6 bd 4c e4 44 be 51 71 47 3e 0f 1a ce 3e
       -0.09690192 -0.19227713 0.1947682 0.40254256
000270 e2 b9 c0 3b ae 09 14 be db d9 26 be 08 ad 0f 3e
       0.005881534 -0.14456818 -0.16294043 0.1403085
000280 80 e8 be 3d 65 58 a0 3d 93 9b 2f bc 12 35 27 bc
       0.093216896 0.0782936 -0.010718244 -0.010205524
000290 8f 66 c3 bd 99 32 6c be e3 6b 20 3e 5c cf 46 3e
       -0.09541046 -0.23066176 0.15666156 0.19415039
0002a0 1e 9a c7 3d 4c 8b a5 3e ce 94 54 bd f3 27 37 3e
       0.097461924 0.32332838 -0.051899724 0.17886333
0002b0 84 7f 93 bd a4 59 2e be 44 2b 57 bc 7b b8 49 3e
       -0.07202056 -0.17026383 -0.013132874 0.1969928
0002c0 47 93 f2 be 88 be 71 bd 5c c1 ee 3e 74 a6 a7 bd
       -0.4737799 -0.059019595 0.46631896 -0.08186045
0002d0 47 3b a0 be 75 c9 bf bd f2 a8 22 3e 08 51 82 3e
       -0.31295225 -0.09364597 0.1588476 0.25452447
0002e0 96 c9 71 3d 89 fe e4 3d 9b 22 3b be a9 5f f1 bd
       0.059030138 0.11181361 -0.1827492 -0.11785824
0002f0 b0 36 9a ba 82 07 0e be 1f 3d da 3d a1 d3 77 3b
       -0.0011765566 -0.13870052 0.10656189 0.003781535
000300 29 a7 9e be d3 70 af bd da 03 fd bb d6 d9 23 be
       -0.30986908 -0.085664414 -0.0077214064 -0.16001067
000310 2c ae 72 3d ce 42 17 3e 4a 4e ee 3d 90 c2 b4 3d
       0.059248134 0.14771578 0.11636026 0.08826172
000320 a7 06 aa 3e 13 3f ad 3c 4a e3 3b 3e a8 2e 9e bc
       0.332082 0.02114824 0.18348423 -0.019309357
000330 7a d0 13 3e 5c ab 7f bd 7e 0c 1c be fb 14 a0 be
       0.14434996 -0.06241928 -0.1523914 -0.31266007
000340 ab b4 d4 be af 5a e0 be e3 49 92 bd 10 d0 2f 3c
       -0.4154409 -0.43819186 -0.07142999 0.010730758
000350 f5 35 ac be ab 0e e7 bc d4 b6 b5 bc 84 3d b9 3e
       -0.33634916 -0.028205236 -0.022181906 0.36179745
000360 b0 9f 80 3d 41 4b 66 be 8d 95 92 3d 41 eb 21 be
       0.06280458 -0.22489645 0.07157431 -0.15812398
000370 67 2f 10 3e cd 35 6b 3d db 92 0f bd 49 59 22 be
       0.14080583 0.057424355 -0.03505216 -0.15854372
000380 bc 4f 98 bc a6 bb 8c 3c 14 2b 82 be f0 0d e2 3c
       -0.018592708 0.017179321 -0.2542349 0.027594537
000390 e7 c8 c7 bd d7 d8 a0 be 3e 9c 49 3e 08 93 cf bd
       -0.09755116 -0.31415436 0.19688508 -0.10135466
0003a0 c5 d0 a5 bd 3b 1c 39 3d 7a 84 0b be 77 89 01 3d
       -0.0809646 0.04519294 -0.13624755 0.031625237
0003b0 99 3c a5 3d cd 31 4c bd 13 16 e6 bc 90 23 07 3e
       0.08068199 -0.04985218 -0.028086698 0.1319716
0003c0 a3 d3 fd 3d f3 d2 d2 3d 70 fb 58 3b 00 1f 5b be
       0.12393882 0.102941416 0.0033108853 -0.21398544
0003d0 3e f1 a6 3e 52 04 3f 3c ac 9f 46 3e 47 96 dd 3d
       0.32605928 0.011658745 0.19396847 0.10819679
0003e0 d0 cf f3 bd e1 96 d1 be 10 57 64 3e 07 96 78 be
       -0.119048715 -0.40935424 0.22298837 -0.24275981
0003f0 01 35 66 be a2 a4 74 be 74 42 21 be 5c 99 24 bc
       -0.22481157 -0.23890927 -0.15748006 -0.010046329

network_body.linear_encoder.seq_layers.2.bias f4 [128]
000000 f0 df c7 bb b8 21 92 bc 4a 1b 9f 3b 9f 54 3e bc
       -0.0060996935 -0.017838344 0.004855548 -0.011616855
000010 37 17 63 bb 16 f6 96 3a 2a 1e 34 bc 92 ae 35 3c
       -0.0034651288 0.0011517431 -0.01099352 0.011088984
000020 57 ad 0c 3c 61 b9 88 3a 93 97 3f ba 72 18 a5 bb
       0.008586249 0.0010431224 -0.0007308658 -0.0050383145
000030 1f 3f b6 bc ea e6 fb 3a e2 c9 e3 bc a8 84 bf 3b
       -0.022246895 0.0019218598 -0.027806226 0.0058446713
000040 2b 9e 7b bb 27 7b 37 bc c1 7c 1d bc 10 5f 10 bc
       -0.0038393836 -0.011198795 -0.009612263 -0.008811727
000050 b4 04 92 bc c6 15 e5 ba e8 3b 69 3b ea 68 c4 bc
       -0.017824508 -0.0017477802 0.0035588685 -0.023975808
000060 bb b0 88 3b ea 6e c6 bb f2 14 58 bc e9 9a 0b bc
       0.0041714585 -0.0060557025 -0.0131885875 -0.00852082
000070 f2 27 34 3c db 35 92 3b cd 2c 59 bc 06 dd 4e 3c
       0.010995852 0.0044619865 -0.01325531 0.012625938
000080 7a 79 d4 bc a2 79 bf bc 53 74 38 3c 37 f8 4f bc
       -0.02593683 -0.023373429 0.011258203 -0.012693456
000090 b9 c2 04 bc fc f7 a0 bc 4f f5 e7 bb a1 05 de bb
       -0.008103066 -0.019649498 -0.0070788036 -0.0067755734
0000a0 cc f1 e4 3b fb cd 05 bb 75 40 37 bb 21 af ba 3c
       0.0069868322 -0.0020416963 -0.0027962003 0.022788586
0000b0 c9 4a e4 ba ff 15 76 bc 96 5b 4e ba 6e fe ff bb
       -0.0017417307 -0.015019893 -0.0007871924 -0.007812313
0000c0 af ae 76 3c 84 43 33 bc 99 ec 87 bc ec c9 86 bb
       0.015056296 -0.01094139 -0.01659231 -0.0041134264
0000d0 57 b7 a5 bc 88 28 dd ba b8 1e 91 bb 3e 63 9d ba
       -0.020229025 -0.0016873041 -0.004428711 -0.0012007726
0000e0 dd 33 2e bc 4b 5f 6f bc 8f 03 72 bb 25 41 79 3c
       -0.010632482 -0.014610122 -0.003692839 0.015213286
0000f0 cf f8 0c 3c 22 2d 5f bc 1a c5 8c bc 20 75 ec 3b
       0.0086042425 -0.0136216 -0.01718383 0.007216111
000100 cc 03 5c 3b bb 19 e2 bb dd 98 15 bc 66 11 1a bc
       0.00335716 -0.00690004 -0.009130684 -0.009403562
000110 cb 6e 3f bb 5c d6 ec ba 17 c4 24 3c 90 bb cb bc
       -0.0029210325 -0.0018069255 0.010056517 -0.02486971
000120 eb 5d a0 3b 9e 16 f2 3b 74 d7 c0 bb fc 8c 2b bb
       0.0048940084 0.00738795 -0.005885059 -0.0026176563
000130 9f 95 2e bc fe 2d 8b 3b 0d 4f 00 3d 32 dc b7 bb
       -0.01065579 0.004247426 0.03132539 -0.005610966
000140 16 6d d5 3b d8 fb 06 bc b5 cc 9d ba ec 77 b3 b9
       0.006513248 -0.008238755 -0.0012039157 -0.0003423089
000150 71 62 03 3c 84 15 67 3c 6b 9e 05 bc 39 fb 44 bc
       0.008019076 0.014104251 -0.008155446 -0.012022787
000160 cd 77 d0 bc 20 aa c9 ba 60 f8 39 3c 4b ba 01 3a
       -0.02544775 -0.0015385784 0.011350721 0.0004948719
000170 22 c4 88 bc 65 aa a8 bb 8f ce 8e bc 0a c5 63 bb
       -0.016695086 -0.0051472657 -0.01743248 -0.0034754896
000180 16 b6 6f 3c 44 97 0c 3c 7e 02 cb bc 4b 7d c3 3b
       0.014630815 0.008580986 -0.024781462 0.005965864
000190 46 13 15 3b fb 21 a2 3b ec bc 1f bc 9f 3d 5d ba
       0.0022747084 0.0049478984 -0.009749632 -0.0008439663
0001a0 b8 41 bf 3b 6d 9d 1e bb 6b d8 5d bc 30 e1 4b bc
       0.0058366917 -0.002420272 -0.013540368 -0.012443826
0001b0 bf ab a5 bc ea 55 26 bb 8b 46 c8 3b 8e df 1b 3b
       -0.020223496 -0.0025380799 0.006111925 0.0023784372
0001c0 7a 74 c2 ba 65 9f 4a bc 37 87 a6 3c 4c 59 6f 3c
       -0.0014835738 -0.012367104 0.020328147 0.014608692
0001d0 51 9a 98 bc 45 be 81 3b c0 83 47 3c 4e 1a 57 3c
       -0.018628271 0.0039594495 0.012177408 0.01312883
0001e0 ee e5 1f bc 8a f0 64 bc 4b 7f 88 bb 95 97 09 3b
       -0.009759409 -0.013973365 -0.004165565 0.002099489
0001f0 d6 88 a1 bc a9 75 ae 3a e8 62 cc bb 31 6c b1 bc
       -0.019718569 0.0013310212 -0.0062373765 -0.021658035

network_body.linear_encoder.seq_layers.2.weight f4 [128, 128]
000000 26 77 c0 bd b9 78 ad 3d 30 24 9b bc 10 3c 99 bd
       -0.09397726 0.08470292 -0.018938154 -0.07482159
000010 a3 53 88 3c 8a 34 d3 bd 8c 2d fa bc 72 fc cf bc
       0.016641444 -0.103127554 -0.030539297 -0.02538893
000020 2a 78 74 bd dd 75 93 3d 31 3b 4a bd 04 27 28 be
       -0.05968491 0.07200215 -0.049372856 -0.16421133
000030 e4 61 59 bd d2 41 3b be 01 2a 7a 3d 7b d4 85 bc
       -0.05307187 -0.18286827 0.061075214 -0.01633667
000040 7b 3f 60 bd a6 64 1c bd 99 cd 57 bd 0e 40 99 3d
       -0.05474804 -0.038181923 -0.052686308 0.074829206
000050 a9 a4 35 be a3 c8 19 3d e3 f6 fd 3d 7c 5f e7 3d
       -0.17738594 0.037544858 0.124006055 0.11297509
000060 b3 02 09 be e4 6c 75 3d c9 83 47 be 75 0d 25 3d
       -0.13379936 0.0599183 -0.19483866 0.040296037
000070 32 70 d5 bd 1e 63 c3 bd ef 93 a6 bd 7b 3f c5 bd
       -0.1042179 -0.095403895 -0.08133685 -0.096312486
000080 f8 ce 2c bc 2d d6 77 3d d4 98 d3 3d 2f e0 30 3d
       -0.010547392 0.06050699 0.10331884 0.043182548
000090 a9 d0 4e be fa 72 e9 bd cd ec 1a 3b df e2 df bd
       -0.20196785 -0.11398883 0.002363968 -0.10931944
0000a0 19 76 e7 3b b5 63 06 3d a4 70 a3 bd da 94 ab bb
       0.007063639 0.03280993 -0.07980469 -0.0052362503
0000b0 4c b0 03 be 68 b4 14 3c 99 f4 4d bc 6c f9 1e 3d
       -0.1286022 0.009076215 -0.012570524 0.038812086
0000c0 cb 05 93 bd 00 67 13 bd 93 0b 6b bd 8b af ff 3c
       -0.07178839 -0.0359869 -0.057384085 0.031211635
0000d0 28 85 a8 bd e4 8c c4 bd 37 1e a9 3c a0 ba 87 3d
       -0.082285225 -0.09597185 0.02064429 0.06627393
0000e0 1a 94 56 3d 45 40 e3 3b 81 48 38 3d 5d 2f de 3d
       0.052387334 0.0069351518 0.04499102 0.108488776
0000f0 07 e1 48 3e 99 da 16 bd bf 6a 5a bb 35 69 16 bd
       0.19617091 -0.036829565 -0.0033327786 -0.036721427
000100 a1 cf 40 3e 2a 27 0d 3e 67 e4 a1 bd 7e 52 9c bd
       0.18829204 0.13784471 -0.079048924 -0.07632922
000110 ab 4f d5 3d 19 fa 03 bd 19 a9 13 be d9 f6 4b 3d
       0.10415586 -0.032220934 -0.14419974 0.04979596
000120 3f 18 9f bd 57 95 33 3e 2f c6 56 3e 63 23 2e bc
       -0.077682965 0.17537437 0.20974039 -0.010628554
000130 43 ca ed 3c cd 44 d1 3d 62 af a3 bb 57 55 90 3c
       0.02902711 0.10218201 -0.0049952725 0.017618818
000140 67 ee d0 bd 1e 9c ec bb de b4 34 3e bc 0f 63 3d
       -0.10201722 -0.007220759 0.1764712 0.055434927
000150 4e 76 6c 3c 90 c1 93 bc 9c ac 18 3d 9b 63 96 3d
       0.014432503 -0.018036634 0.037273988 0.07343217
000160 cc 89 df 3d b8 99 ea bd 43 a6 ef 3a bd e6 96 3c
       0.109149545 -0.11455101 0.0018283803 0.018420571
000170 8e 67 5f bd 9b 91 cd bc 3c 31 4f 3c d2 63 ce bd
       -0.054542117 -0.025093844 0.012646016 -0.10077633
000180 28 fb be bd 72 45 fa 3c fe 23 a9 bc 2f 84 21 be
       -0.09325248 0.030550692 -0.020647045 -0.1577308
000190 e7 df e1 bd b1 f9 71 3d 2d d4 82 bd a3 3c 1d be
       -0.11029034 0.059076015 -0.063881256 -0.15355162
0001a0 a6 07 f0 3c f7 a5 56 bd f3 38 ed bd ca e5 13 bd
       0.029300522 -0.05240437 -0.11583128 -0.036107816
0001b0 84 ba 8a 3d 43 a7 1a bc e5 65 d7 bd 66 37 f5 bc
       0.06773856 -0.009439292 -0.10517482 -0.029933643
0001c0 2c 89 a9 bd 58 4f 38 bd 5a 4f b7 3c 2f 0b 4a bd
       -0.082781166 -0.044997543 0.022376705 -0.04932707
0001d0 d3 08 d4 bd 3b c6 3b 3d f7 8a f2 3d 75 6d 4f bd
       -0.103532456 0.045843344 0.11842912 -0.050641496
0001e0 c4 99 01 3d 54 ea 18 be 5a b4 61 3d 3f 51 ac 3c
       0.031640783 -0.14933139 0.055103637 0.021034835
0001f0 e8 3d 08 be 07 45 3d be e3 82 c2 3d d3 bf d7 bc
       -0.13304865 -0.18483363 0.09497621 -0.026336586
000200 ba 0a 5b 3d 8a 90 a5 bd 25 6f b1 3d f1 68 02 be
       0.053477027 -0.08084209 0.08663777 -0.12735344
000210 ae e6 77 3d d6 ab 95 bc 2b 3e a2 3d 59 95 88 3c
       0.060522728 -0.018270414 0.07922014 0.016672777
000220 5e 8c 51 bd fb e8 fd 3c a7 0d 74 3d ea 1a a4 bc
       -0.051159255 0.030994883 0.059583332 -0.020032365
000230 d0 a6 f4 bb bc 68 f0 bd 6b b4 c8 bb d1 6a 12 be
       -0.0074661747 -0.117387265 -0.006125023 -0.1429856
000240 9e a2 a7 bd 6b 60 7c bd 2a 64 ec 3b 08 e3 19 be
       -0.08185314 -0.06161539 0.007214089 -0.15028012
000250 7e 63 1e 3e ae 07 e9 3d c6 7f 43 bd d3 07 06 3e
       0.15467641 0.11378418 -0.047729276 0.13088922
000260 52 60 a3 bc e2 ba 37 bd f9 3f 9d bd 96 e0 7a 39
       -0.01994339 -0.04485596 -0.076782174 0.00023925523
000270 c6 1c c7 bc ea 41 56 bc 47 d0 5e 3d 6a 72 09 3d
       -0.024305712 -0.013077239 0.054397848 0.03355638
000280 e5 64 70 be 93 e8 0d 3d 7c 8e ec bc 27 fd dd bd
       -0.23475988 0.03464563 -0.028876536 -0.108393006
000290 34 b9 1d be 0d 08 44 be f7 d4 d1 3d f0 f1 1b be
       -0.1540268 -0.19143696 0.10245698 -0.1522901
0002a0 18 47 98 3d ec 6d c4 ba 62 b9 8b 3d b6 6d 77 bc
       0.07435435 -0.0014986373 0.06822468 -0.015101841
0002b0 8d c8 ed 3d 59 e2 36 3e 79 02 64 3d 6b f9 10 be
       0.11610518 0.17859782 0.05566642 -0.14157645
0002c0 fb af d9 3c 6b 61 5b bd 2b 20 9d 3d 3a 5d 85 bd
       0.026573172 -0.053559702 0.07672151 -0.06511922
0002d0 d2 94 a3 bd 31 8b b3 3d 3a 0c 4a 3b 87 08 3c 3d
       -0.079873696 0.08766783 0.0030830042 0.04590657
0002e0 20 db 1f be 19 40 3b 3d 57 8a 9b 3d 6c e3 2f 3e
       -0.15610933 0.045715425 0.075947456 0.17176598
0002f0 49 09 dc 3d 8a 0f a3 3d 51 d3 0b 3d 9e 8a 1f 3e
       0.107439585 0.07961948 0.034137074 0.15580222
000300 df 49 9c 3b c1 7f 20 3e ca ef 2f 3e 10 a8 c0 bd
       0.0047695483 0.15673734 0.17181316 -0.094070554
000310 ce a6 8c bd 5b 89 0e bd 53 be e0 3c 76 3e 82 bd
       -0.06867753 -0.03479896 0.027434504 -0.0635957
000320 98 d0 0b 3d 24 ba 1c 3e ae 7b 95 3d f2 8a a4 3c
       0.034134477 0.15305382 0.07298981 0.020085786
000330 fe d6 3b 3e fd a4 53 3d cc a6 ca 3d 00 86 d5 3d
       0.18343732 0.051671017 0.09895095 0.10425949
000340 cd a6 c4 bd 69 fd 5f bd fa 26 0c 3c 62 e9 e1 3d
       -0.09602127 -0.05468503 0.008554215 0.11030842
000350 0d f7 40 3c 0b 00 e4 3c 21 38 f7 3a 3a ea 85 3d
       0.0117776515 0.027832052 0.0018861332 0.06538816
000360 83 7f 06 bd 96 05 a6 bd 02 c9 fa 3d 12 90 10 be
       -0.03283645 -0.08106534 0.122453704 -0.14117458
000370 5b f7 c4 bc 0e a1 84 bd c5 d6 35 3d 00 30 bb bd
       -0.02404373 -0.06476031 0.044394273 -0.09140015
000380 e5 6a c4 37 eb f3 4e 3e 91 64 38 bc be 05 3c bd
       2.3414797e-05 0.20210235 -0.011254446 -0.045903914
000390 15 d6 63 3c 91 9b b4 3d 8f 5e 1c 3e 31 d8 e7 3c
       0.013906022 0.088187344 0.15270446 0.02830133
0003a0 15 dd d8 bc b4 73 ea 3d bf 6c f7 3d a6 f0 6f bd
       -0.026472608 0.1144785 0.120812885 -0.05857911
0003b0 81 41 ab bd b5 87 8a 3d 3c 2d c3 bd cb 18 fb 3b
       -0.08362103 0.06764165 -0.09530112 0.0076628677
0003c0 0f 09 1e be 16 c8 d1 3d ba 17 1d 3e 83 ab 2f 3c
       -0.15433143 0.102432415 0.15341082 0.010722044
0003d0 26 55 d5 bd fe 65 a2 bc 35 20 b2 bd 0e 5c 8b bd
       -0.104166314 -0.019824024 -0.08697549 -0.068046674
0003e0 20 23 2f be 5e 6f 07 be 12 64 23 3d e6 65 11 3d
       -0.17103243 -0.13226077 0.039890356 0.03549757
0003f0 14 9f ee bc a7 2e be bc e2 ec 86 bd c2 7a 03 3e
       -0.029128589 -0.023215605 -0.065881506 0.12839797

network_body.vector_processors.0.normalizer.running_mean f4 [29]
000000 a7 3b 21 3f c2 30 f6 3d 09 03 74 3d 6e d1 7e 3c
       0.6298165 0.120210186 0.059573207 0.015552862
000010 e1 cd 06 3f ad ff 1b 3f dc 81 0e 3e 2a 3b b9 3d
       0.52657896 0.60937005 0.13916725 0.09044488
000020 66 d4 0c 3b 0f 1b 06 3f 63 b1 b1 3e b1 ab 8e 3e
       0.0021488904 0.5238504 0.34705648 0.27865365
000030 6e 64 b3 3d e0 33 2c 3c 82 11 13 3f 61 8b 9a 3e
       0.0875939 0.010510415 0.5744859 0.30184463
000040 9c 74 b7 3e 70 5f be 3d e4 84 d9 3a c9 36 12 3f
       0.35831153 0.09295547 0.0016595391 0.57114846
000050 61 8b 9a 3e 9c 74 b7 3e 70 5f be 3d e4 84 d9 3a
       0.30184463 0.35831153 0.09295547 0.0016595391
000060 c9 36 12 3f a5 a6 d4 41 b6 22 a6 41 42 ad 3d 3c
       0.57114846 26.58137 20.766949 0.011576952
000070 4e 7e 1c 3a
       0.00059697486
