Assets/Models/Scena3/18Gen/iRobot 1.onnx (onnx, 88018 bytes, 10 tensors)

74 f4 [29]
000000 06 38 f3 3e a2 b6 e3 3e c3 6d 75 3e 35 de d3 3d
       0.4750368 0.44475275 0.23967652 0.10345117
000010 33 15 de 3d 7f a7 e7 3e c5 91 c9 3e 3a 87 91 3e
       0.10843887 0.45244977 0.39369026 0.28423482
000020 cb 89 a8 3d 6d d7 b8 3d 7d 80 e2 3e e2 18 c8 3e
       0.08229407 0.09025464 0.44238654 0.39081484
000030 98 e2 6c 3e f9 7e be 3d 65 3f c9 3d 20 4e ea 3e
       0.23133314 0.09301562 0.09826545 0.4576273
000040 57 a4 dd 3e b2 e7 3c 3e 8b 85 bb 3d 40 bc c4 3d
       0.43289444 0.1844776 0.09156331 0.09606218
000050 20 4e ea 3e 57 a4 dd 3e b2 e7 3c 3e 8b 85 bb 3d
       0.4576273 0.43289444 0.1844776 0.09156331
000060 40 bc c4 3d 4d 8b 01 42 95 b8 68 41 df a5 6a 40
       0.09606218 32.386036 14.545064 3.666374
000070 ad ff 63 40
       3.5624802

action_model._discrete_distribution.branches.0.bias f4 [3]
000000 00 00 00 00 00 00 00 00 00 00 00 00
       0.0 0.0 0.0

action_model._discrete_distribution.branches.0.weight f4 [3, 128]
000000 db 13 e8 3b 9f 59 f9 bc 47 fe 62 ba eb 9a 10 3b
       0.007082445 -0.030438242 -0.0008659106 0.0022064995
000010 9d 9b 4f bb d7 5c dd bb 03 72 5d 3c 6d 72 51 bb
       -0.0031678446 -0.006755452 0.013515952 -0.0031959072
000020 fb 69 3a bc f0 ec e6 3b c7 c6 a2 3c 4a 61 b2 bb
       -0.011377807 0.007047288 0.019870175 -0.0054437267
000030 ac 1a 87 bb 0f bf 29 3b bb 09 c9 bb d9 2f 11 ba
       -0.0041230526 0.0025901233 -0.006135193 -0.0005538441
000040 51 96 9e 3b 95 d3 55 3a 66 00 4b ba d1 74 41 bc
       0.0048396965 0.00081568334 -0.0007743895 -0.011807636
000050 8a 62 d7 bb cd 16 51 3c 1f 55 56 bc 61 e1 b7 3b
       -0.006573026 0.012761784 -0.013081818 0.005611584
000060 8f 13 24 3b c5 39 ef 39 17 6e 18 bc 8c e0 2f 3c
       0.0025036072 0.00045628674 -0.009303591 0.0107346885
000070 60 db 10 bc eb 03 4d 3c 43 13 80 3a 33 3f 10 3b
       -0.008841366 0.012513141 0.0009771365 0.0022010326
000080 1b a8 34 bc 9f 82 a7 3b 92 e0 48 bc dd 93 e9 3b
       -0.011026408 0.005112007 -0.012260573 0.0071282224
000090 c6 86 b7 39 88 4c dd 3b d9 8f 3f 3c 1d f6 a6 3b
       0.00035004894 0.006753508 0.011692011 0.005095257
0000a0 5b 2f 86 3c f0 f7 35 3c c5 2f e4 3b f7 87 4d bc
       0.016380003 0.011106476 0.0069637024 -0.012544624
0000b0 c3 18 61 ba 02 6c 46 3b 37 67 87 3c d6 a5 c3 ba
       -0.00085867586 0.003027678 0.016528709 -0.0014926742
0000c0 02 6b 92 3b 4d bb 5d 3c a7 c9 d6 b9 70 f4 e7 bb
       0.0044683227 0.0135334255 -0.00040967503 -0.0070787
0000d0 aa 8d df ba 02 6f bf ba 67 5b cf bb 39 17 04 3c
       -0.0017055769 -0.0014605226 -0.0063280347 0.008062177
0000e0 fa 74 6e bc 78 b3 24 3c cf 30 96 3b b5 aa 4f bb
       -0.014554257 0.010052554 0.004583455 -0.0031687443
0000f0 9b 1b c9 bb 7f 9d 21 bc ee 62 04 bb 85 56 2e bc
       -0.006137324 -0.00986421 -0.0020200568 -0.010640745
000100 ea a0 27 3c b1 ae 16 3c a8 e0 a9 bb 2f 5b 96 bb
       0.010231236 0.009196923 -0.005184252 -0.0045885067
000110 32 9e c8 3b 7d 82 66 3b 22 9b 55 bc 8d 02 18 3b
       0.006122374 0.0035172992 -0.013037475 0.002319488
000120 53 63 f2 bb 6f 45 af 3b 57 52 b4 3b 8b 83 6d 3b
       -0.0073970943 0.0053488533 0.0055029797 0.0036241736
000130 1e 7a 2c bb c8 fe 33 bc 7b bc 81 3b b2 53 ee bb
       -0.0026317905 -0.010986038 0.003959236 -0.007273161
000140 5b ff 00 3a 1f 77 4b 3b e7 25 47 3b 3c 06 1c 3c
       0.00049208634 0.0031046344 0.0030387582 0.009522971
000150 a2 17 95 bc 7a 6d ec bb d5 8a b1 3b 45 29 0d bc
       -0.018199746 -0.007215199 0.0054181614 -0.008615796
000160 a9 5a 17 bb e8 92 f0 bb 6f 55 40 3b 23 ca 83 bb
       -0.002309481 -0.0073417313 0.0029347797 -0.0040218993
000170 b4 4e 28 bc 30 bc 1f bc 4e 3d 23 bc 0f 39 79 3a
       -0.010272671 -0.009749457 -0.009963347 0.00095070986
000180 71 3b a9 3c c7 82 69 bb 6b 8d 88 bb a8 83 98 bb
       0.020658227 -0.0035630928 -0.004167249 -0.0046543665
000190 de ed 88 3c ef 65 9e 3b b8 40 84 3a dc 3e 9e bc
       0.016714986 0.004833929 0.0010090088 -0.019317083
0001a0 b5 9b 0f 3c 23 65 96 bb 70 ac 68 3c 95 57 76 3b
       0.008765151 -0.004589693 0.014201269 0.0037588824
0001b0 c3 d6 32 bb 98 0a 18 bc 2b 97 8c bb 8c 5f 1a bc
       -0.0027288652 -0.0092798695 -0.0042904816 -0.009422194
0001c0 52 b9 26 bc b7 07 21 3c a7 ef a3 3c 03 c9 77 39
       -0.01017602 0.0098284995 0.020011736 0.00023630638
0001d0 31 88 ac bb 8d 25 91 39 25 fb 37 3c 77 ca 5d bb
       -0.0052652587 0.00027684533 0.011229311 -0.0033842602
0001e0 ad 04 84 bb f4 f8 89 3c 3b 12 7b bc 41 76 32 3c
       -0.0040288777 0.016842343 -0.015324171 0.010892452
0001f0 6d 95 d6 3a f3 ad 14 bc c3 54 00 bc c8 1b 19 bc
       0.0016371437 -0.009074676 -0.007832709 -0.0093450025
000200 57 34 03 bc b2 d2 90 bb 53 59 9f bc 4a d2 61 3b
       -0.008008084 -0.004419648 -0.019451773 0.0034457617
000210 4b 30 85 3a b2 e9 1c 3a f3 7a 30 bc 65 81 c0 bb
       0.0010161487 0.0005985751 -0.010771501 -0.0058748
000220 c0 c4 bd bb 57 76 1b 3c 20 97 a5 3b 33 c1 28 3c
       -0.0057912767 0.009488664 0.005053416 0.0102999685
000230 3f 07 95 3c 25 94 93 ba fa b0 72 bb d6 5d 41 bc
       0.018191932 -0.001125936 -0.0037031756 -0.011802157
000240 0f 95 de 3b f5 8c 69 3c bd 27 69 3c 4e 00 85 ba
       0.0067926715 0.014254798 0.014230666 -0.0010147186
000250 8a ce 51 bc e1 42 26 3c 44 2d b9 3b 77 5c 16 3c
       -0.01280559 0.010147781 0.005651148 0.009177319
000260 6f c3 7b bc 82 9b 29 bc ca bf a7 3a 17 86 1c bc
       -0.015366419 -0.010352017 0.0012798246 -0.009553454
000270 25 2a f1 bb f3 ec 54 bc 27 04 aa 3c bf ea 99 3b
       -0.0073597603 -0.012995946 0.020753933 0.0046971734
000280 4d 4a e2 3b ab 54 39 3c f7 4d 57 bc a5 7e 58 bc
       0.00690583 0.01131169 -0.013141147 -0.013213788
000290 fd 04 0c 3c 6a 09 fd 3b f8 a0 d8 bb fc b0 19 3c
       0.008546111 0.0077220695 -0.006610986 0.009380575
0002a0 92 35 75 bc 13 15 34 bc 60 0f 59 bb 0f 1f f3 3a
       -0.014966385 -0.010991353 -0.0033120736 0.0018548685
0002b0 68 98 4e 3c d7 5e 8e 39 3b e7 7a b9 22 e0 2b bc
       0.012609579 0.00027155012 -0.00023927998 -0.010490449
0002c0 7a 7f 7f bb 4f 79 ee ba fd 72 02 bc 2a 66 d1 3b
       -0.0038985894 -0.0018194112 -0.007961986 0.0063903527
0002d0 47 56 5c 3b fc 7c 02 bc 16 41 af bb 8b 59 92 bc
       0.0033620761 -0.007964369 -0.005348335 -0.017864963
0002e0 72 bf 08 3c ee ad 06 bb 8b 2f f9 3b ad f8 eb bb
       0.008346425 -0.0020550448 0.0076045445 -0.0072012753
0002f0 dd ae 0c bb b2 d2 5e b8 a2 96 b6 bb c2 0a 89 39
       -0.0021466531 -5.312515e-05 -0.005572156 0.00026138691
000300 ef f8 55 3c c2 14 7d 3b 67 12 75 3c cb 01 d0 3a
       0.013059839 0.003861711 0.014958001 0.0015869675
000310 7b f4 4e 3b 6e db c6 b9 32 c2 eb bb 59 bb c9 bb
       0.0031578827 -0.0003792899 -0.0071947807 -0.006156367
000320 8f 88 22 3c e3 93 93 bb 83 ce 50 3b 4a c3 7e 3c
       0.009920253 -0.0045037135 0.0031861372 0.01554949
000330 0b 47 5e bb eb d4 2c bc b2 45 81 bc b4 f1 a9 3c
       -0.0033916857 -0.0105488105 -0.015780304 0.020745136
000340 d5 db f0 ba 3b 3e 76 3b b5 95 d2 3a 2b fe 39 3c
       -0.0018376062 0.0037573713 0.0016066345 0.011352102
000350 1a d4 c4 ba 1c 40 23 3c 8a 15 98 bc a5 f6 4e bc
       -0.0015016824 0.009964015 -0.018564958 -0.012632047
000360 b7 82 f6 3a a7 03 1c bc 2a 73 b9 3b 75 be 18 3c
       0.0018807267 -0.009522355 0.0056594806 0.009322752
000370 94 b1 1f 3c d7 5a 59 3c cd 42 9a bc 1f c5 5c 3c
       0.009746928 0.013266287 -0.018830681 0.013474732
000380 f5 45 9d bb 6c 4a 3f bc 3f 3c d7 3b af a3 17 bc
       -0.0047995993 -0.011675458 0.006568461 -0.009255334
000390 eb 92 16 bc f8 0d f8 bb 81 c0 28 bc da 26 4e 3b
       -0.009190301 -0.0075700246 -0.010299803 0.0031456263
0003a0 8f 5e 65 3b d5 21 66 bc a0 8f 5a 3b 87 15 de 3a
       0.0034998988 -0.014046152 0.0033349767 0.0016943672
0003b0 5b 9d 20 3c a0 ed ee bb c3 6b 79 3c 02 1f 67 3c
       0.0098031415 -0.0072915107 0.015223446 0.014106514
0003c0 55 85 f8 bb a5 a2 67 3a 03 e7 65 3b 50 3f 25 bb
       -0.007584254 0.00088361866 0.003508032 -0.002521474
0003d0 dd f0 be bb 1a c6 c5 bb 27 1b 43 3a 36 8f 32 3c
       -0.005827053 -0.0060355784 0.00074427057 0.010898402
0003e0 c9 da a7 3b 2a a1 f1 3b 25 68 e1 3b 5b 72 8a 3b
       0.005122517 0.0073739486 0.00687887 0.004225058
0003f0 63 cd f9 bb 32 b4 02 bc b5 b7 fe ba a3 66 91 bc
       -0.007623361 -0.007977532 -0.0019433411 -0.017749136

action_model._discrete_distribution.branches.1.bias f4 [3]
000000 00 00 00 00 00 00 00 00 00 00 00 00
       0.0 0.0 0.0

action_model._discrete_distribution.branches.1.weight f4 [3, 128]
000000 10 b1 58 bc 90 18 c4 39 ee a8 86 bb c3 06 92 bb
       -0.013225809 0.00037402334 -0.0041094935 -0.0044563725
000010 ba 9f 64 3b 48 12 fd 3b 72 40 87 b9 ed 39 89 ba
       0.0034885244 0.0077231266 -0.00025797222 -0.0010469534
000020 57 a0 dd 3b 2f 44 da 3b c7 0d 4b ba 15 06 19 bc
       0.0067634988 0.00666096 -0.00077458884 -0.009339829
000030 ff 1d 0f 3b da cf e8 3b e2 7e 14 3c 35 f0 26 3c
       0.0021837947 0.007104856 0.009063454 0.010189106
000040 e5 ba 39 ba 5f c3 72 bc 76 02 3b bb 8b cf d0 bb
       -0.00070850394 -0.014817088 -0.0028535402 -0.0063723973
000050 01 54 2c bc 24 ad 2f bc 82 1d 70 ba 6b 71 24 3c
       -0.010518075 -0.010722432 -0.00091596704 0.010036807
000060 57 e7 2f ba d4 04 8d 3b 4d 9c d4 3b 70 38 bd bb
       -0.00067101925 0.004303554 0.006488359 -0.00577455
000070 1b 18 2f 3a 6b 7c 81 3b ef fd 2a 3b 64 23 9e b9
       0.0006679312 0.0039515994 0.0026091298 -0.00030162476
000080 4d 64 29 bc 9b 36 d5 3a 77 50 2f 3c a4 08 b7 3a
       -0.010338855 0.0016266884 0.010700337 0.0013964367
000090 b5 11 d4 bb 39 6a 80 bc f6 7f 80 3b d4 2f 2f 3b
       -0.0064718374 -0.01567565 0.003921504 0.0026731389
0000a0 a8 39 a0 bb 48 99 5c 3c 43 ac 94 3a 2e 85 85 bb
       -0.0048896857 0.0134642795 0.0011342842 -0.004074714
0000b0 11 ae 96 3c 97 ae 58 bb bc 4b 45 3b 33 d2 ec bb
       0.018393548 -0.0033063048 0.0030104956 -0.007227206
0000c0 03 99 8f 3b c0 9e 13 3c af 02 72 bc ed db e5 ba
       0.004382254 0.009010017 -0.014771148 -0.0017536856
0000d0 ef f9 67 3b 22 50 69 bc e8 ff f2 ba 47 79 a8 3b
       0.0035396775 -0.014240297 -0.0018539401 0.0051414105
0000e0 33 c4 c4 bb 9d b3 53 bb 0f 38 e7 ba cf 9d 28 3c
       -0.006004834 -0.0032303103 -0.0017640608 0.010291531
0000f0 cf c7 29 3b f3 8b f8 bb 8d b6 ea 3b f1 ec bc bc
       0.0025906449 -0.0075850426 0.007162875 -0.023062201
000100 98 f8 d2 b9 ec 2a 1a 3b 7a 54 f4 ba 0f ad a9 bc
       -0.00040239538 0.0023524119 -0.0018640899 -0.020712404
000110 db 05 c9 bb ff 34 62 bc 1a 0b 8e 3c ac 91 1a bc
       -0.006134731 -0.013806581 0.017339278 -0.009434145
000120 2a e9 68 3b 1b 85 fc ba 53 15 b2 3a bf b3 2b 3b
       0.0035539367 -0.0019265743 0.0013586677 0.0026199666
000130 43 73 9d 3a 17 e3 bc 39 43 77 a5 3b d8 13 5c bb
       0.00120125 0.0003602735 0.0050496175 -0.0033581164
000140 4a c8 3f bc c8 9d b4 bc 55 14 9e bb 38 65 88 3c
       -0.0117054675 -0.022047892 -0.004824201 0.016649827
000150 08 03 94 bc 50 01 f2 bb ad 1a a0 b9 b3 ea 74 bb
       -0.018067852 -0.0073854104 -0.00030537453 -0.0037371337
000160 e9 b2 08 3c 9c 48 87 bb 6f 39 53 3b 62 fc 92 3c
       0.008343437 -0.0041285288 0.0032230278 0.017942611
000170 ae 01 34 3b c1 82 3f ba 73 da e6 38 98 7a d8 3b
       0.0027466821 -0.00073055556 0.00011007944 0.006606411
000180 c2 a3 76 3b af 3d d2 3b 1b ac 41 3a 56 78 91 3b
       0.0037634228 0.0064160447 0.00073880114 0.004439394
000190 bb 23 df ba db d0 a5 3b 13 50 5a bb fe 1e 96 3a
       -0.0017024198 0.005060298 -0.0033311888 0.0011453328
0001a0 be 1d 2b bc bc b0 09 bc 47 e1 c4 bb 08 38 e2 bc
       -0.010444103 -0.008403953 -0.0060083005 -0.027614608
0001b0 ac bb c4 3a 18 82 21 3c df ca 28 39 83 e6 13 bb
       0.0015009544 0.009857677 0.00016097304 -0.0022567816
0001c0 50 8a 82 3c 63 6b bb bb 0d 99 c9 3a 33 f6 03 3a
       0.015935093 -0.0057195886 0.0015380696 0.000503394
0001d0 12 18 38 bc 80 e5 cc ba c3 f3 d1 bb 8a e1 e9 bb
       -0.011236208 -0.0015632361 -0.0064072325 -0.007137482
0001e0 50 01 99 bc 5d c7 0e 3b ab eb da 3a 8f 5c 42 bc
       -0.018677384 0.002178631 0.0016702315 -0.011862888
0001f0 15 13 97 3b aa 61 46 3a cf 7b b0 39 0b 8f 43 bc
       0.004610429 0.00075676537 0.0003366158 -0.01193596
000200 12 47 77 ba b6 15 02 3c 9b cf b6 bb 93 89 d4 3a
       -0.00094328925 0.007939747 -0.0055789477 0.0016215317
000210 63 82 99 ba a5 f0 f2 ba 47 10 9c 3b 08 6a 88 3b
       -0.0011711832 -0.0018534852 0.0047626826 0.0041630305
000220 40 22 71 3c f9 67 13 3b 96 6b 31 bb 46 41 33 bb
       0.0147176385 0.0022492392 -0.0027072183 -0.0027352138
000230 cb 4f 02 3c a3 ef 77 bb 2f d2 d9 3b 20 8e 35 bc
       0.007953594 -0.0037832044 0.0066473703 -0.0110812485
000240 55 28 d7 39 01 b6 4c bc a0 dd 87 3c eb bb 67 ba
       0.00041038045 -0.012494565 0.016585171 -0.00088399526
000250 89 14 b4 3b 17 a9 e4 bb 34 de 86 3b bb 17 f1 3b
       0.005495612 -0.006978165 0.004115844 0.007357565
000260 35 da 74 3c 9b a4 09 3c 5b 08 46 ba 67 95 9e 3b
       0.014944603 0.008401061 -0.00075543456 0.0048395875
000270 ff 3a b2 bb bd c8 3a 3b 94 67 19 bc 61 fb 89 ba
       -0.005439162 0.0028500997 -0.009363074 -0.0010527187
000280 f2 12 df bb 65 1d ee ba db cd b9 3a 85 ab 99 bc
       -0.0068076784 -0.0018166719 0.001417573 -0.018758545
000290 4b c4 28 bc 52 09 ff bb 27 b9 12 bc 9f 1f 05 ba
       -0.010300706 -0.0077830935 -0.008955277 -0.0005078259
0002a0 c7 4a b5 bc ef da 55 bb cb 3b 6e 39 73 b9 b0 bb
       -0.022130383 -0.0032631715 0.00022719723 -0.005393201
0002b0 4b 95 22 3b 76 5f 84 bb 6b 97 32 3c 55 db 6a 3c
       0.0024808224 -0.0040397 0.010900359 0.014334519
0002c0 eb 4b 9b bc 2f 11 79 bc 78 e9 13 bb 22 2c c0 bb
       -0.018957099 -0.015201851 -0.0022569578 -0.005864636
0002d0 3e 8d c5 b8 47 7a 37 bc c2 d9 6d bc 6a 01 e5 3b
       -9.4200004e-05 -0.011198587 -0.01451725 0.006988694
0002e0 58 5b f3 3b 0b 86 12 bc f7 fe d3 b8 16 e9 a3 3b
       0.0074266605 -0.008943091 -0.00010108755 0.0050021512
0002f0 4d 38 1a 3b a2 ff 96 3c ec 6d 30 bb 39 89 92 3b
       0.0023532093 0.018432442 -0.0026920987 0.0044719246
000300 37 71 40 3c e3 30 ff 3b 85 9d 52 3b 53 60 ca 3b
       0.0117457425 0.00778781 0.0032137346 0.0061760335
000310 f6 dc 3b bc 77 cc 38 bc 3a f9 51 bb cd 6e 00 3c
       -0.011466255 -0.011279217 -0.003203942 0.007838917
000320 45 de 31 bb 5f a3 d2 bb fb a0 b3 bb 86 ac 1e 3b
       -0.002714054 -0.0064281668 -0.005481837 0.0024211719
000330 67 8c 41 bc 1f bd a0 3b 6a c5 d0 bb 7b 5f 97 bb
       -0.01181326 0.0049053575 -0.00637119 -0.0046195365
000340 3d f0 ce bb 69 8c 3b 3c 27 05 b6 3a 33 f7 2f bb
       -0.0063152597 0.011447051 0.0013887034 -0.0026850223
000350 75 cd b9 bb 9e 45 3a bc da 10 ab bb 53 7b d6 38
       -0.0056702443 -0.011369137 -0.0052205147 0.00010227286
000360 10 28 0f 3c 8f 07 63 3a 78 6b 33 3b c5 dd f9 3a
       0.008737579 0.0008660489 0.0027377289 0.0019063285
000370 a2 87 e2 3a b2 bc f3 bb 7f fd 1a bb cd c5 81 ba
       0.0017282853 -0.0074382657 -0.002364963 -0.0009900868
000380 d0 36 70 bc b0 b6 55 3c 6c 59 34 bc ca 85 00 3b
       -0.014661506 0.013044044 -0.011007648 0.0019610994
000390 f2 fe 44 3c 1a 63 2f 3c c3 f1 5e ba 7f 17 d5 ba
       0.012023674 0.01070478 -0.0008504653 -0.0016257613
0003a0 c8 e8 14 3c db 29 e4 b9 69 84 8f bc 76 cc c4 3b
       0.0090887025 -0.00043518734 -0.017519193 0.006005819
0003b0 cd cb 72 bc b5 f3 dd 3b f5 6f 17 bb fa b4 84 b9
       -0.014819098 0.006773437 -0.0023107503 -0.0002531184
0003c0 15 a1 88 ba a9 cf 02 3c 39 4f a5 bb 37 d2 6c 3b
       -0.0010423983 0.00798408 -0.0050448445 0.003613604
0003d0 af 6a bd 3b 6f 6e 09 3b 1c 34 9b 3b 46 8d 22 3c
       0.00578054 0.0020970365 0.0047364365 0.0099213775
0003e0 8a 27 11 3c 75 f9 1b 3b 65 c7 3a bb 2e c0 16 3c
       0.0088595245 0.002379981 -0.0028500196 0.009201093
0003f0 30 07 02 3c 23 75 4a bc ca 92 08 3b 31 ca cb b9
       0.007936284 -0.012357029 0.0020839446 -0.00038869822

network_body.linear_encoder.seq_layers.0.bias f4 [128]
000000 00 00 00 00 00 00 00 00 00 00 00 00 00 00 00 00
       0.0 0.0 0.0 0.0
000010 00 00 00 00 00 00 00 00 00 00 00 00 00 00 00 00
       0.0 0.0 0.0 0.0
000020 00 00 00 00 00 00 00 00 00 00 00 00 00 00 00 00
       0.0 0.0 0.0 0.0
000030 00 00 00 00 00 00 00 00 00 00 00 00 00 00 00 00
       0.0 0.0 0.0 0.0
000040 00 00 00 00 00 00 00 00 00 00 00 00 00 00 00 00
       0.0 0.0 0.0 0.0
000050 00 00 00 00 00 00 00 00 00 00 00 00 00 00 00 00
       0.0 0.0 0.0 0.0
000060 00 00 00 00 00 00 00 00 00 00 00 00 00 00 00 00
       0.0 0.0 0.0 0.0
000070 00 00 00 00 00 00 00 00 00 00 00 00 00 00 00 00
       0.0 0.0 0.0 0.0
000080 00 00 00 00 00 00 00 00 00 00 00 00 00 00 00 00
       0.0 0.0 0.0 0.0
000090 00 00 00 00 00 00 00 00 00 00 00 00 00 00 00 00
       0.0 0.0 0.0 0.0
0000a0 00 00 00 00 00 00 00 00 00 00 00 00 00 00 00 00
       0.0 0.0 0.0 0.0
0000b0 00 00 00 00 00 00 00 00 00 00 00 00 00 00 00 00
       0.0 0.0 0.0 0.0
0000c0 00 00 00 00 00 00 00 00 00 00 00 00 00 00 00 00
       0.0 0.0 0.0 0.0
0000d0 00 00 00 00 00 00 00 00 00 00 00 00 00 00 00 00
       0.0 0.0 0.0 0.0
0000e0 00 00 00 00 00 00 00 00 00 00 00 00 00 00 00 00
       0.0 0.0 0.0 0.0
0000f0 00 00 00 00 00 00 00 00 00 00 00 00 00 00 00 00
       0.0 0.0 0.0 0.0
000100 00 00 00 00 00 00 00 00 00 00 00 00 00 00 00 00
       0.0 0.0 0.0 0.0
000110 00 00 00 00 00 00 00 00 00 00 00 00 00 00 00 00
       0.0 0.0 0.0 0.0
000120 00 00 00 00 00 00 00 00 00 00 00 00 00 00 00 00
       0.0 0.0 0.0 0.0
000130 00 00 00 00 00 00 00 00 00 00 00 00 00 00 00 00
       0.0 0.0 0.0 0.0
000140 00 00 00 00 00 00 00 00 00 00 00 00 00 00 00 00
       0.0 0.0 0.0 0.0
000150 00 00 00 00 00 00 00 00 00 00 00 00 00 00 00 00
       0.0 0.0 0.0 0.0
000160 00 00 00 00 00 00 00 00 00 00 00 00 00 00 00 00
       0.0 0.0 0.0 0.0
000170 00 00 00 00 00 00 00 00 00 00 00 00 00 00 00 00
       0.0 0.0 0.0 0.0
000180 00 00 00 00 00 00 00 00 00 00 00 00 00 00 00 00
       0.0 0.0 0.0 0.0
000190 00 00 00 00 00 00 00 00 00 00 00 00 00 00 00 00
       0.0 0.0 0.0 0.0
0001a0 00 00 00 00 00 00 00 00 00 00 00 00 00 00 00 00
       0.0 0.0 0.0 0.0
0001b0 00 00 00 00 00 00 00 00 00 00 00 00 00 00 00 00
       0.0 0.0 0.0 0.0
0001c0 00 00 00 00 00 00 00 00 00 00 00 00 00 00 00 00
       0.0 0.0 0.0 0.0
0001d0 00 00 00 00 00 00 00 00 00 00 00 00 00 00 00 00
       0.0 0.0 0.0 0.0
0001e0 00 00 00 00 00 00 00 00 00 00 00 00 00 00 00 00
       0.0 0.0 0.0 0.0
0001f0 00 00 00 00 00 00 00 00 00 00 00 00 00 00 00 00
       0.0 0.0 0.0 0.0

network_body.linear_encoder.seq_layers.0.weight f4 [128, 29]
000000 4f b7 ad bd 86 9c 32 3d 98 e4 15 3d ec 3d 30 3e
       -0.08482229 0.043606304 0.036594957 0.17211121
000010 56 e7 81 bd a1 5d 7c 3c 8c ff cb bd c0 1c 0e bd
       -0.06342952 0.015403182 -0.09960851 -0.034695387
000020 16 98 3c bb 78 a0 d2 3d ca a1 d1 bc 54 38 ee 3d
       -0.0028777174 0.10284513 -0.025589842 0.116318375
000030 57 31 e8 3c ee e1 a3 3d 9b 36 ff 3d ef 64 d0 3d
       0.02834384 0.08002077 0.12461587 0.101755016
000040 8f e0 5c 3c a7 49 9a 3d d3 2a b9 3d ae 00 82 3c
       0.013481273 0.07533579 0.09041371 0.015869465
000050 b9 80 48 3d fb ea 52 bd f9 1f 54 be 2d 39 81 be
       0.048950884 -0.051493626 -0.20715322 -0.25238934
000060 ab 84 15 3d 62 59 78 3d ce d8 34 be 20 45 34 3e
       0.036503475 0.060632117 -0.1766083 0.17604494
000070 e5 78 c0 3d fb cb 59 be cf 1d 48 3e ae 9d 64 3d
       0.09398059 -0.21269219 0.19542621 0.055814438
000080 48 08 78 bd df a2 50 3e 3f dd 99 bd b0 4a 41 3e
       -0.060554773 0.2037463 -0.075129025 0.18876147
000090 56 36 66 bd 1f 01 23 3c aa 1a 1e 3e 7b d1 b1 bc
       -0.056204163 0.009948998 0.15439859 -0.021706333
0000a0 93 6d e0 3c 14 25 f5 ba e0 72 8f 3e 27 c0 db 3b
       0.027395999 -0.0018703067 0.2801733 0.006706256
0000b0 b6 d1 f1 3d b7 02 fb 3d b1 4e 4c 3e 88 76 e2 bc
       0.11807577 0.12256377 0.19951893 -0.02764441
0000c0 25 c1 a1 3d d8 25 4e bd 3a 5e a0 3d 52 3a 1c be
       0.078981675 -0.05032906 0.07830472 -0.15256622
0000d0 52 5e 24 3e 65 b7 ad be 10 6d 13 bd a3 9f 1a 3e
       0.16051605 -0.3392898 -0.035992682 0.15099959
0000e0 d0 5c 26 3c cb 41 c2 3d 04 f7 0f 3e 00 e3 e5 bd
       0.010153964 0.09485205 0.14059073 -0.112249374
0000f0 fe 4b 22 be b4 97 c2 bd b9 fc 0f be 97 45 8c 3e
       -0.15849301 -0.09501591 -0.1406125 0.27396843
000100 62 b5 cf bc 90 38 46 be b0 2b 82 3d 56 0d 7e 3e
       -0.025355045 -0.19357514 0.06355989 0.24809775
000110 d0 a5 ea 3d 60 85 f5 be 6a ad 81 3e 27 0a 22 be
       0.114574075 -0.4795332 0.25327617 -0.15824185
000120 0a be 08 3e bd 9d 01 be 4c 1a fc bd c0 bc 93 be
       0.13353744 -0.12657829 -0.12309703 -0.28854942
000130 aa e2 7f 3e aa e5 8c bd 87 b7 87 3d ee 67 f4 bd
       0.24988809 -0.068797424 0.06626802 -0.119338855
000140 88 c5 75 3e d8 49 56 be 5a 9c 95 3c 8e cd 64 3e
       0.24001133 -0.20926607 0.01826303 0.22344038
000150 54 01 22 be bb b8 b8 be 7f 70 74 be d9 2b 25 3e
       -0.15820819 -0.36078438 -0.23871039 0.16130008
000160 0a 12 1c 3e 81 d0 49 3e 42 bd 94 3d 16 5f 84 be
       0.15241256 0.19708444 0.072626606 -0.25853795
000170 6c c7 18 3d a2 cd 3e 3e 3b 8e 97 3c 4b 67 c4 bc
       0.03729956 0.1863313 0.018500438 -0.023975035
000180 25 e4 31 be b3 7b e7 3d 9d c8 28 be 21 5e 71 3e
       -0.17372186 0.11302891 -0.16482778 0.23571064
000190 ed 25 84 be 46 b4 f4 3d ba 90 dd 3d 70 27 ae bd
       -0.25810185 0.11948447 0.1081862 -0.08503616
0001a0 90 98 19 be 37 37 39 bf 90 a1 8c be 25 fd b4 be
       -0.14999604 -0.72349876 -0.27467012 -0.35349384
0001b0 12 c8 19 3e 5c c9 ce be 34 13 3b be 47 95 ce 3d
       0.15017727 -0.40388 -0.18269044 0.10087066
0001c0 0d 34 50 be 40 9f 36 be b3 c2 92 3e 07 27 b5 be
       -0.20332356 -0.17834187 0.2866417 -0.35381338
0001d0 6e 29 f6 bc b7 44 5f 3c fc 21 4a 3d f4 46 f0 bd
       -0.030049052 0.013627223 0.049348816 -0.11732283
0001e0 78 8e ad 3e 5f 11 a2 3d 3f 70 2d be 2d b4 e3 3d
       0.33897758 0.079134695 -0.1693735 0.1111835
0001f0 6e f8 2e 3d 12 33 de 3c ac c7 c9 3d 42 c8 36 3e
       0.04271739 0.027123962 0.098525375 0.1784983
000200 ad b0 8a be 6d b2 65 3e e9 04 4f be 2d 4b 8a be
       -0.27087918 0.22431345 -0.20216717 -0.2701048
000210 57 1a 3a 3d ca 28 7a bd 8e 4b 5e 3d 51 0a 07 be
       0.045435276 -0.061074056 0.054271273 -0.13187529
000220 b2 14 6e bd 18 21 b1 3c 91 34 00 be c8 a9 5f 3e
       -0.058125205 0.021622226 -0.12520052 0.2184211
000230 99 ff b3 bc 43 fe 79 be f6 9e 08 be dc 77 50 3e
       -0.021972464 -0.244134 -0.13341889 0.20358223
000240 29 c5 99 3e a8 e7 39 be 05 90 c4 be c6 9a 24 be
       0.30033234 -0.18154776 -0.38391128 -0.16074666
000250 13 c2 86 3d 40 6f 07 be 34 e0 5a 3e 81 a1 ef 3c
       0.065799855 -0.13226032 0.21374589 0.029251816
000260 e5 ce 47 be 8b 35 87 3d 30 6d 10 be d9 cd f4 bd
       -0.19512518 0.066020094 -0.14104152 -0.11953325
000270 1f 57 04 3e cd 7b d5 bd a6 3e 85 bd 25 51 f4 bc
       0.12923859 -0.10424004 -0.0650609 -0.029823849
000280 d1 73 0c 3e 1e 9e 79 bd 3f d3 7e be 55 a4 00 be
       0.13716055 -0.060941808 -0.24885271 -0.12562688
000290 ef ed a6 be 91 38 b5 bd 53 37 35 be 0d b2 80 be
       -0.32603404 -0.0884868 -0.17696886 -0.25135842
0002a0 89 a1 a3 3d 51 2a 21 3a 7a 7f a5 be 56 2b a3 bc
       0.07989795 0.0006147968 -0.3232382 -0.019918125
0002b0 c6 84 95 bd e9 bb a0 bc 71 8a 4b be 3b bf ee 3e
       -0.07300715 -0.019620853 -0.1987703 0.46630272
0002c0 1c 43 b0 3e 74 ac e2 3d d4 14 ae 3b 39 7e 27 be
       0.344262 0.11068049 0.0053125415 -0.16356744
0002d0 71 95 18 bb 08 06 31 3e 97 73 7b be 00 5b cc bc
       -0.0023282433 0.17287457 -0.24555813 -0.024945736
0002e0 be c3 10 be 6b 64 db bd 2c 38 a3 bd 20 44 9d 3d
       -0.1413717 -0.107125126 -0.07969698 0.076790094
0002f0 4e bf af 3c cb 09 8f bd 47 9f ab 3e 43 53 f0 bc
       0.021453526 -0.0698429 0.33519956 -0.029336577
000300 b5 5a 78 3c 3f 27 9e bd a7 6c 8f 3e 3a f8 78 3d
       0.015158345 -0.07722329 0.28012583 0.060783602
000310 46 1e 86 3d 4e c2 16 3e 48 f1 bd 3d b6 71 ec bd
       0.06548743 0.14722559 0.09274536 -0.11545126
000320 08 23 b8 3e bf 2a d2 3d a3 60 32 ba 53 2a 81 3e
       0.35964227 0.102620594 -0.0006804561 0.25227603
000330 c3 2d 41 3d a8 be f7 3d 89 06 90 3c ef 28 a0 bd
       0.047162782 0.12096912 0.017581241 -0.078203075
000340 3d 44 51 3e 97 11 46 be ce ff b7 bd e0 d7 83 3e
       0.20436187 -0.19342647 -0.08984338 0.25750637
000350 ee ce f2 3e fd 01 af 3c 78 0e 76 be 75 ab 86 3d
       0.474235 0.021363253 -0.24028957 0.065756716
000360 47 8b c8 3d d0 b6 ca 3e 0c 0a 0c 3e b9 e2 81 3b
       0.0979219 0.395926 0.13675708 0.003963795
000370 93 94 cf bd c7 73 a8 3e ed 78 10 bd c6 0a 1a 3d
       -0.1013576 0.3290083 -0.035271574 0.03760793
000380 3d d5 0e be dd 62 99 be d9 95 48 3e 43 ed 52 be
       -0.13948531 -0.2995824 0.19588412 -0.2059832
000390 02 70 67 be ef c1 9e bd cb cf 08 be 88 80 23 3e
       -0.22601321 -0.07751834 -0.13360517 0.15967
0003a0 07 c8 7b 3d 69 f7 86 be 64 9c 32 bd 0a 9c 4e 3e
       0.061470058 -0.26360634 -0.043606177 0.20176712
0003b0 37 35 52 3e 28 55 06 be 4b 2d 18 3f 2d 81 28 bd
       0.20528112 -0.13118422 0.5944411 -0.041138817
0003c0 2d 3a 85 3e c0 6d a1 3d 6b 05 bd bc f9 9c 91 3e
       0.26020947 0.07882261 -0.023073873 0.28440073
0003d0 24 d4 4a 3c 0a 72 65 be da f4 90 be 19 64 1d be
       0.01237968 -0.22406784 -0.28311807 -0.15370215
0003e0 de a1 bd bd 68 3f 50 bd 81 c9 ec 3c 7b 70 a8 bd
       -0.09259389 -0.05084172 0.028904678 -0.08224579
0003f0 a9 44 8d 3e 21 65 b1 3d 4f 43 13 3e 84 d4 d8 3e
       0.27591446 0.08661867 0.14381145 0.42349637

network_body.linear_encoder.seq_layers.2.bias f4 [128]
000000 00 00 00 00 00 00 00 00 00 00 00 00 00 00 00 00
       0.0 0.0 0.0 0.0
000010 00 00 00 00 00 00 00 00 00 00 00 00 00 00 00 00
       0.0 0.0 0.0 0.0
000020 00 00 00 00 00 00 00 00 00 00 00 00 00 00 00 00
       0.0 0.0 0.0 0.0
000030 00 00 00 00 00 00 00 00 00 00 00 00 00 00 00 00
       0.0 0.0 0.0 0.0
000040 00 00 00 00 00 00 00 00 00 00 00 00 00 00 00 00
       0.0 0.0 0.0 0.0
000050 00 00 00 00 00 00 00 00 00 00 00 00 00 00 00 00
       0.0 0.0 0.0 0.0
000060 00 00 00 00 00 00 00 00 00 00 00 00 00 00 00 00
       0.0 0.0 0.0 0.0
000070 00 00 00 00 00 00 00 00 00 00 00 00 00 00 00 00
       0.0 0.0 0.0 0.0
000080 00 00 00 00 00 00 00 00 00 00 00 00 00 00 00 00
       0.0 0.0 0.0 0.0
000090 00 00 00 00 00 00 00 00 00 00 00 00 00 00 00 00
       0.0 0.0 0.0 0.0
0000a0 00 00 00 00 00 00 00 00 00 00 00 00 00 00 00 00
       0.0 0.0 0.0 0.0
0000b0 00 00 00 00 00 00 00 00 00 00 00 00 00 00 00 00
       0.0 0.0 0.0 0.0
0000c0 00 00 00 00 00 00 00 00 00 00 00 00 00 00 00 00
       0.0 0.0 0.0 0.0
0000d0 00 00 00 00 00 00 00 00 00 00 00 00 00 00 00 00
       0.0 0.0 0.0 0.0
0000e0 00 00 00 00 00 00 00 00 00 00 00 00 00 00 00 00
       0.0 0.0 0.0 0.0
0000f0 00 00 00 00 00 00 00 00 00 00 00 00 00 00 00 00
       0.0 0.0 0.0 0.0
000100 00 00 00 00 00 00 00 00 00 00 00 00 00 00 00 00
       0.0 0.0 0.0 0.0
000110 00 00 00 00 00 00 00 00 00 00 00 00 00 00 00 00
       0.0 0.0 0.0 0.0
000120 00 00 00 00 00 00 00 00 00 00 00 00 00 00 00 00
       0.0 0.0 0.0 0.0
000130 00 00 00 00 00 00 00 00 00 00 00 00 00 00 00 00
       0.0 0.0 0.0 0.0
000140 00 00 00 00 00 00 00 00 00 00 00 00 00 00 00 00
       0.0 0.0 0.0 0.0
000150 00 00 00 00 00 00 00 00 00 00 00 00 00 00 00 00
       0.0 0.0 0.0 0.0
000160 00 00 00 00 00 00 00 00 00 00 00 00 00 00 00 00
       0.0 0.0 0.0 0.0
000170 00 00 00 00 00 00 00 00 00 00 00 00 00 00 00 00
       0.0 0.0 0.0 0.0
000180 00 00 00 00 00 00 00 00 00 00 00 00 00 00 00 00
       0.0 0.0 0.0 0.0
000190 00 00 00 00 00 00 00 00 00 00 00 00 00 00 00 00
       0.0 0.0 0.0 0.0
0001a0 00 00 00 00 00 00 00 00 00 00 00 00 00 00 00 00
       0.0 0.0 0.0 0.0
0001b0 00 00 00 00 00 00 00 00 00 00 00 00 00 00 00 00
       0.0 0.0 0.0 0.0
0001c0 00 00 00 00 00 00 00 00 00 00 00 00 00 00 00 00
       0.0 0.0 0.0 0.0
0001d0 00 00 00 00 00 00 00 00 00 00 00 00 00 00 00 00
       0.0 0.0 0.0 0.0
0001e0 00 00 00 00 00 00 00 00 00 00 00 00 00 00 00 00
       0.0 0.0 0.0 0.0
0001f0 00 00 00 00 00 00 00 00 00 00 00 00 00 00 00 00
       0.0 0.0 0.0 0.0

network_body.linear_encoder.seq_layers.2.weight f4 [128, 128]
000000 d7 03 ba bd ea 51 c5 bb fb 02 db 3d 6b 2a 83 3d
       -0.09082764 -0.006021728 0.10693928 0.06404575
000010 c7 b7 1f be 88 39 97 3d 0a d6 bb 3c 7e 50 5e bc
       -0.15597449 0.0738402 0.02292921 -0.0135689955
000020 60 c6 c2 bc 15 fd a0 bd 1d a9 6e 3d 24 fe 50 be
       -0.023776233 -0.078607716 0.058266748 -0.20409447
000030 42 17 8a 3d 93 1f ac bd 8b 76 70 3c e6 fd 26 bc
       0.06742717 -0.0840446 0.0146767 -0.01019237
000040 b7 70 9a 3b 98 6e 96 bc a0 16 57 3d 28 7b 18 be
       0.0047131437 -0.018363282 0.05251181 -0.1489073
000050 7c 30 c7 bd 2d 4d a2 3d a7 d2 0b 3e 2f bb 9d 3d
       -0.097260445 0.07924876 0.13654576 0.07701718
000060 f5 d9 e8 3d 17 9d 05 bd 72 8d 24 be aa 12 32 3c
       0.11369697 -0.032620516 -0.16069582 0.010868708
000070 07 2a 95 bc ab 96 b3 3d 63 89 28 be 4e 05 35 be
       -0.018208517 0.08768972 -0.16458659 -0.17677805
000080 ca 3c 9d 3d 63 7d d3 3c 1d 80 f6 bc fd 5d 0b be
       0.0767761 0.025816625 -0.030090386 -0.13610072
000090 61 87 8d 3d 9b 44 84 bd f1 68 a8 3a 35 f8 fb 3d
       0.06910587 -0.06458398 0.0012848658 0.12303201
0000a0 b3 d8 e8 3c 23 87 08 3e 5a 1d ca bc 12 f5 e2 3d
       0.028423643 0.133328 -0.024672199 0.110819
0000b0 d8 53 9b 3d d1 c2 8c 3d e4 25 1f 3d 40 b7 1d be
       0.07584351 0.06873096 0.038854495 -0.15401936
0000c0 60 57 7f bd 62 d3 62 3d ce 32 8e bc b1 ac 11 be
       -0.062339187 0.05537737 -0.01735821 -0.14226033
0000d0 6d b7 1e 3e d1 d1 c8 3d 0e a4 27 bc ff 86 2e 3d
       0.15499659 0.09805644 -0.010231985 0.04260921
0000e0 9f 09 da bc 3b 89 aa 3d 74 5a 83 3d cd f9 2e 3e
       -0.026615916 0.08326956 0.06413737 0.17087479
0000f0 2d 48 98 b9 89 77 19 bd 38 6a 9c bc 8e ee 34 3d
       -0.00029045474 -0.037467513 -0.019093618 0.044172816
000100 86 a8 f9 bd 47 50 01 bd 5d ee cf 3c 42 5d 0b bd
       -0.121903464 -0.0315707 0.025382215 -0.034024484
000110 1c 31 d7 3d c5 8f 4e bb 45 e9 8e bd ce f0 4c bd
       0.10507414 -0.0031518799 -0.069780864 -0.050034337
000120 08 8e b9 bd 1e e1 80 3d bd fc 2d bb ae d8 30 3d
       -0.090602934 0.06292938 -0.0026548349 0.04317539
000130 33 0f 2f bd 98 c7 d4 3d de 63 98 bd 53 dc 31 bd
       -0.042739104 0.10389632 -0.07440923 -0.04342301
000140 90 7a 9d bd 91 36 1e bd 6b e1 f0 ba 9a be c3 3d
       -0.076893926 -0.038626257 -0.0018377727 0.09557839
000150 d5 88 81 3d be 88 b2 bc d2 95 1d 3e 4b 3a e9 bc
       0.06324927 -0.02179372 0.15389183 -0.028470179
000160 19 c6 db 3d 9e 54 b8 3d c5 82 46 3e 73 83 de 3c
       0.107311435 0.090005144 0.19385822 0.02716229
000170 0d a3 e6 3d f4 7d 93 3d fb c8 aa 3d 7f cb 43 bd
       0.11261568 0.07201758 0.08339115 -0.04780149
000180 8a fb 6e 3d 20 10 1c bc cf ba 92 bc 32 74 ca bd
       0.058345355 -0.009525329 -0.017911343 -0.09885444
000190 7d 0e a0 bb a3 14 0c 3d 15 5c c9 3d 0e 7c ac 3d
       -0.0048845396 0.03419937 0.098320164 0.08422099
0001a0 55 a6 54 bd 19 36 36 be 1f bc 0a be f0 61 ab 3d
       -0.05191644 -0.17794074 -0.13548325 0.083682895
0001b0 3b 7e 31 bd 33 b4 17 3e cd 0f 19 bd b4 e5 1a 3b
       -0.043333273 0.14814834 -0.037368584 0.002363545
0001c0 2b ca 2a bd 58 d8 05 3c b4 03 3f 3d 92 68 66 bd
       -0.04169671 0.008169256 0.04663439 -0.05625207
0001d0 99 55 73 bb 24 6c 3c 3e a4 16 3a bc f5 fc 18 3e
       -0.0037129878 0.18400627 -0.011357937 0.14940245
0001e0 44 f3 95 3c d0 43 78 bc 7a 45 55 bc 1d 3f 53 3b
       0.018304475 -0.0151528865 -0.013017053 0.0032233663
0001f0 59 c3 04 3d ba b1 05 bd b8 d0 d4 3d 6a 7f 28 be
       0.03241286 -0.032640196 0.103913724 -0.16454855
000200 5c 6d 20 bc 24 68 bc 3c 28 92 21 bd 33 fd 94 3d
       -0.009791698 0.022998877 -0.039446026 0.072748564
000210 40 5c f0 bd 08 84 0c 3e 37 fe 46 bc 3c d7 fb bd
       -0.11736345 0.13722241 -0.0121455705 -0.12296912
000220 4b 63 51 3d c4 a8 48 bd f3 d8 47 bd 71 b7 3d 3d
       0.051120084 -0.048989072 -0.048790883 0.04631752
000230 ba 6d 53 3c da 0c 26 bd 53 fe d5 3c 8f 19 5b 3d
       0.012904579 -0.0405396 0.026122248 0.05349117
000240 8c 14 2d bc a2 e8 16 3d f9 54 1c bd 05 c3 e7 bb
       -0.010563981 0.03684295 -0.038166974 -0.0070728087
000250 9b 21 a1 bc 29 53 0d bd da 30 aa bd 91 16 f3 bd
       -0.019669345 -0.034503136 -0.08310099 -0.118695386
000260 24 f8 73 3d 88 15 7d bd ba ba 64 3d e5 79 07 3c
       0.059562817 -0.061788112 0.05584214 0.008268808
000270 61 e9 e4 3d bc 96 80 38 9e 51 94 3d 06 bc c6 3d
       0.11177326 6.131592e-05 0.0724213 0.097038314
000280 68 61 a4 3d 65 fb 0b 3e 93 6c 11 bc ee c4 a9 3c
       0.08026391 0.13670118 -0.008875984 0.020723786
000290 57 30 05 3e fe c6 44 bd d6 40 fd bd 4a c8 cb bd
       0.13006721 -0.048041336 -0.12365882 -0.099503115
0002a0 61 83 8a 3d ca 29 21 3e c8 24 bc 3c fc 99 23 bd
       0.0676334 0.15738598 0.022966757 -0.039941773
0002b0 21 1b 05 3d 30 b0 1e bc c0 4a e1 3d d1 4f a6 3b
       0.032496575 -0.009685561 0.110005856 0.005075433
0002c0 74 f0 8c bd 3d 48 9d 3c d7 7b 01 3d 8a 27 e4 bd
       -0.068818 0.019199485 0.031612244 -0.11140354
0002d0 1a e9 c2 3c 22 8b b7 3b b0 f6 c9 bd ab ca 36 3d
       0.023792792 0.0056013027 -0.09861505 0.044626873
0002e0 75 da b1 bd d7 9b 79 bc d1 ef d6 3d cf ed 3c 3d
       -0.086842455 -0.015234909 0.1049496 0.04612523
0002f0 8b 2b f8 3c 60 bf 0f bc 33 e8 be 3d e9 92 de 3c
       0.0302942 -0.008773655 0.09321632 0.027169662
000300 97 c4 44 be 4c 51 f8 bc 09 0a 94 3c 21 7d f6 bd
       -0.19215618 -0.030312203 0.018071191 -0.12035585
000310 7f b0 95 3d b2 87 fb 3d 03 f7 87 3d 53 8d e9 bc
       0.073090546 0.12281741 0.066389106 -0.028509771
000320 07 02 1a bd 09 51 0f 3e 69 5e b9 3d 48 9d 5e 3d
       -0.03759959 0.13995756 0.090512104 0.054349214
000330 4e da e6 3a 44 54 84 3c de 5e 85 3d 80 93 be bc
       0.0017612667 0.016153462 0.06512235 -0.023263693
000340 66 5f 30 bd 32 42 b4 bd dc 27 a0 3d 40 ff cb 3b
       -0.04305973 -0.08801688 0.078201026 0.0062254965
000350 eb a4 85 3d c0 41 4f bd 99 e6 12 be 92 9a 97 3d
       0.06525596 -0.050599813 -0.14345779 0.07402529
000360 00 4c 94 bd 51 67 c2 bc 36 05 eb bd 04 44 49 be
       -0.07241058 -0.023730906 -0.11475603 -0.19654852
000370 d2 fa c1 bd ec 85 bb bd c6 9c f1 3d 5a 1d de bc
       -0.09471668 -0.09156403 0.1179748 -0.027113605
000380 f5 d1 1c bc 0d a5 e3 bc 5d 93 8b bc 68 b0 06 3e
       -0.009571542 -0.027788663 -0.017038042 0.13153231
000390 0e a8 e9 3d cb eb 0f be a3 3c 42 3c d9 1c 1c 3c
       0.11409007 -0.14054792 0.011855277 0.009528362
0003a0 a5 19 29 3e a4 20 8a 3d 73 97 b9 3d a5 27 76 bd
       0.16513689 0.06744507 0.0906209 -0.0600964
0003b0 0f 1f bb bc b6 1c 03 3e c8 27 a1 bd 79 61 a0 3d
       -0.022841958 0.12803921 -0.07868916 0.078310914
0003c0 10 9f b2 3b ab 39 1b bd 81 fe b0 3d d1 43 34 bd
       0.0054510906 -0.037896793 0.08642293 -0.044009987
0003d0 db 22 d9 bd 34 ea 64 3c d1 96 2c 3e 1b 84 8a bd
       -0.10602351 0.013971854 0.16854407 -0.06763478
0003e0 26 62 6f bd de fb 99 bd 61 b4 93 3d 9d e1 f9 bd
       -0.05844321 -0.07518743 0.07212139 -0.122012354
0003f0 77 7c 29 bd 18 26 bf 3d 0a 29 87 3d d9 37 b0 bd
       -0.041378465 0.09333438 0.065996245 -0.08604402

network_body.vector_processors.0.normalizer.running_mean f4 [29]
000000 89 03 28 3f f1 ec 8a 3e a3 34 7a 3d 5b bd 2f 3c
       0.65630394 0.27133897 0.061085355 0.010726298
000010 f6 0c 6a 3d e1 88 36 3f c3 37 44 3e 19 53 b5 3d
       0.057141267 0.7130261 0.19161896 0.0885374
000020 54 6b dc 3b 34 df 82 3d 64 b3 3b 3f 97 7e 40 3e
       0.0067266617 0.06390229 0.73320603 0.1879829
000030 22 f6 67 3d 3d 7c 0d 3c 3f 77 58 3d 38 a0 33 3f
       0.056631215 0.008635578 0.052848097 0.7016635
000040 ba 9a 7f 3e 74 17 10 3d 71 04 09 3c 9f 00 65 3d
       0.24961367 0.035178617 0.008362875 0.055908795
000050 38 a0 33 3f ba 9a 7f 3e 74 17 10 3d 71 04 09 3c
       0.7016635 0.24961367 0.035178617 0.008362875
000060 9f 00 65 3d 4b 5a 27 42 21 d4 98 41 e2 ef 27 3d
       0.055908795 41.838177 19.103579 0.041000254
000070 06 f4 2d 3d
       0.042469047
