Assets/Models/Scena3/18Gen/iRobot.onnx (onnx, 88018 bytes, 10 tensors)

74 f4 [29]
00000000: 6b97 ec3e bd33 da3e 3e41 7e3e a8c4 893d
00000010: b3ea 9d3d 43e1 ee3e 0710 ce3e 86be 9f3e
00000020: d47b 8c3d 4eed 9a3d ca3f f03e d29c d63e
00000030: 113b 953e ad2a 843d 1164 943d 4992 f53e
00000040: 09f1 e23e 6c80 833e 864a a63d 3b17 b53d
00000050: 4992 f53e 09f1 e23e 6c80 833e 864a a63d
00000060: 3b17 b53d c74f ae41 64c2 2c41 f890 6040
00000070: 62a1 5a40
0.46209273 0.42617598 0.24829575 0.06726962 0.07710781 0.46656236 0.40246603 0.31200045
0.06859556 0.075647935 0.46923667 0.4191652 0.29146627 0.06453452 0.07245649 0.4796317
0.4432452 0.25683916 0.08119683 0.088423215 0.4796317 0.4432452 0.25683916 0.08119683
0.088423215 21.788954 10.797459 3.5088482 3.4161

action_model._discrete_distribution.branches.0.bias f4 [3]
00000000: 0000 0000 0000 0000 0000 0000
0.0 0.0 0.0

action_model._discrete_distribution.branches.0.weight f4 [3, 128]
00000000: 0795 44b9 4c80 ca3a 77b5 043c e034 d03b
00000010: 4d83 9bbb 2f0b df3b 56c5 9dba fec7 1cbb
00000020: 37dc 86bb 9fdd b2bb e55b dbbb 9867 043c
00000030: cc57 c8bb c73f 163c b053 3fbb 5749 8eba
00000040: ad30 de3b 508f 703b d0be 4fbb 3d48 aebb
00000050: 3a7f f5bb f4a7 92bc c751 27bb d2eb 47bc
00000060: c884 1bbc db27 04bc 68a6 c6bb 3ee5 01bc
00000070: 1f15 06bb 5ae7 0ebc 80f6 8eba 61a7 37bc
00000080: 8876 02bb 7767 a0bb 7953 8d3b 8940 1d3c
00000090: d9da 113c 7c9e 2bbb 3719 463c 0735 3dbb
000000a0: af7e 00bc df78 b73c e2e2 543b b218 b3bb
000000b0: 73cd 20bb 6c67 003b 5460 ab3a bb82 81bb
000000c0: 82b4 c53b 7c1f bbbb 7bd1 60b8 fd1c 663a
000000d0: 594c be3c 30ba 87ba 6f72 3539 f8cc 9d3b
000000e0: db33 fe3a a778 19bc 7386 f8ba 1429 a9bb
000000f0: fb67 23bc 3e86 2abc 8703 963a e0c6 19bc
00000100: 7a87 debb e411 09bb a86b dc3b abab 81bc
00000110: 1b37 3cbc 0b44 943c 3bf1 d83b d885 b63a
00000120: 1b10 36bc 15f9 c6bc 368a 8f3b 0b4f b7bb
00000130: 08a0 54bc b3fd c8bb 48f1 413c e816 4e3c
00000140: cbfb 05bc 31f5 c4bb 41ca c53b d783 423b
00000150: 1a6b 393c 27cd c6bb b1a4 4c3c 3301 80bb
00000160: ba85 d9ba 129c 8ab9 87b0 803a 7078 96bb
00000170: 3dc8 54bc 0324 6d3c 67ae 883c 203c e2ba
00000180: 8f02 9a3c 3386 2a3c dfba c7ba 0be2 ba3b
00000190: e39f f43b bc96 ad3b e7e9 83bc 07b3 2cbb
000001a0: 4292 053c aaa9 273c eb06 bc3c 5483 c43b
000001b0: ffb3 c5bb c38c 493b 25f5 5ab9 5433 9fbb
000001c0: 6f27 863b 4791 00bc 175f e3bb 5bd0 6dbb
000001d0: 5881 1fbc e722 45bc 91ef 90bb b87a e7bb
000001e0: 5b07 5fba 61e1 1ebb d79a 8eb9 3cfb 8a3a
000001f0: a905 15bb 11a3 b638 8ee7 ab3b ca9b 7dbb
00000200: bd93 b23b a22b 923c 1825 c4bb b8c8 3b3c
00000210: b18b 01bc 227e f1bb 5336 133c bfe6 9abb
00000220: a1a4 20bc 17c3 673c 89ec 3bbc 5db1 913c
00000230: 337e b0bc a347 d43b f381 42bb ba90 efbb
00000240: aea0 31bc af45 913a a2ee 443b 7b66 893c
00000250: 940a 2bb8 cf72 f93b 072d 903b ffb8 89bb
00000260: 20d7 49bc de56 043b 4dd9 be3b 6584 d8bb
00000270: 1ad0 38bc 851b 5c3b 182e f5ba ceb9 bd3a
00000280: 3cb2 bc3b c178 47bc 487d 663b cfe6 6abc
00000290: 3bb3 91bb 0ce8 1abc b741 02bb f714 9f3b
000002a0: 9085 62bc b39e 1bbb 0db4 54bc 8e0d 173c
000002b0: 3f9a 1a3c 3aad 923b 3bdb d6ba 08ce ce3a
000002c0: aac8 8d3a 0b83 c0bb 5c34 bcbb c2a3 bc3c
000002d0: 5ff2 86b9 cdad 5b3b 90cd 173c b849 4ebb
000002e0: 93c8 1fbc a647 3e3c 1de2 bcb8 179d 573c
000002f0: f02f 5d3b e844 f2ba ac30 0bbb eb09 0ebb
00000300: 2759 923b d027 d9ba 3021 27bc 7bde 073c
00000310: f82b 57bc af44 1c3c 274c 223b aeb1 153c
00000320: 1ef2 a1bb a34f 53bb c7de 4cbb 576d 50bc
00000330: ef73 7bbb 3354 2dbc c96d adbb ffe8 483c
00000340: 0f50 ee3a 2b48 6c3c 95ef b93b 1fc6 a83a
00000350: c211 96bb fee3 85bb 6707 193c 7691 163c
00000360: af96 e73b 5dcc 20bc 2406 26bc db6c cabc
00000370: a0f6 c13c 6b70 6f3c 6e86 983b 1be1 3fbb
00000380: 3c37 843c e38d 4fba 0044 1dbc 4fb1 2cbc
00000390: 230c 92bb 0418 a93b cb15 b63b 3f24 863c
000003a0: 37e8 813b 32d8 7dbc 74e3 ba39 6bd3 37bb
000003b0: 5b16 b63b 2e21 213c a020 883c cf0e 23bb
000003c0: ccd4 a1ba 8bc5 613c bda6 7a3a d3ab 96bc
000003d0: 9f0b c5bb 7dc7 873a 3d73 663b e0cc 513c
000003e0: 02e9 aa3a b7ae 72bc 4906 9bbc 69bb 99bb
000003f0: fdd9 9f3b 8ede 03bc bddc 80bb 184a 10bc
-0.00018747534 0.0015449612 0.008099905 0.0063539594 -0.004745877 0.006806753 -0.001203696 -0.0023922916
-0.004115607 -0.005458548 -0.0066943043 0.008081339 -0.006113982 0.009170479 -0.0029194169 -0.0010855597
0.006780705 0.0036706515 -0.0031699426 -0.00531867 -0.007491973 -0.017902352 -0.002553092 -0.01220222
-0.009492107 -0.008066143 -0.0060623176 -0.007928191 -0.0020459366 -0.008722151 -0.0010907203 -0.01120934
-0.0019907076 -0.0048951465 0.004312929 0.009597906 0.008902275 -0.0026186993 0.012090973 -0.0028870718
-0.007842704 0.022396503 0.0032483866 -0.0054655904 -0.002453652 0.0019592894 0.0013074973 -0.003952352
0.006033481 -0.0057105403 -5.3600856e-05 0.00087781233 0.023229765 -0.0010355171 0.00017304135 0.004815694
0.0019394116 -0.009367145 -0.0018960967 -0.0051623676 -0.009973521 -0.010407982 0.0011445143 -0.009385794
-0.0067910524 -0.0020915205 0.006726701 -0.015828928 -0.011487748 0.018098852 0.006620554 0.0013925387
-0.011112238 -0.024288693 0.0043804897 -0.0055941395 -0.012977608 -0.006133759 0.011837311 0.012578703
-0.008177708 -0.0060106744 0.0060360734 0.0029680633 0.011317039 -0.0060669365 0.012490437 -0.003906393
-0.001659564 -0.00026437693 0.0009818234 -0.004591994 -0.012987194 0.014473918 0.016684724 -0.001726035
0.018800048 0.010407972 -0.0015238187 0.005703216 0.007465349 0.00529751 -0.016102744 -0.0026351826
0.008152546 0.010233322 0.022952517 0.005997101 -0.00603342 0.0030754067 -0.00020881424 -0.0048584137
0.0040940563 -0.007847137 -0.006938826 -0.003628752 -0.009735428 -0.012032247 -0.00442309 -0.0070641898
-0.0008507871 -0.0024243223 -0.00027199715 0.0010603438 -0.002273897 8.70881e-05 0.0052461093 -0.0038697594
0.0054497407 0.017843071 -0.005985867 0.011461429 -0.00790684 -0.0073697725 0.00898512 -0.004727214
-0.009804876 0.014145634 -0.011469969 0.017784769 -0.021544551 0.0064782663 -0.0029679507 -0.007310954
-0.010841532 0.0011083389 0.0030049463 0.0167725 -4.077943e-05 0.007612563 0.004399899 -0.0042029615
-0.012319356 0.0020193378 0.005824244 -0.0066075795 -0.011280084 0.003358574 -0.0018705754 0.001447493
0.005758552 -0.012174786 0.0035169888 -0.014337256 -0.0044464148 -0.009454738 -0.0019875595 0.004854794
-0.013825789 -0.0023745715 -0.012982381 0.00921954 0.009436189 0.0044762166 -0.001639224 0.0015777955
0.0010817249 -0.0058749965 -0.0057435464 0.023027305 -0.00025739052 0.0033520341 0.0092653185 -0.0031477045
-0.00975241 0.011613762 -9.0066555e-05 0.013160012 0.0033750497 -0.001848367 -0.0021238727 -0.0021673392
0.004466194 -0.0016567651 -0.010200784 0.00829279 -0.013133042 0.00953786 0.0024764629 0.0091366
-0.0049421927 -0.0032243512 -0.0031260715 -0.012721381 -0.0038368662 -0.010579157 -0.0052926284 0.012262582
0.0018181818 0.014421503 0.0056743124 0.0012876427 -0.0045797536 -0.0040860167 0.009340144 0.009189954
0.0070675234 -0.009814349 -0.0101333 -0.02471011 0.02367717 0.014614205 0.004654697 -0.002927846
0.016139619 -0.0007917566 -0.009598732 -0.010540321 -0.004457013 0.0051603336 0.005556797 0.016374705
0.0039644497 -0.0154934395 0.0003564615 -0.00280496 0.005556864 0.009834571 0.01661712 -0.0024880653
-0.0012346744 0.013780008 0.0009561589 -0.018392479 -0.0060133482 0.0010359135 0.0035163902 0.012805194
0.0013039412 -0.014812163 -0.018923895 -0.0046915305 0.004878281 -0.008048667 -0.003932564 -0.008806728

action_model._discrete_distribution.branches.1.bias f4 [3]
00000000: 0000 0000 0000 0000 0000 0000
0.0 0.0 0.0

action_model._discrete_distribution.branches.1.weight f4 [3, 128]
00000000: e4a0 0d3b 0609 3cbc e5bc ac3b 5fe2 19bb
00000010: 2a6f ad3a 1169 953a dfa3 4a3b 2f7d 8f3b
00000020: d95a 443c ec57 3ebc b87d 9fbb 569f 19bc
00000030: 3825 c8bb 9d04 65bc 3c2a b8ba 8c24 253a
00000040: 5f52 3fbb bb39 aabb bb18 c03b df76 5bbc
00000050: 8090 263c 238c 31bc a71c 91bb 936d 2a3c
00000060: 5818 77bb 3490 483c ab91 973c 4764 a4bb
00000070: afd4 81bc c3fa e3bb 0f8e 7e3c 0fa0 84bb
00000080: d9b0 bebb 1321 0fbb cb9d 1ebc eb70 8f3c
00000090: 3f12 20bc a310 5d3c 902e e0ba 9e89 8fbb
000000a0: 4bd9 06bc 8737 043c 1b10 bbbb 9b9f 2bbc
000000b0: 75e9 623c 6007 cabb b4a8 423c 07d5 10bc
000000c0: b021 ff3b 938e 84ba 259f 71bc 4378 a63b
000000d0: 5a54 333b 978c c93b c2eb 783c d923 9d3b
000000e0: 55c5 f33a 9b00 2f39 c757 c03b 1a1a 113c
000000f0: 116f a4bc b318 53bb 6435 b6bb 9718 2e3b
00000100: b35a 983a 1382 6e3b 3ad7 d83b ac2c 1d3c
00000110: 55a6 b1ba e8f9 593b 36a4 853b a4d5 1fbb
00000120: 2a10 20bc c3c6 0f3b 0a45 32bc 0540 edbb
00000130: f507 3d3c 4f6f e3bb 1d60 09bb f0ec baba
00000140: 8561 7dba 8a12 f6bb de3d a23c 6cd1 173c
00000150: e21c 4ebc d0a9 9d3b 7b68 c63b 9d19 98bb
00000160: 94f1 9b3b ffb7 d03a c1ab 413c af24 5c3c
00000170: e7ef d7bb 9b76 2cbc 26e9 aab9 1684 31bc
00000180: 5dc2 053c be14 8abc 659c 0d3c cd2e 5e3b
00000190: d4ca 37bc 1bc4 25bc be83 463a 87b3 203c
000001a0: 5304 08bc bf71 5fbb e338 18bc d726 0e3c
000001b0: 97e5 9b3a 5d0c 223a 8a53 ddba 8f63 5e3c
000001c0: 40cf afbb 8850 5bbc 13d9 cabb 15e3 923c
000001d0: a0a2 033c b76b c73b 60c2 3a3a 47e3 8f3b
000001e0: 4ad9 bbbb efab 06bb c13b 463c 6b37 28bc
000001f0: 011c 06bc d513 d13b 9067 be3c ab65 0c3b
00000200: 70b8 f4bb af44 4bb9 dfd4 2abc ccda b8bb
00000210: 7eed 0cbc 3640 9b3c c55c 5b3b a398 af3c
00000220: 5132 39bc d8f0 e73a 5ab9 e7ba 0dac 0a3b
00000230: 37e7 79bb e56d 4dbc b951 18ba bdfb 4bbc
00000240: 8b19 fe3b 6346 b0ba 1e4c 01bc 8b6a 013b
00000250: b8f9 9eba 560e ac3b dc09 c539 ae60 82bc
00000260: 3ba0 423b 37e2 32bc 5f87 0abb 36fc bb3c
00000270: df4e 8f3b 6cf4 c9bb 961f 263b b330 1b3c
00000280: 4fca ee3b 5b1c afbb 8255 413b aa1b 423b
00000290: 5a79 23bc 7ba6 bdbb 502e 973c 2a08 d3ba
000002a0: fda8 acbb 08a4 26bc dc02 0e3c 17d4 2ebb
000002b0: f361 2cbb 97f6 a23b bc06 08bc e72c ffbb
000002c0: 03f7 0b3b 0946 113b 424c 57bc dbc7 85bc
000002d0: 0f69 e9bb 5fc4 703b 5e31 13bc d5bc 95ba
000002e0: 92fd eb3b ce87 02bb 2790 5b3b b682 123c
000002f0: a14f bfbb bfee dabb 2f8e e6b9 3bd4 c13b
00000300: 3d9f 3cbb 307e 393a 9aeb 65bb 7044 9cbb
00000310: 6179 1cbc eb85 cfbb 4fd6 c63b 32f6 d83b
00000320: 47ff 6e3c 0d70 e1ba 934c 2a3b 91eb 023b
00000330: e06c 1c3c abd9 e3ba 1f8c 3d3b 8199 a9bb
00000340: 8d71 91bb af4d 8ab9 1884 e5bb 16d7 433b
00000350: 8f50 8e3c 257a 093b 173b a13b 099d 04bc
00000360: af50 9a3a 1e04 08bc 42de b13b 2a60 d23c
00000370: c3cd 06bb a0e1 77bb 3f27 59bb a80b a0bc
00000380: a113 a33b d8d4 8a3b ada4 6ebb 749b 19bc
00000390: 2efd 263b 53bf b93b e94e c2b9 ad1a 9539
000003a0: f8ce adbb daf2 f83b 875e 473c 04ee 953b
000003b0: 1ff7 f83b 1519 d93a a1bc 91bb 13ed 23bc
000003c0: 8b7f 92bb e0f4 01ba 77b7 7bbc d662 3fba
000003d0: 3f2d f439 b8e6 df3b b0ff 53bc 7a33 593b
000003e0: a4f5 98bb 7da7 803b cf64 013c 0691 453b
000003f0: 5249 d7ba fdc8 833c 1789 f03b 770a 8c3c
0.002161079 -0.011476761 0.0052715414 -0.0023480875 0.0013231982 0.001139911 0.0030920429 0.0043789367
0.01198455 -0.011617642 -0.0048672818 -0.009376368 -0.0061079524 -0.013978151 -0.0014050673 0.00062996964
-0.0029193384 -0.0051948703 0.005862323 -0.01339504 0.010166287 -0.010836634 -0.0044284645 0.010402101
-0.003770372 0.012241412 0.018502077 -0.005016837 -0.015848486 -0.0069573834 0.015536799 -0.004047401
-0.0058194217 -0.0021839782 -0.009681175 0.017509898 -0.009769975 0.013492736 -0.001710372 -0.004380419
-0.008230518 0.008069879 -0.005708707 -0.010475065 0.013849606 -0.00616543 0.011881042 -0.008839852
0.0077859983 -0.0010113291 -0.014747416 0.0050802543 0.002736351 0.006150793 0.015192928 0.004795533
0.0018598238 0.00016689526 0.005869839 0.008856321 -0.020072492 -0.0032210767 -0.005560564 0.002656495
0.001162371 0.0036393448 0.006617454 0.00959317 -0.0013553599 0.0033260528 0.0040784134 -0.0024388814
-0.009769479 0.002193854 -0.010880718 -0.0072402977 0.011537542 -0.0069407593 -0.002096183 -0.0014261287
-0.00096657156 -0.0075095342 0.019804891 0.009266239 -0.012580128 0.004811503 0.0060549355 -0.004641725
0.004759023 0.0015923976 0.0118207345 0.01343648 -0.006589878 -0.010526325 -0.00032598636 -0.010834714
0.008164016 -0.016855594 0.008643244 0.0033902407 -0.011217792 -0.010117556 0.00075727317 0.009808428
-0.008301812 -0.0034094898 -0.009290907 0.008676252 0.0011893985 0.0006181652 -0.0016885858 0.013573541
-0.0053652823 -0.013385899 -0.006190428 0.017930547 0.008034378 0.0060858387 0.0007124301 0.0043911072
-0.00573269 -0.0020549258 0.012099207 -0.010267119 -0.008185388 0.006380538 0.023242742 0.0021422904
-0.0074682757 -0.00019385175 -0.010426729 -0.005641317 -0.008601544 0.018951517 0.0033472043 0.021435088
-0.0113035 0.0017695678 -0.001767914 0.002115968 -0.00381322 -0.012538408 -0.00058105175 -0.012450156
0.00775451 -0.0013448711 -0.007891683 0.0019747342 -0.0012128865 0.0052507324 0.00037582114 -0.015915241
0.0029697556 -0.010918192 -0.0021137816 0.022947412 0.004373416 -0.0061631706 0.0025348417 0.00947206
0.0072873007 -0.0053439564 0.002950043 0.002961854 -0.009977663 -0.0057876683 0.0184547 -0.0016100456
-0.0052691684 -0.010170944 0.008667674 -0.0026676708 -0.00263035 0.0049732435 -0.008302387 -0.007787335
0.0021356947 0.0022166988 -0.01314074 -0.01633065 -0.0071231197 0.003673814 -0.008983938 -0.0011424074
0.007201859 -0.0019917372 0.003350267 0.008942297 -0.00583835 -0.006681293 -0.00043974954 0.0059151924
-0.0028781437 0.00070759933 -0.0035083056 -0.0047689006 -0.009550423 -0.006333103 0.006068028 0.0066211456
0.01458723 -0.0017199531 0.0025985583 0.0019976834 0.009547442 -0.0017383596 0.002892263 -0.00517577
-0.004438585 -0.0002637929 -0.007004272 0.002988284 0.017372398 0.0020977345 0.004920374 -0.008094081
0.0011773313 -0.008301763 0.0054281065 0.02568062 -0.002056942 -0.0037823692 -0.0033134965 -0.019536808
0.004976705 0.0042367987 -0.0036414072 -0.009375442 0.0025480497 0.0056685596 -0.00037061356 0.0002843937
-0.0053042136 0.0075973095 0.012168533 0.004575493 0.0075978185 0.0016563261 -0.004447535 -0.010005253
-0.0044707707 -0.00049574487 -0.015363566 -0.00073007995 0.00046573018 0.0068329237 -0.012939379 0.0033142255
-0.0046679545 0.003926216 0.00789757 0.0030146255 -0.0016425049 0.01608705 0.007340561 0.017094834

network_body.linear_encoder.seq_layers.0.bias f4 [128]
00000000: 0000 0000 0000 0000 0000 0000 0000 0000
00000010: 0000 0000 0000 0000 0000 0000 0000 0000
00000020: 0000 0000 0000 0000 0000 0000 0000 0000
00000030: 0000 0000 0000 0000 0000 0000 0000 0000
00000040: 0000 0000 0000 0000 0000 0000 0000 0000
00000050: 0000 0000 0000 0000 0000 0000 0000 0000
00000060: 0000 0000 0000 0000 0000 0000 0000 0000
00000070: 0000 0000 0000 0000 0000 0000 0000 0000
00000080: 0000 0000 0000 0000 0000 0000 0000 0000
00000090: 0000 0000 0000 0000 0000 0000 0000 0000
000000a0: 0000 0000 0000 0000 0000 0000 0000 0000
000000b0: 0000 0000 0000 0000 0000 0000 0000 0000
000000c0: 0000 0000 0000 0000 0000 0000 0000 0000
000000d0: 0000 0000 0000 0000 0000 0000 0000 0000
000000e0: 0000 0000 0000 0000 0000 0000 0000 0000
000000f0: 0000 0000 0000 0000 0000 0000 0000 0000
00000100: 0000 0000 0000 0000 0000 0000 0000 0000
00000110: 0000 0000 0000 0000 0000 0000 0000 0000
00000120: 0000 0000 0000 0000 0000 0000 0000 0000
00000130: 0000 0000 0000 0000 0000 0000 0000 0000
00000140: 0000 0000 0000 0000 0000 0000 0000 0000
00000150: 0000 0000 0000 0000 0000 0000 0000 0000
00000160: 0000 0000 0000 0000 0000 0000 0000 0000
00000170: 0000 0000 0000 0000 0000 0000 0000 0000
00000180: 0000 0000 0000 0000 0000 0000 0000 0000
00000190: 0000 0000 0000 0000 0000 0000 0000 0000
000001a0: 0000 0000 0000 0000 0000 0000 0000 0000
000001b0: 0000 0000 0000 0000 0000 0000 0000 0000
000001c0: 0000 0000 0000 0000 0000 0000 0000 0000
000001d0: 0000 0000 0000 0000 0000 0000 0000 0000
000001e0: 0000 0000 0000 0000 0000 0000 0000 0000
000001f0: 0000 0000 0000 0000 0000 0000 0000 0000
0.0 0.0 0.0 0.0 0.0 0.0 0.0 0.0
0.0 0.0 0.0 0.0 0.0 0.0 0.0 0.0
0.0 0.0 0.0 0.0 0.0 0.0 0.0 0.0
0.0 0.0 0.0 0.0 0.0 0.0 0.0 0.0
0.0 0.0 0.0 0.0 0.0 0.0 0.0 0.0
0.0 0.0 0.0 0.0 0.0 0.0 0.0 0.0
0.0 0.0 0.0 0.0 0.0 0.0 0.0 0.0
0.0 0.0 0.0 0.0 0.0 0.0 0.0 0.0
0.0 0.0 0.0 0.0 0.0 0.0 0.0 0.0
0.0 0.0 0.0 0.0 0.0 0.0 0.0 0.0
0.0 0.0 0.0 0.0 0.0 0.0 0.0 0.0
0.0 0.0 0.0 0.0 0.0 0.0 0.0 0.0
0.0 0.0 0.0 0.0 0.0 0.0 0.0 0.0
0.0 0.0 0.0 0.0 0.0 0.0 0.0 0.0
0.0 0.0 0.0 0.0 0.0 0.0 0.0 0.0
0.0 0.0 0.0 0.0 0.0 0.0 0.0 0.0

network_body.linear_encoder.seq_layers.0.weight f4 [128, 29]
00000000: 4f7e 8f3e 540d 163e d271 883e 12e5 b0be
00000010: 7988 4fbe 4102 6cbe 3ab9 a33d 9149 673d
00000020: 3439 04bd b3de 133e e394 203d c078 8c3d
00000030: db64 0f3e 946e 60be 1698 52bd 5cc8 1abe
00000040: 9c22 913e 59d4 65be 949d f9bd 6c50 b9bd
00000050: d53c c43e 8842 babc ecb4 0a3d 7c39 97be
00000060: a5b9 673e dd49 a5bd 2eab 6f3e 800b 88be
00000070: b038 e9bc 6b0a 433e 5e4d c23e aa09 1b3e
00000080: 7cd2 033c 8459 c93b f928 753e e8e0 31be
00000090: 605e 64be 9224 50be 778b 7bbe d09e 3b3e
000000a0: 780e 8ebe 886c ff3d 5b6a ee3d dde1 7e3e
000000b0: b818 f83b 7fb8 a9bd 681d 33bd 279c a53d
000000c0: ab05 81be e229 1ebe a568 84be b905 0a3e
000000d0: ef3d e93a c452 823e 5d66 9bbe 1c14 223d
000000e0: 4205 433e 5d9a e93d 3518 dbbd 2088 12bc
000000f0: 5a92 863c 243b c13d 4382 313e 25fa 443e
00000100: 5097 f03c 6aca d23b 8791 643e 4b59 f6bc
00000110: 1bc7 da3c ab89 5cbd d324 d7be b66c d13d
00000120: 1a7e 8fbe d7be 833e 8629 34be 5f0d 103c
00000130: f74e da3c 5934 4d3e b3a6 f53d 7c7b 8bbe
00000140: 52b0 f73c 3b05 3abe b495 8a3d 0ebe 4fbe
00000150: 33ea e03b 5f4a ec3c 7705 85bc 49cf 903e
00000160: 13e0 84be e931 11be f076 a43d 4d8c 6f3e
00000170: d2ea c2be 31b7 6f3e 1a0a 6abe 34ea 35be
00000180: d808 ae3c a467 dfbd 1d31 d03d 3610 d0bd
00000190: 68b5 6dbe 9f09 22be 5aa2 563e 07db 04be
000001a0: e7fd a8bc 4d96 f8bb cc2c 10be 8155 f93c
000001b0: cfce 383e 56a8 383e 2dc3 053e c6db 933e
000001c0: a236 c83d d166 9d3c 9c58 9b3d 36b3 9cbd
000001d0: 795f be3d 00c0 a7bd 2b8d 08bd 7c79 afbe
000001e0: 36aa 3cbe 9bf6 7d3d 98ec 763d b838 e8be
000001f0: 55e3 943e e90a 8f3e 8f82 c63d 06f8 cd3d
00000200: d104 c4bc 2c52 d43e b7bf 363e 07e3 28be
00000210: 71ad 05be 94df 97be 015b 01be b96c ae3e
00000220: e872 a13e 1e99 ec3c 95e3 563e 811a fa3d
00000230: be9a 293e 9f6f 2e3c 373c 483e 7c4d 2b3e
00000240: 90cb 34bd 7a0e f83d 391f adbd a12e 8d3d
00000250: 1834 263e 4d25 3c3e feb3 a5bd fb03 303d
00000260: 1aed e6bd b9cf ac3d 3b14 d6be b957 ddbd
00000270: d4bd e8bd 8093 4abe 7b21 e43d b0d2 8fbe
00000280: 1a01 08be ec6d 2d3d dede 89be c138 84be
00000290: 39eb 8fbd 1e19 403d 99cc 843b b2a0 b2be
000002a0: e588 763d 65b0 b5bb a48c 9d3b 34d0 2c3e
000002b0: 555f 833e cdba c1bc b62d f43d 1239 0d3e
000002c0: cdb4 39bc d638 8e3d a8b4 973d 9a26 cc3d
000002d0: 3902 0e3d 69ce 483e ae55 e2be 5434 86be
000002e0: 9502 933d 9e38 9a3d 42ba 843e d754 85be
000002f0: d5b0 4f3e 5c16 27be 7c34 efbe 08dc 8bbc
00000300: 380f b23c 9cc3 a4bd 1c0d 3d3e 6aba d3bd
00000310: 6066 563e d3f3 043d 05d0 ab3e ac00 eebd
00000320: 5a24 56bc 221c 7a3e 44b2 b33e 3e1f 753c
00000330: e0aa 12be 33c1 333d 7eb1 613d 0443 dfbd
00000340: 1ac4 dcbd fa70 5cbe 7214 eb3c b58a 663b
00000350: 4a9e b9bc 3276 47bc e29b 80be 02a3 58be
00000360: 7725 353c d300 23be 7747 04bf ceb0 cb3e
00000370: 5e64 2a3d 649a 5cbe 2b1a 103e 7900 bfbe
00000380: b067 11be f689 e8bd a871 4f3e 6274 c43d
00000390: 62e6 1abe 9c9a e83c 23c2 edbe 3978 163e
000003a0: 3b6e 583e 2825 173e e709 7ebe 3167 f63c
000003b0: f7cd 933d 4343 413e aebe 2ebe 11e3 d63d
000003c0: 0b14 bcbd 53db c7bc 6a8b 5ebd 0cb1 5a3e
000003d0: 2882 12be d4ff 083e 6107 f9bd 81f4 1fbe
000003e0: 7620 713e b6e7 a63d 52c2 f3bd a38b 953d
000003f0: ff7b 95be 78fd 293e abde cd3c 4ae2 153c
0.28026053 0.14653522 0.26649338 -0.34549767 -0.20266904 -0.23047735 0.079943135 0.056466643
-0.032281116 0.14440422 0.03920449 0.06858969 0.14003317 -0.21917182 -0.05141457 -0.15115494
0.28346717 -0.22444285 -0.12188259 -0.090485424 0.3832766 -0.022736803 0.033863947 -0.29536045
0.22629412 -0.08070729 0.23405144 -0.26571274 -0.028469414 0.19046943 0.3794965 0.15140405
0.008045789 0.0061447043 0.23941411 -0.17370951 -0.22301626 -0.2032645 -0.2456492 0.18322301
-0.27745414 0.124718726 0.116413794 0.24890848 0.007571306 -0.08287143 -0.043729216 0.08086424
-0.25199637 -0.15445665 -0.25861087 0.13478746 0.0017794947 0.2545377 -0.30351534 0.03956996
0.19044974 0.114063956 -0.106979765 -0.008943588 0.016427208 0.09435108 0.17334847 0.19236048
0.029369026 0.006432821 0.2232114 -0.030071875 0.026706269 -0.053842228 -0.42020282 0.10225813
-0.28025895 0.25731537 -0.17593965 0.00879225 0.026648981 0.200395 0.11994686 -0.2724265
0.030235443 -0.18166058 0.06766835 -0.20287344 0.006863856 0.028844057 -0.016237957 0.28283146
-0.25952205 -0.14179195 0.08030498 0.23393364 -0.3806978 0.23409726 -0.22855416 -0.17765123
0.021244451 -0.1090844 0.101656176 -0.10159342 -0.23213732 -0.15823983 0.2096037 -0.12974177
-0.020628883 -0.0075862766 -0.14079589 0.03043628 0.18047641 0.18032965 0.13062735 0.2887861
0.097760454 0.019214066 0.0758526 -0.07651369 0.09295554 -0.08190918 -0.033337753 -0.34272373
-0.18424305 0.06200276 0.060284227 -0.45355773 0.2907969 0.2793801 0.09692871 0.10057072
-0.023928078 0.41468942 0.17846571 -0.16492854 -0.13054444 -0.29662764 -0.12632371 0.34067324
0.3153298 0.028881606 0.20985253 0.122120865 0.16562936 0.01064673 0.1955422 0.16728777
-0.044139445 0.12112136 -0.08453221 0.068936594 0.1623081 0.18373604 -0.080909714 0.042972546
-0.11275692 0.084380575 -0.4181231 -0.108077474 -0.11364332 -0.1978283 0.111391984 -0.2809043
-0.1328167 0.042341158 -0.26927847 -0.2582455 -0.07027287 0.046898954 0.0040527103 -0.34888226
0.060189147 -0.0055447095 0.0048080254 0.16876298 0.2565867 -0.023648644 0.11922781 0.13791302
-0.01133461 0.06944434 0.07407504 0.099683 0.03467009 0.19609989 -0.44205993 -0.26211798
0.07178227 0.0753033 0.25923353 -0.2604129 0.202823 -0.16317123 -0.4671973 -0.017072693
0.021735772 -0.08045122 0.18462032 -0.1033829 0.2093749 0.03245909 0.33557144 -0.11621222
-0.01307019 0.24424794 0.35096943 0.014961062 -0.14322996 0.04388542 0.05510091 -0.10901454
-0.10779591 -0.21527472 0.028696273 0.003517789 -0.022658486 -0.012174176 -0.2511893 -0.21155933
0.011056296 -0.15918283 -0.51671547 0.3978333 0.041599624 -0.2154327 0.14072482 -0.37305048
-0.1419971 -0.11354439 0.202582 0.09592511 -0.15126947 0.028394036 -0.46437177 0.14694299
0.211358 0.14760268 -0.24808465 0.030078502 0.07217019 0.18873315 -0.17064926 0.10492528
-0.091835104 -0.024396574 -0.054332174 0.213566 -0.14307463 0.1337884 -0.121596105 -0.15620615
0.23547539 0.08149664 -0.11902298 0.07302024 -0.29196164 0.16600597 0.02513059 0.00914819

network_body.linear_encoder.seq_layers.2.bias f4 [128]
00000000: 0000 0000 0000 0000 0000 0000 0000 0000
00000010: 0000 0000 0000 0000 0000 0000 0000 0000
00000020: 0000 0000 0000 0000 0000 0000 0000 0000
00000030: 0000 0000 0000 0000 0000 0000 0000 0000
00000040: 0000 0000 0000 0000 0000 0000 0000 0000
00000050: 0000 0000 0000 0000 0000 0000 0000 0000
00000060: 0000 0000 0000 0000 0000 0000 0000 0000
00000070: 0000 0000 0000 0000 0000 0000 0000 0000
00000080: 0000 0000 0000 0000 0000 0000 0000 0000
00000090: 0000 0000 0000 0000 0000 0000 0000 0000
000000a0: 0000 0000 0000 0000 0000 0000 0000 0000
000000b0: 0000 0000 0000 0000 0000 0000 0000 0000
000000c0: 0000 0000 0000 0000 0000 0000 0000 0000
000000d0: 0000 0000 0000 0000 0000 0000 0000 0000
000000e0: 0000 0000 0000 0000 0000 0000 0000 0000
000000f0: 0000 0000 0000 0000 0000 0000 0000 0000
00000100: 0000 0000 0000 0000 0000 0000 0000 0000
00000110: 0000 0000 0000 0000 0000 0000 0000 0000
00000120: 0000 0000 0000 0000 0000 0000 0000 0000
00000130: 0000 0000 0000 0000 0000 0000 0000 0000
00000140: 0000 0000 0000 0000 0000 0000 0000 0000
00000150: 0000 0000 0000 0000 0000 0000 0000 0000
00000160: 0000 0000 0000 0000 0000 0000 0000 0000
00000170: 0000 0000 0000 0000 0000 0000 0000 0000
00000180: 0000 0000 0000 0000 0000 0000 0000 0000
00000190: 0000 0000 0000 0000 0000 0000 0000 0000
000001a0: 0000 0000 0000 0000 0000 0000 0000 0000
000001b0: 0000 0000 0000 0000 0000 0000 0000 0000
000001c0: 0000 0000 0000 0000 0000 0000 0000 0000
000001d0: 0000 0000 0000 0000 0000 0000 0000 0000
000001e0: 0000 0000 0000 0000 0000 0000 0000 0000
000001f0: 0000 0000 0000 0000 0000 0000 0000 0000
0.0 0.0 0.0 0.0 0.0 0.0 0.0 0.0
0.0 0.0 0.0 0.0 0.0 0.0 0.0 0.0
0.0 0.0 0.0 0.0 0.0 0.0 0.0 0.0
0.0 0.0 0.0 0.0 0.0 0.0 0.0 0.0
0.0 0.0 0.0 0.0 0.0 0.0 0.0 0.0
0.0 0.0 0.0 0.0 0.0 0.0 0.0 0.0
0.0 0.0 0.0 0.0 0.0 0.0 0.0 0.0
0.0 0.0 0.0 0.0 0.0 0.0 0.0 0.0
0.0 0.0 0.0 0.0 0.0 0.0 0.0 0.0
0.0 0.0 0.0 0.0 0.0 0.0 0.0 0.0
0.0 0.0 0.0 0.0 0.0 0.0 0.0 0.0
0.0 0.0 0.0 0.0 0.0 0.0 0.0 0.0
0.0 0.0 0.0 0.0 0.0 0.0 0.0 0.0
0.0 0.0 0.0 0.0 0.0 0.0 0.0 0.0
0.0 0.0 0.0 0.0 0.0 0.0 0.0 0.0
0.0 0.0 0.0 0.0 0.0 0.0 0.0 0.0

network_body.linear_encoder.seq_layers.2.weight f4 [128, 128]
00000000: 8dd4 84bd 99e9 483d ee3a 10be cb4c a0bd
00000010: beb1 b63c ebda 403e 412a ccbc b5f1 db3c
00000020: 66f6 62bc e142 163d 440a bf3d aae1 d5bd
00000030: cfd5 a23d 144e 88bd 7dc0 8dbd df4b b03d
00000040: b16e 983d 3fa5 f33c afbc 923d b50f c1bd
00000050: 4639 2fbd 3bf2 193e 3602 613e 72c1 bd3d
00000060: ab76 f9bd 7293 fdbc c472 ae3d 9b17 9e3d
00000070: e7af 8fba 3725 6d3d c769 c2bc 4d53 4f3e
00000080: 4c0d 963c 6caa 2ebb 0077 24bd b0c5 8e3d
00000090: e8bc ee3c f1ca 62bd a8d3 2cbe d5fc 69bc
000000a0: 9076 cd3d 258f 11bd cc7e a1bd 05f3 99bd
000000b0: ae27 703c b30c c9bd 1d90 c2bc b0ca 42bc
000000c0: a460 ad3d 2580 c63d 7924 ba3c 5696 b23d
000000d0: 2ba7 0b3b 8547 ea3c c28e 48bd 4cde 913c
000000e0: 170e dcbc 5d78 bbba 795d 4e3e 9227 283e
000000f0: aa83 163e c767 d5bd f9b4 bb3c d523 b7bc
00000100: 9e25 693d dcdb c23c 174c 043e 297b 943c
00000110: f1e6 b03d 8c76 2ebe 5593 f83d d365 cb3d
00000120: 6da7 913c d2b7 1d3d d217 9b3d d1a7 e3bd
00000130: 4e5b 09bd 2237 21be 5ab9 35be f34a 4bbd
00000140: eddf 14bd 66fc 18bc fa85 e3bc 29fd 5fbd
00000150: bbe6 973d 4695 0fbe dcbc ab3d 0afb bc3d
00000160: 857b 06be 30d8 e8bc 41d0 96bd ee15 af3c
00000170: 7482 953d 455c 2ebd 7e54 c33d d29e 07be
00000180: 9495 15be 0931 6cbd 8790 323d c34a 423b
00000190: 1332 ae3c 5c27 623d 587f 263d be81 d6bd
000001a0: a8c3 163c c681 703d 44d6 bb3d 7d85 1abd
000001b0: e626 a43d 1fec 88bd e08a dfbb f95e 4abd
000001c0: 8b4a 383d 99b7 23bd fd71 f03d aa37 fbbd
000001d0: 6105 a0bd ef3f b7bd dd86 9bbc 44fd 1dbe
000001e0: 2b8b 85bd 7ef6 2ebd 6a63 aa3d 0cf0 b33d
000001f0: 9bb4 1ebd 9f0f 4a3d 181f 2c3d 8763 d73d
00000200: 5ec6 8fbd 7a14 74bd 4ff6 9fbd e20e c9bd
00000210: 6349 143d acdb e0bd 8034 03be 7128 46bd
00000220: 0188 1a3e 96ab 953c d634 60bd ca4f 0b3c
00000230: c4be 6c3d 098b c8bd 452e a13d c4b4 3c3e
00000240: 0a97 35bb d7a7 9cbd 7f68 c1bc fdd5 993b
00000250: af7a 983d 0e4e babd 2ce4 cf3d db33 0b3c
00000260: 8b1e 4e3d 1dcd 8f3c a7b5 a63d 9548 973c
00000270: 657d cc3c 630f bebd 625c 72be 0aeb e73d
00000280: 9caf 5ebe dafe 8bbd 087a 1dbc b70e 043e
00000290: a644 93bd 1d28 01be 34cc 24be 3980 9abd
000002a0: 2647 04be 796f adbc 0662 06be b2f7 953d
000002b0: 0ac5 933d ce71 10bd dd95 82bd 24e5 81bd
000002c0: 6ae2 a8bd a9c1 90bd a6dc 86bc 968f f6bc
000002d0: de9b a43d e0b9 a43d a262 b2bd c136 263d
000002e0: 2e7b af3d a8fa c1bd 4340 533c 112f cf3d
000002f0: cd69 afbd abec 9fbd 834b 023b abc2 443d
00000300: 57df 343c 0550 8cbd ffba 04bb da68 c93d
00000310: adc5 babd e592 0fbe 79bc 26bc df1a a1bb
00000320: 3f9d 67bb a418 fa3d 09dc d9bd f7b0 ba3d
00000330: f678 8c3c 0b9f aebb e322 fbbd 575b 33bc
00000340: 3498 c23d bbd0 d53d ff32 2d3d 0f8b 20be
00000350: 6ea9 01be d097 74bd b51e 9d3d e1f0 c13d
00000360: 1bf0 a3bc 43c1 333c dc6e a63c 10a1 583d
00000370: fe78 853c 1901 dd3d 9024 bd3c 651c d9bd
00000380: 8244 63bd 12fe 3ebe 2ce4 bd3c 0512 393d
00000390: 365e 0c3d a451 a73d b66d f73d 76b3 ba3d
000003a0: 9493 9a3d ec84 873c ff7f 8e3b acad 113d
000003b0: eb35 d63c 6de3 a1bd dfa2 803d ed4f 02be
000003c0: e52d 16bd da80 8d3d 85a5 f4bc 4dcd 6c3c
000003d0: fbde 56bd f66e 09be 086e 753c c042 843d
000003e0: abd2 f23c 1681 1d3e 5f71 26bd e499 78bd
000003f0: 5a68 6f3e 27a4 de3c 0b19 833d c4af 6ebc
-0.06485853 0.0490509 -0.1408498 -0.07827147 0.022301551 0.1883351 -0.024922492 0.026848653
-0.013852691 0.036684874 0.0932813 -0.10443433 0.07950937 -0.06655517 -0.0692148 0.08608221
0.07442988 0.029741881 0.07164895 -0.09426824 -0.04277923 0.1503381 0.219735 0.092654124
-0.12180837 -0.030954096 0.085179836 0.07719346 -0.0010962457 0.05789682 -0.02373208 0.2024662
0.018316887 -0.0026651872 -0.04015255 0.069713 0.029142812 -0.05536932 -0.16877615 -0.014281471
0.100323796 -0.035536904 -0.07885513 -0.075170554 0.014657898 -0.09816875 -0.02375036 -0.011889145
0.08465698 0.096924104 0.02272247 0.087200806 0.0021309357 0.028598556 -0.04896427 0.017806195
-0.026862187 -0.0014302839 0.20152844 0.16421345 0.14698663 -0.104201846 0.022913443 -0.022355953
0.05692064 0.023786478 0.12919651 0.018125134 0.086377986 -0.1703741 0.12137476 0.09931531
0.01778003 0.038505383 0.07572903 -0.11115993 -0.03353434 -0.15743688 -0.17746487 -0.049632024
-0.036346365 -0.00933752 -0.027773846 -0.05468479 0.07417055 -0.14021787 0.083856314 0.092275694
-0.13133056 -0.028423399 -0.0736394 0.021372762 0.073002726 -0.042568464 0.095376 -0.13244179
-0.14607841 -0.05766395 0.043594863 0.0029646612 0.021264112 0.055213317 0.04064879 -0.10473965
0.0092019215 0.05871751 0.09171727 -0.03772496 0.08015232 -0.066856615 -0.006821975 -0.04940698
0.044992965 -0.039970014 0.117404915 -0.122664765 -0.07813526 -0.08947741 -0.018985206 -0.15428644
-0.06520685 -0.042715542 0.08319743 0.0878602 -0.038746458 0.049331304 0.04202184 0.1051703
-0.070202574 -0.05958984 -0.078106515 -0.09817292 0.0362028 -0.10979399 -0.12812996 -0.04837841
0.15090944 0.018270295 -0.05473789 0.00850291 0.057799116 -0.09792144 0.07870153 0.18428332
-0.0027708434 -0.076492004 -0.023609398 0.004694699 0.07445275 -0.09096919 0.10150942 0.00849625
0.050322097 0.01755386 0.08140116 0.018467227 0.024962137 -0.092802785 -0.23668054 0.11324127
-0.21746677 -0.068357185 -0.009611614 0.12896238 -0.07190828 -0.12612958 -0.16093522 -0.07543988
-0.12917766 -0.021171318 -0.1312333 0.07322635 0.072153166 -0.035264783 -0.063762404 -0.06342533
-0.0824631 -0.07068188 -0.016462635 -0.030097764 0.08037542 0.08043265 -0.08710219 0.04057956
0.085684165 -0.09471637 0.012893739 0.10116399 -0.08565102 -0.07808813 0.0019881434 0.048037212
0.0110395765 -0.068512 -0.002025306 0.09834452 -0.09119735 -0.1402088 -0.010176771 -0.0049165334
-0.0035341529 0.12211731 -0.106376715 0.091157846 0.017147522 -0.005329018 -0.122625135 -0.01094707
0.09501687 0.10440203 0.04228496 -0.15678047 -0.12662289 -0.059715092 0.076718725 0.09469772
-0.020011952 0.01097137 0.020316534 0.052887976 0.016293045 0.10791225 0.023088723 -0.10601119
-0.055485256 -0.18651608 0.02318009 0.0451832 0.034269534 0.081698686 0.120814726 0.09116261
0.075476795 0.016542874 0.0043487544 0.035566017 0.026148757 -0.07904706 0.06281065 -0.12725802
-0.036664862 0.06909342 -0.029864082 0.014453244 -0.052458744 -0.13421234 0.014979847 0.06458044
0.02964147 0.15381274 -0.040635463 -0.060693637 0.2337965 0.027177883 0.06401261 -0.014568273

network_body.vector_processors.0.normalizer.running_mean f4 [29]
00000000: 22f3 303f e90f 743e 35f8 863d 0af4 913b
00000010: b6ae 6e3d 6416 2e3f 0d0a 503e 8595 df3d
00000020: 1ae9 973b ddb4 553d b745 2c3f c4b4 683e
00000030: f5bf bf3d e909 863b 6ac6 6d3d 753e 243f
00000040: ad6f 893e 6835 913d 4376 d63b fffc 793d
00000050: 753e 243f ad6f 893e 6835 913d 4376 d63b
00000060: fffc 793d d588 0642 3318 ac41 42b1 a73c
00000070: 9850 9d3c
0.6912099 0.23834194 0.065903105 0.0044541406 0.058272086 0.68002915 0.20316334 0.109171905
0.004635942 0.052174438 0.67293876 0.22725207 0.09362785 0.004090537 0.05805055 0.641578
0.26843014 0.070902646 0.0065448596 0.06103229 0.641578 0.26843014 0.070902646 0.0065448596
0.06103229 33.633625 21.511816 0.020470265 0.01920347
