Assets/Models/Scena3/18Gen/iRobot 2.onnx (onnx, 88018 bytes, 10 tensors)

74 f4 [29]
0	0x3eea780a	0.45794708
1	0x3ecf974b	0.40545115
2	0x3e8f592b	0.27997717
3	0x3da0882a	0.07838471
4	0x3db114e8	0.08646566
5	0x3ee9f476	0.4569432
6	0x3ebd2bda	0.3694752
7	0x3ea9dd8e	0.33176845
8	0x3d9453a2	0.07242514
9	0x3daa6264	0.08319548
10	0x3ed85858	0.422549
11	0x3e9fdc5c	0.31222808
12	0x3ea2724e	0.31727833
13	0x3dc073d4	0.093970925
14	0x3dcd4ae3	0.10024049
15	0x3ed65eaf	0.41869113
16	0x3e968522	0.29398447
17	0x3ea7793a	0.32709676
18	0x3dc54173	0.09631624
19	0x3dcf7a4b	0.101307474
20	0x3ed65eaf	0.41869113
21	0x3e968522	0.29398447
22	0x3ea7793a	0.32709676
23	0x3dc54173	0.09631624
24	0x3dcf7a4b	0.101307474
25	0x419e2008	19.76564
26	0x413cb7ae	11.794844
27	0x3fbcee13	1.4760154
28	0x3fe56b82	1.7923434

action_model._discrete_distribution.branches.0.bias f4 [3]
0	0x00000000	0.0
1	0x00000000	0.0
2	0x00000000	0.0

action_model._discrete_distribution.branches.0.weight f4 [3, 128]
0	0x3b283692	0.0025667292
1	0xbc0349db	-0.008013214
2	0xbbcf8113	-0.0063325255
3	0xbc193f04	-0.009353403
4	0xba3dbd96	-0.00072380283
5	0x39ef581b	0.00045651276
6	0x3cc1336f	0.023584096
7	0xbb0963f8	-0.0020964127
8	0x3b967b65	0.0045923465
9	0xbb420947	-0.002960758
10	0x3ab0440d	0.0013448015
11	0x3c7c8b92	0.0154141355
12	0xbb8331fa	-0.0040037604
13	0xb9a6bb84	-0.00031801697
14	0xba06ecef	-0.0005147
15	0x3c528068	0.012847997
16	0xbc3b7c0a	-0.011443147
17	0xb94ccb6b	-0.00019530735
18	0x3c8e14e4	0.017343946
19	0x3bd20d12	0.0064102495
20	0x3abd3d9b	0.0014437916
21	0xbc9d52d9	-0.019204544
22	0xbb42f1ef	-0.0029746254
23	0x3bb67e1b	0.005569232
24	0x3befee08	0.0073220767
25	0xbafbb7a7	-0.0019204513
26	0x3b2ce0cc	0.0026379107
27	0xbc668055	-0.014068683
28	0xbbc9ab54	-0.006154457
29	0x3a08851b	0.00052078225
30	0x3b5e3f47	0.0033912228
31	0xbb4a646a	-0.0030882605
32	0xbb75f098	-0.0037527438
33	0x38356b7b	4.325386e-05
34	0xbc3666a3	-0.011132869
35	0x3c4f1742	0.012639822
36	0xbc0f519f	-0.008747487
37	0xb9f4599b	-0.00046606068
38	0xbacbd544	-0.0015551229
39	0x3b889425	0.004168051
40	0xbc53297a	-0.012888307
41	0xbca9795b	-0.02068775
42	0x3b964765	0.0045861476
43	0x3b690460	0.0035555586
44	0x3c6e2f15	0.014537592
45	0x3c46bb0f	0.012129559
46	0x3c7be42f	0.015374227
47	0xba93cdd8	-0.0011276556
48	0x3a9707b5	0.0011522683
49	0xba032857	-0.00050032645
50	0x3b19d2a3	0.0023471497
51	0xbc14939b	-0.009068395
52	0x3a624d02	0.0008632691
53	0x3c69daba	0.01427334
54	0x3c474c79	0.012164229
55	0x3a8ecbe0	0.00108945
56	0x3a86775f	0.0010258964
57	0xbc0877cb	-0.008329342
58	0xb9078bd7	-0.00012926698
59	0xbb046c58	-0.002020618
60	0x3c031474	0.008000482
61	0x3bdbb8aa	0.0067053633
62	0xbc2e0db7	-0.010623387
63	0xbaf93e05	-0.0019015676
64	0x3b9d49d7	0.004800062
65	0x3c181f8f	0.009284868
66	0x3c7ac3ba	0.015305454
67	0xbc3e7eec	-0.01162694
68	0x3ac69a9f	0.0015152282
69	0x3abfda7a	0.0014637255
70	0x395bf343	0.0002097609
71	0xbb58754f	-0.0033028906
72	0x3c6a8fa3	0.014316472
73	0xbb83d5c7	-0.004023287
74	0xbc9b200d	-0.018936181
75	0xbc4376dd	-0.011930195
76	0xba30c3a6	-0.0006743021
77	0x3c1727ff	0.009225844
78	0x3b4fa580	0.003168434
79	0x3c1db1bf	0.0096248975
80	0xbacf2d18	-0.0015806286
81	0x3c52e4ea	0.01287196
82	0x3b98bfb3	0.004661524
83	0x3beb4f05	0.0071810507
84	0xba1dc497	-0.0006018369
85	0x39895f4e	0.00026201684
86	0xba7d68eb	-0.0009666818
87	0x3c0d91e6	0.008640742
88	0x3ca4f320	0.020135462
89	0x3b0299da	0.0019928128
90	0xb9a88193	-0.00032139997
91	0x3bb03680	0.0053775907
92	0xbbd16068	-0.0063896663
93	0xbc2343c0	-0.009964883
94	0x3ba641d3	0.005073765
95	0x3acc8df7	0.0015606274
96	0x3ca96673	0.020678734
97	0x3b0e5d00	0.0021722913
98	0x3c8a5ff8	0.016891465
99	0x3c1d8708	0.0096147135
100	0x3bd2ea6b	0.006436636
101	0xbaf000d2	-0.0018310791
102	0xbc0c9d2e	-0.008582396
103	0x3ba077b0	0.0048970804
104	0xbc711985	-0.014715557
105	0xbc80bb0f	-0.015714196
106	0xbc6040c7	-0.013687319
107	0xbbb0ca72	-0.005395227
108	0xbbc7f6d6	-0.006102423
109	0xbc5bd4c5	-0.013417427
110	0x3b89f3bf	0.004209965
111	0xbc7ab42f	-0.015301748
112	0xbbbe3386	-0.005804482
113	0x3ac1bcbf	0.0014780982
114	0xbb85162b	-0.0040614805
115	0xbc2f6d88	-0.010707267
116	0xbabce4b5	-0.0014411422
117	0xbc051a63	-0.008123967
118	0xbb4cb823	-0.0031237684
119	0xbb1cb203	-0.0023909814
120	0xbb14e448	-0.0022719074
121	0xbbefdc05	-0.0073199295
122	0xbb2e15bb	-0.0026563245
123	0x3c8864df	0.016649662
124	0x3b6cd82a	0.0036139586
125	0x3b44cb72	0.003002849
126	0xbc04a50f	-0.008095994
127	0x3c16ff7f	0.009216188
128	0xbb823074	-0.003973061
129	0x39fb463a	0.00047926774
130	0x3b389a9b	0.0028168324
131	0x3bd16548	0.0063902475
132	0xbc9763ad	-0.018480146
133	0xbc215d51	-0.0098489085
134	0x3b253fc3	0.0025215007
135	0x3c0c190e	0.008550895
136	0xbc23800b	-0.009979258
137	0xbcbeb69b	-0.023280432
138	0x3c75e6d5	0.015008648
139	0xbc165342	-0.009175124
140	0x3c137dba	0.0090021435
141	0x3c876d00	0.016531467
142	0xb980106a	-0.00024426292
143	0xbb86b46f	-0.004110865
144	0xbc3d702f	-0.011562391
145	0xb9fa7978	-0.00047774217
146	0xbbf538b2	-0.0074835652
147	0xbc0bbe73	-0.008529293
148	0xbb30a226	-0.0026952117
149	0x3b24872e	0.0025104987
150	0xbb8cc064	-0.0042953957
151	0xbc8d16fb	-0.017222872
152	0x3bf9f5d7	0.0076281833
153	0x3b181c7f	0.0023210344
154	0x3a1c487f	0.00059617305
155	0xbb866d30	-0.0041023716
156	0xbc45aa7f	-0.012064575
157	0x3c5186b2	0.0127884615
158	0xbb841500	-0.0040308237
159	0x3c306180	0.010765433
160	0xbc35ad88	-0.011088736
161	0xbc187b67	-0.009306765
162	0xbc14b1ec	-0.009075623
163	0x3b04c04c	0.002025622
164	0x3a918fa0	0.0011105426
165	0xbbe7080d	-0.0070505203
166	0x3b922471	0.0044599106
167	0xbc1a9e7f	-0.0094372025
168	0x3c4a100b	0.0123329265
169	0xba9cf636	-0.0011975232
170	0x3ac1b240	0.0014777854
171	0x3b6ae60d	0.0035842687
172	0x3c499b7c	0.012305137
173	0xbbc77d9e	-0.006087973
174	0xba6a8df7	-0.0008947546
175	0xbadc4d3d	-0.0016807687
176	0x3a205e3b	0.0006117557
177	0x3a6bc165	0.00089933566
178	0xbc218937	-0.009859375
179	0x3a5452f5	0.000809952
180	0x3c36e111	0.011162058
181	0xbc59428a	-0.013260493
182	0xbbb6f4c6	-0.0055833785
183	0x3c1287d1	0.008943514
184	0xba3758a7	-0.0006994106
185	0xbbf17393	-0.007368514
186	0x3bd77c2b	0.0065760813
187	0x3b1cc121	0.0023918825
188	0x3c00789f	0.007841258
189	0x3b0998e0	0.0020995662
190	0x3c30415f	0.010757773
191	0x3c960be9	0.018316226
192	0x3b637527	0.003470728
193	0xb9ac565d	-0.00032870742
194	0x3b15360b	0.0022767808
195	0x3c040f23	0.0080602495
196	0xbc0685c5	-0.008210604
197	0xbbfdd107	-0.0077458653
198	0xbbaced36	-0.005277301
199	0xbb1d7712	-0.002402727
200	0xbc568bad	-0.013094825
201	0x3bd824ba	0.006596175
202	0xbbcdbe4d	-0.006278789
203	0x3b59c59d	0.003322936
204	0x39f3fca2	0.00046536798
205	0xbc01b85c	-0.00791749
206	0xbb85c645	-0.0040824735
207	0xbc5254ad	-0.012837571
208	0xbb56c768	-0.0032772664
209	0xbbfa69a5	-0.0076419883
210	0xbaba3c94	-0.0014208728
211	0xbb4310c2	-0.0029764627
212	0x3bdca71f	0.0067337896
213	0xbb06f094	-0.0020590173
214	0x3beedb63	0.0072893365
215	0xbc29de88	-0.010367997
216	0xbbab3700	-0.0052250624
217	0xbbf2e80f	-0.0074129174
218	0x3c152762	0.009103628
219	0x3b16a2ab	0.0022985141
220	0x3c8115e4	0.015757509
221	0xbb000ff0	-0.001954075
222	0x3b35693d	0.0027681135
223	0xbac4892b	-0.0014994493
224	0x3c1befe5	0.0095176445
225	0x3be45abb	0.0069688237
226	0xbbbdada4	-0.005788522
227	0x3c4d0dc7	0.012515492
228	0xbb8f341b	-0.004370225
229	0x3b8aa068	0.0042305477
230	0xbbfb9170	-0.0076772496
231	0xbb44e79c	-0.0030045277
232	0x3c506675	0.01271974
233	0x3ae00558	0.0017091436
234	0xbc2633d8	-0.010144196
235	0x3b326f58	0.002722701
236	0xbb99ba93	-0.004691431
237	0xba6d31cf	-0.00090482546
238	0xbba4f4b7	-0.005034055
239	0x3a8f292a	0.0010922302
240	0x3b1298f0	0.002236899
241	0x3c6da8f7	0.014505616
242	0xbc24f117	-0.010067246
243	0x3c4942f0	0.012284026
244	0xbc789bba	-0.015173847
245	0xbb6b04dd	-0.0035861053
246	0xbc91df48	-0.017806664
247	0x3c8d2297	0.017228408
248	0x3c2136c0	0.009839714
249	0xbaf6786d	-0.00188042
250	0x3c0b54cf	0.008504107
251	0x3bbe59ff	0.005809068
252	0x3b2ccc32	0.0026366827
253	0x3b543f9b	0.0032386545
254	0xb8d94a5a	-0.000103612154
255	0xb9c2cc1f	-0.00037154646

action_model._discrete_distribution.branches.1.bias f4 [3]
0	0x00000000	0.0
1	0x00000000	0.0
2	0x00000000	0.0

action_model._discrete_distribution.branches.1.weight f4 [3, 128]
0	0x3b2b0e68	0.0026101116
1	0xbab95501	-0.0014139713
2	0xbb4c972e	-0.003121804
3	0xbb1aa605	-0.002359749
4	0x3b993ac3	0.0046761944
5	0xbaf9521b	-0.0019021662
6	0x3c8ef642	0.01745141
7	0x3b0279b5	0.0019908969
8	0x3bc995a1	0.0061518704
9	0x3bd6d3db	0.006556017
10	0x3c27af94	0.010234732
11	0x3bc33f3f	0.0059584673
12	0xbb862e09	-0.0040948433
13	0xba232350	-0.00062232185
14	0x3b9b479f	0.0047387625
15	0x3b208076	0.0024490631
16	0xbc4b3084	-0.012401704
17	0xbc2196a6	-0.009862578
18	0x3bd47eef	0.006484858
19	0x3c4dc8b5	0.012560059
20	0x3c05b17c	0.008159991
21	0xbb8041d9	-0.0039140997
22	0x3c4c2007	0.012458808
23	0xbac3ff2f	-0.001495337
24	0x3c5b7f23	0.013397011
25	0x3bdf0ce7	0.006806958
26	0xbc7c28d8	-0.015390597
27	0xbc6f6dfd	-0.014613626
28	0xbb86012a	-0.0040894942
29	0xbac60ad5	-0.0015109429
30	0xbc7a7f7d	-0.015289185
31	0xbc80ab77	-0.01570676
32	0x3cce89f3	0.025212264
33	0xbb0b5d0b	-0.0021265175
34	0x3be90a3d	0.007111816
35	0xbc881fbc	-0.016616695
36	0xb7c64a18	-2.3637942e-05
37	0xbbd69f42	-0.0065497467
38	0xbbe64d9d	-0.007028295
39	0x3b74ede7	0.0037373246
40	0xbc9cb1dd	-0.01912778
41	0xba85a69e	-0.001019675
42	0x3c60a958	0.01371225
43	0x3b909ed8	0.004413467
44	0x3cb7b26b	0.022423944
45	0x3baf006b	0.005340626
46	0x3a275980	0.0006383881
47	0x3ab2a4bf	0.001362942
48	0xbc35ae13	-0.011088866
49	0x3c53051d	0.012879637
50	0xbbae503b	-0.005319623
51	0xbc7463bf	-0.014916359
52	0xba7c055a	-0.00096138346
53	0x3bd64d8b	0.0065400056
54	0xbbfe391b	-0.0077582723
55	0x3c3aa4d6	0.011391839
56	0x3b43ab44	0.002985672
57	0x3b8f25e1	0.004368529
58	0x3bc384c0	0.005966753
59	0x3b631cd5	0.0034654636
60	0xbba7c845	-0.0051203095
61	0x3b13ce0c	0.0022553233
62	0xbcef0317	-0.029176278
63	0xba32d9f3	-0.0006822638
64	0xbb0ab895	-0.0021167148
65	0x3b91cd02	0.0044494877
66	0x3a89d5ed	0.0010516025
67	0x3c194e03	0.009356978
68	0x3c491615	0.012273331
69	0xbafbee32	-0.0019220768
70	0x3c9a4d33	0.01883564
71	0x3a612e13	0.00085899344
72	0xbaf6554d	-0.0018793732
73	0x3b5ae5b0	0.0033401065
74	0xbbc50f97	-0.0060138213
75	0x3bcc3c1f	0.006232753
76	0xbcaa2dea	-0.020773847
77	0x3b0b2462	0.0021231403
78	0xbc19404b	-0.009353708
79	0x3b807857	0.0039205956
80	0xbb517473	-0.0031960278
81	0x3c8759f3	0.016522383
82	0xb9e202b7	-0.00043108102
83	0xbb58b2b3	-0.0033065497
84	0xb9018607	-0.00012352328
85	0x3ca67935	0.020321468
86	0x3bbbfd9f	0.005737021
87	0xbb053dcb	-0.002033102
88	0x3b8bbc75	0.004264409
89	0x3aea8e5a	0.0017895207
90	0x3b2cfe43	0.002639667
91	0xbc2ec8bf	-0.010667979
92	0xbb44c383	-0.003002376
93	0x3b875142	0.0041295597
94	0x3c155251	0.009113864
95	0xbbd42238	-0.0064738058
96	0x3b7cd1cd	0.00385772
97	0xbc0f5478	-0.008748166
98	0xbc328013	-0.010894793
99	0x3b84841a	0.004044068
100	0x3c066e0b	0.008204947
101	0x3c051e8c	0.008124959
102	0xbc1704b9	-0.009217435
103	0x3c18f918	0.009336732
104	0x3a8d1061	0.0010762328
105	0xbc6fe4b5	-0.01464193
106	0x3c550743	0.01300222
107	0xbcd4d6f5	-0.025981406
108	0xbbe461f5	-0.006969685
109	0x3b766243	0.003759519
110	0xba2a96bf	-0.0006507448
111	0xbc293776	-0.010328164
112	0x3b62f615	0.003463154
113	0x3ba0a7f8	0.004902836
114	0x3b0aa187	0.0021153407
115	0xbc40dbe1	-0.011771173
116	0x3c907b1b	0.017636826
117	0x3bb4ee5b	0.0055215782
118	0x3a31a007	0.000677586
119	0xbb19cdf0	-0.0023468696
120	0xbc7ba3fb	-0.01535892
121	0x3a4284e2	0.0007420314
122	0x3c04e73e	0.008111773
123	0x3c0c170c	0.008550417
124	0x3c5498ef	0.012975915
125	0xbb11da03	-0.002225519
126	0x3ba0d8fc	0.004908679
127	0xbb7c16df	-0.003846578
128	0x3af34605	0.0018560296
129	0x3bf4eb58	0.007474344
130	0xbc8f4101	-0.017487051
131	0x3c250bf3	0.01007365
132	0xbccca913	-0.024982965
133	0x3cb03586	0.021509897
134	0x3c955e2b	0.01823338
135	0xbbd3ff33	-0.006469631
136	0x3b556bcb	0.003256547
137	0x3b5c4b8b	0.0033614363
138	0xbc2f00c7	-0.010681338
139	0x3b435367	0.002980435
140	0xbc268db3	-0.01016562
141	0x3af292c8	0.0018506879
142	0xbc247746	-0.010038203
143	0xbc530a0b	-0.012880812
144	0x3b9cd23f	0.0047858055
145	0xbbb7204b	-0.0055885664
146	0x3b2ac221	0.0026055651
147	0x3b9383ec	0.0045018103
148	0x3c115e7f	0.008872627
149	0x3b1c658b	0.0023864235
150	0xba11ad6a	-0.0005557152
151	0x3ba14f13	0.0049227565
152	0xbaeac56d	-0.0017911621
153	0x3c3d5268	0.011555292
154	0xbab905f1	-0.001411615
155	0xbbaeaa3b	-0.0053303516
156	0x3b181c77	0.0023210326
157	0x3bd14830	0.0063867792
158	0xbc355802	-0.011068346
159	0x3c959820	0.018261015
160	0xbc876ba6	-0.016530823
161	0xbbba6dde	-0.0056893667
162	0x3b144446	0.0022623702
163	0x3b806a08	0.00391889
164	0xbc3eb24c	-0.011639189
165	0xbc2a8457	-0.010407529
166	0xbc381b0c	-0.011236917
167	0xbab6f6d8	-0.0013959063
168	0x3abbac13	0.001431825
169	0xbc32e55c	-0.010918941
170	0x3b1feab7	0.0024401376
171	0x3b58459f	0.0033000482
172	0xbc1933d5	-0.009350737
173	0xbb886b7f	-0.004163205
174	0x3ba626c3	0.0050705387
175	0x3be08098	0.006851267
176	0x3ca41ee6	0.020034265
177	0xba4a2b4b	-0.00077121396
178	0xbbc02d7a	-0.005864796
179	0x3c860f53	0.016364729
180	0xbc776138	-0.015098862
181	0xbb0c9b58	-0.0021454897
182	0x3c22cd6f	0.0099366745
183	0xbb3e3e83	-0.002902896
184	0xbbafea13	-0.00536848
185	0xbad0d080	-0.0015931278
186	0xbb162b5b	-0.0022914025
187	0xbb79793b	-0.0038066644
188	0xbc065595	-0.008199115
189	0xba51f712	-0.00080095336
190	0xbb17a64f	-0.00231399
191	0x3b336251	0.0027371834
192	0xbc04b1fe	-0.008099077
193	0xbc290f3b	-0.010318573
194	0xbcce8c93	-0.025213515
195	0x3c481a37	0.012213281
196	0xbc1b72b7	-0.009487799
197	0x3bb4910b	0.0055104545
198	0x3c10e03f	0.008842527
199	0x3bcfe3fa	0.0063443156
200	0xbbaf90b1	-0.0053578247
201	0x3a80fe63	0.0009841438
202	0x3a22b3f8	0.0006206627
203	0xba868bac	-0.0010265014
204	0xbc2133f5	-0.009839048
205	0x3be8caad	0.007104239
206	0x3c0c558e	0.00856532
207	0x3bcfdd22	0.0063434998
208	0xbc5cfccb	-0.013488005
209	0x3c1e508b	0.009662758
210	0x3b06baaa	0.0020558038
211	0xbb85f556	-0.004088084
212	0xbc4bb9fe	-0.012434481
213	0x3c29f32b	0.010372917
214	0x3c22d8f5	0.009939422
215	0x3b803f23	0.0039137765
216	0xbc8f9663	-0.017527765
217	0x3b9cda0a	0.0047867345
218	0x3c9f0333	0.019410705
219	0xbb7dbf3f	-0.0038718728
220	0x3bc669c8	0.0060550906
221	0x3c327637	0.010892442
222	0x3ae437c5	0.001741164
223	0xbbd12bbf	-0.006383389
224	0xbb62ce6a	-0.0034607896
225	0x3bc4de93	0.006007978
226	0xbadfb055	-0.0017066101
227	0xbab4b0b3	-0.0013785571
228	0x3bfe0652	0.0077522183
229	0xbb12ff7b	-0.002243011
230	0xbc0d198c	-0.008612048
231	0x3b25faa6	0.00253264
232	0xbc033245	-0.008007591
233	0x3baa774c	0.0052022096
234	0x3a83d524	0.0010058028
235	0x3b4339c0	0.002978906
236	0xbb9b1694	-0.004732916
237	0xbb0f7b78	-0.0021893661
238	0xbc0a20dd	-0.008430687
239	0xbc9fd303	-0.019509798
240	0x3be1ecea	0.0068946974
241	0x3acda002	0.0015687945
242	0xbbaf9fa7	-0.005359608
243	0xbc8c2dd1	-0.01711169
244	0x3ad74d63	0.0016426261
245	0x3b858d68	0.004075695
246	0xbbe8d0c8	-0.007104967
247	0x3ca04493	0.019563949
248	0x3bae1d23	0.005313532
249	0x3b7f7ea7	0.0038985403
250	0xbc1d3640	-0.009595454
251	0x3b6c659f	0.0036071313
252	0xbb85ef26	-0.0040873466
253	0x3c03e453	0.008050042
254	0x3ce24753	0.0276219
255	0x3c2f4e37	0.0106998

network_body.linear_encoder.seq_layers.0.bias f4 [128]
0	0x00000000	0.0
1	0x00000000	0.0
2	0x00000000	0.0
3	0x00000000	0.0
4	0x00000000	0.0
5	0x00000000	0.0
6	0x00000000	0.0
7	0x00000000	0.0
8	0x00000000	0.0
9	0x00000000	0.0
10	0x00000000	0.0
11	0x00000000	0.0
12	0x00000000	0.0
13	0x00000000	0.0
14	0x00000000	0.0
15	0x00000000	0.0
16	0x00000000	0.0
17	0x00000000	0.0
18	0x00000000	0.0
19	0x00000000	0.0
20	0x00000000	0.0
21	0x00000000	0.0
22	0x00000000	0.0
23	0x00000000	0.0
24	0x00000000	0.0
25	0x00000000	0.0
26	0x00000000	0.0
27	0x00000000	0.0
28	0x00000000	0.0
29	0x00000000	0.0
30	0x00000000	0.0
31	0x00000000	0.0
32	0x00000000	0.0
33	0x00000000	0.0
34	0x00000000	0.0
35	0x00000000	0.0
36	0x00000000	0.0
37	0x00000000	0.0
38	0x00000000	0.0
39	0x00000000	0.0
40	0x00000000	0.0
41	0x00000000	0.0
42	0x00000000	0.0
43	0x00000000	0.0
44	0x00000000	0.0
45	0x00000000	0.0
46	0x00000000	0.0
47	0x00000000	0.0
48	0x00000000	0.0
49	0x00000000	0.0
50	0x00000000	0.0
51	0x00000000	0.0
52	0x00000000	0.0
53	0x00000000	0.0
54	0x00000000	0.0
55	0x00000000	0.0
56	0x00000000	0.0
57	0x00000000	0.0
58	0x00000000	0.0
59	0x00000000	0.0
60	0x00000000	0.0
61	0x00000000	0.0
62	0x00000000	0.0
63	0x00000000	0.0
64	0x00000000	0.0
65	0x00000000	0.0
66	0x00000000	0.0
67	0x00000000	0.0
68	0x00000000	0.0
69	0x00000000	0.0
70	0x00000000	0.0
71	0x00000000	0.0
72	0x00000000	0.0
73	0x00000000	0.0
74	0x00000000	0.0
75	0x00000000	0.0
76	0x00000000	0.0
77	0x00000000	0.0
78	0x00000000	0.0
79	0x00000000	0.0
80	0x00000000	0.0
81	0x00000000	0.0
82	0x00000000	0.0
83	0x00000000	0.0
84	0x00000000	0.0
85	0x00000000	0.0
86	0x00000000	0.0
87	0x00000000	0.0
88	0x00000000	0.0
89	0x00000000	0.0
90	0x00000000	0.0
91	0x00000000	0.0
92	0x00000000	0.0
93	0x00000000	0.0
94	0x00000000	0.0
95	0x00000000	0.0
96	0x00000000	0.0
97	0x00000000	0.0
98	0x00000000	0.0
99	0x00000000	0.0
100	0x00000000	0.0
101	0x00000000	0.0
102	0x00000000	0.0
103	0x00000000	0.0
104	0x00000000	0.0
105	0x00000000	0.0
106	0x00000000	0.0
107	0x00000000	0.0
108	0x00000000	0.0
109	0x00000000	0.0
110	0x00000000	0.0
111	0x00000000	0.0
112	0x00000000	0.0
113	0x00000000	0.0
114	0x00000000	0.0
115	0x00000000	0.0
116	0x00000000	0.0
117	0x00000000	0.0
118	0x00000000	0.0
119	0x00000000	0.0
120	0x00000000	0.0
121	0x00000000	0.0
122	0x00000000	0.0
123	0x00000000	0.0
124	0x00000000	0.0
125	0x00000000	0.0
126	0x00000000	0.0
127	0x00000000	0.0

network_body.linear_encoder.seq_layers.0.weight f4 [128, 29]
0	0x3d0183bc	0.031619772
1	0xbe8210cf	-0.2540345
2	0xbea338e6	-0.31879348
3	0xbcaec160	-0.021332443
4	0x3e95aab6	0.29231805
5	0xbe43aa8d	-0.19108029
6	0x3dcad5cc	0.0990406
7	0xbe0089e8	-0.12552607
8	0xbe0c98fe	-0.13730237
9	0xbd819bd1	-0.06328548
10	0xbdb8f177	-0.09030431
11	0xbd40e443	-0.047092687
12	0x3e2329ab	0.15933864
13	0x3dccc703	0.09998896
14	0x3dcc2459	0.0996787
15	0xbe769d92	-0.24083546
16	0xbecc3c77	-0.3988988
17	0x3e953072	0.29138523
18	0x3cd91913	0.026501214
19	0x3ee3163a	0.44352895
20	0x3e436f78	0.1908549
21	0xbe97afd4	-0.29626334
22	0xbde5a13e	-0.11212395
23	0xbd955034	-0.07290688
24	0xbe46a23b	-0.19397824
25	0x3e03f621	0.1288686
26	0x3cef0bb0	0.029180378
27	0xbe2b6c2a	-0.1674048
28	0xbe396087	-0.18103229
29	0xbe417af4	-0.18894559
30	0xbe880426	-0.26565665
31	0xbe3f3c6b	-0.18675391
32	0x3d86f7e4	0.0659025
33	0xbe663cca	-0.22484127
34	0xbe3fda97	-0.18735729
35	0xbd8e1065	-0.06936721
36	0xbde8eaaf	-0.11372887
37	0xbe3e96bc	-0.18612188
38	0xbe039920	-0.12851381
39	0xbdbc46dc	-0.09193203
40	0xbe3d07f7	-0.1846007
41	0xbe56e4f0	-0.2098577
42	0xba29aae3	-0.00064723025
43	0x3dd89aaa	0.10576375
44	0xbeb68e67	-0.3565552
45	0x3e0f002c	0.1396491
46	0xbda36c00	-0.07979584
47	0xbc916364	-0.017747588
48	0x3e40b74e	0.18819925
49	0x3e065858	0.13119638
50	0xbdadfc7e	-0.08495425
51	0x3e5feb86	0.21867189
52	0x3da8b2fa	0.08237262
53	0x3df76122	0.120790735
54	0x3d85cfa1	0.06533743
55	0x3c09d5f7	0.00841283
56	0xbe385ace	-0.18003389
57	0xbe0b4be2	-0.13603166
58	0x3e2f5597	0.17122494
59	0x3e8dcbd9	0.27694586
60	0xbeb5ef26	-0.35534018
61	0xbe275d24	-0.16344124
62	0xbe38f156	-0.18060812
63	0xbd85f49c	-0.06540796
64	0xbd70cb40	-0.058787584
65	0x3de5571c	0.111982554
66	0xbc176277	-0.009239784
67	0x3eb4bfd3	0.353026
68	0xbebb9d91	-0.3664365
69	0xbe63b2f9	-0.22236241
70	0xbd98bae8	-0.074575245
71	0x3d0cbd86	0.03436043
72	0x3e19bfe5	0.15014608
73	0x3e4e384f	0.20138668
74	0x3d59d812	0.053184576
75	0x3d8a53ef	0.0675429
76	0x3dab8a73	0.083760165
77	0xbe4690f3	-0.19391231
78	0xbe923b54	-0.2856089
79	0x3cec9cc0	0.028883338
80	0xbe5cb207	-0.21552287
81	0xbdd1b77a	-0.102400735
82	0x3df54077	0.11975186
83	0xbddddc6a	-0.10833056
84	0x3dadf57e	0.084940895
85	0xbe79ba10	-0.24387383
86	0xbc241a3c	-0.01001602
87	0xbe50c389	-0.2038709
88	0xbe788a84	-0.2427159
89	0xbdd18059	-0.102295585
90	0xbd90084e	-0.07032834
91	0xbec327a9	-0.38116196
92	0x3ed169aa	0.40900928
93	0xbdc33730	-0.095320106
94	0x3cac821f	0.02105814
95	0xbe3bfbbe	-0.18357751
96	0xbe71645b	-0.23573439
97	0x3dae9d2a	0.085260704
98	0x3e57cac6	0.21073446
99	0x3d24afea	0.040206827
100	0x3e87457a	0.26420194
101	0x3c168fdc	0.009189572
102	0x3c4df8e2	0.012571545
103	0x3cd2dcde	0.025740083
104	0xbe01c6d0	-0.12673497
105	0xbd66fc22	-0.056392796
106	0x3e45baf1	0.19309594
107	0x3e7d25ce	0.24721453
108	0x3d2f74f3	0.04283614
109	0x3d920378	0.07129568
110	0xbd8fb563	-0.07017019
111	0xbe49cc15	-0.19706757
112	0xbd333287	-0.04374936
113	0x3eb6e276	0.3571965
114	0x3e12a56e	0.14320919
115	0x3dcd340e	0.10019694
116	0xbdb581d2	-0.08862652
117	0xbe5daf64	-0.21648937
118	0x3ee316c5	0.4435331
119	0xbe95029b	-0.2910355
120	0xbed27bdc	-0.41110122
121	0xbd9461cf	-0.07245218
122	0x3df93b3d	0.12169502
123	0xbe064ea8	-0.13115942
124	0xbeca2652	-0.3948236
125	0x3e9233de	0.28555197
126	0x3e0765a1	0.13222362
127	0x3e37bd89	0.17943396
128	0x3eb5d1a0	0.35511494
129	0x3d83a4fa	0.06427951
130	0x3dea6eff	0.11446952
131	0xbc60747c	-0.013699647
132	0x3deb14b9	0.11478562
133	0x3ce49fb0	0.027908176
134	0xbe6011fc	-0.2188186
135	0xbda72374	-0.08161059
136	0x3e3c00d8	0.18359697
137	0x3ebc36f4	0.36760676
138	0x3e05ec42	0.13078406
139	0xbdff7007	-0.124725394
140	0x3e0458f5	0.1292456
141	0xbc24f62b	-0.010068457
142	0xbd847336	-0.06467287
143	0x3dcbf0b2	0.09958018
144	0xbe349bc5	-0.17637546
145	0xbe4fc27d	-0.20289035
146	0xbe09f7d9	-0.13473453
147	0xbdbf7555	-0.09348551
148	0x3e4f5be8	0.20249903
149	0xbd9021d8	-0.07037705
150	0xbd049975	-0.03237291
151	0xbddb4fdd	-0.10708592
152	0xbe43acca	-0.19108883
153	0x3e671cb4	0.22569543
154	0x3e767521	0.24068119
155	0x3d9c2c0d	0.076255895
156	0xbe4a7742	-0.19772056
157	0xbd74f258	-0.05980143
158	0x3e1af363	0.15131907
159	0xbe75e6ea	-0.24013868
160	0x3dbf6c36	0.093468115
161	0x3df81dff	0.12115096
162	0xbec59025	-0.38586536
163	0x392bec39	0.0001639583
164	0x3dbb61fc	0.091495484
165	0xbe0e06ef	-0.13869832
166	0xbe8681e5	-0.26270977
167	0x3e6fbd04	0.23411947
168	0xbdbebc64	-0.093132764
169	0x3e8861da	0.26637155
170	0xbe07720a	-0.13227096
171	0x3e95c01d	0.29248133
172	0xbcad610b	-0.021164438
173	0xbbafd4c7	-0.005365941
174	0x3e1078a8	0.14108527
175	0x3d15e3da	0.03659425
176	0xbca3f88a	-0.020015974
177	0x3e11798a	0.1420652
178	0xbe851224	-0.25990403
179	0xbdd37540	-0.10325098
180	0xbe86faeb	-0.2636331
181	0x3ea06e18	0.31333995
182	0xbdd6a254	-0.104801804
183	0x3c5cfa71	0.013487444
184	0x3e51d960	0.20493078
185	0xbe6c2c00	-0.2306366
186	0xbc62b889	-0.013837942
187	0x3e53bd69	0.20677723
188	0x3deff0d8	0.11715859
189	0xbe8bd051	-0.2730737
190	0xbe1552ed	-0.14582415
191	0x3c787f01	0.015166999
192	0x3d941b59	0.07231779
193	0xbe5bc45e	-0.21461627
194	0xbe19fd40	-0.15038013
195	0xbd3ec4d1	-0.046574418
196	0x3e405bf3	0.18785076
197	0x3c5f9043	0.0136452345
198	0x3e2e977c	0.17049974
199	0x3c6e4f19	0.014545226
200	0xbeb5cd99	-0.3550842
201	0x3dec52fa	0.11539264
202	0x3e8c0f98	0.27355647
203	0xbec80758	-0.39068103
204	0xbe40c9db	-0.18827002
205	0x3f08cff6	0.53442323
206	0xbb2c97fc	-0.0026335707
207	0x3e00fdf7	0.1259688
208	0xbca82bb7	-0.020528657
209	0xbe855433	-0.260408
210	0xbe2a8141	-0.16650869
211	0xbdecaac2	-0.11556007
212	0xbe260c0b	-0.16215532
213	0x3dfbc630	0.12293661
214	0xbd968239	-0.07349057
215	0x3e070611	0.13185908
216	0x3def15a3	0.11674049
217	0xbdff33d3	-0.124610566
218	0xbdce28bd	-0.10066364
219	0x3e54350b	0.2072336
220	0xbd51ecd2	-0.05125124
221	0x3ea4a574	0.3215748
222	0xbde1b1d4	-0.11020246
223	0x3df4c6e7	0.11952
224	0xbd64add1	-0.055829827
225	0xbe2b0f33	-0.16705017
226	0xbe61e5cc	-0.22060317
227	0x3e4280e0	0.18994474
228	0xba91da8f	-0.0011127758
229	0xbdb6bc9e	-0.089226946
230	0xbd9bb4b7	-0.07602828
231	0xbca155c8	-0.019694224
232	0x3df17829	0.11790497
233	0x3ce6a7e4	0.028156228
234	0xbe4b9819	-0.1988224
235	0x3d1f6073	0.03891034
236	0x3c6a0296	0.014282843
237	0x3e8a1a79	0.26973322
238	0x3d0aabfa	0.033855416
239	0xbeb534b1	-0.35391763
240	0x3e3b3992	0.1828368
241	0xbd971ff1	-0.07379139
242	0x3e1fa30d	0.15589543
243	0xbdfd3afc	-0.12364766
244	0x3e110dc3	0.14165406
245	0xbe1f42f3	-0.15552883
246	0xbecac2cd	-0.39601746
247	0x3ebbc025	0.36670032
248	0x3b9001de	0.004394754
249	0xbdfe01d7	-0.12402695
250	0x3e267311	0.16254832
251	0xbc77beae	-0.015121145
252	0xbea25266	-0.3170349
253	0xbe3a064e	-0.18166468
254	0x3d48b26c	0.04899828
255	0x3e8751fa	0.2642973

network_body.linear_encoder.seq_layers.2.bias f4 [128]
0	0x00000000	0.0
1	0x00000000	0.0
2	0x00000000	0.0
3	0x00000000	0.0
4	0x00000000	0.0
5	0x00000000	0.0
6	0x00000000	0.0
7	0x00000000	0.0
8	0x00000000	0.0
9	0x00000000	0.0
10	0x00000000	0.0
11	0x00000000	0.0
12	0x00000000	0.0
13	0x00000000	0.0
14	0x00000000	0.0
15	0x00000000	0.0
16	0x00000000	0.0
17	0x00000000	0.0
18	0x00000000	0.0
19	0x00000000	0.0
20	0x00000000	0.0
21	0x00000000	0.0
22	0x00000000	0.0
23	0x00000000	0.0
24	0x00000000	0.0
25	0x00000000	0.0
26	0x00000000	0.0
27	0x00000000	0.0
28	0x00000000	0.0
29	0x00000000	0.0
30	0x00000000	0.0
31	0x00000000	0.0
32	0x00000000	0.0
33	0x00000000	0.0
34	0x00000000	0.0
35	0x00000000	0.0
36	0x00000000	0.0
37	0x00000000	0.0
38	0x00000000	0.0
39	0x00000000	0.0
40	0x00000000	0.0
41	0x00000000	0.0
42	0x00000000	0.0
43	0x00000000	0.0
44	0x00000000	0.0
45	0x00000000	0.0
46	0x00000000	0.0
47	0x00000000	0.0
48	0x00000000	0.0
49	0x00000000	0.0
50	0x00000000	0.0
51	0x00000000	0.0
52	0x00000000	0.0
53	0x00000000	0.0
54	0x00000000	0.0
55	0x00000000	0.0
56	0x00000000	0.0
57	0x00000000	0.0
58	0x00000000	0.0
59	0x00000000	0.0
60	0x00000000	0.0
61	0x00000000	0.0
62	0x00000000	0.0
63	0x00000000	0.0
64	0x00000000	0.0
65	0x00000000	0.0
66	0x00000000	0.0
67	0x00000000	0.0
68	0x00000000	0.0
69	0x00000000	0.0
70	0x00000000	0.0
71	0x00000000	0.0
72	0x00000000	0.0
73	0x00000000	0.0
74	0x00000000	0.0
75	0x00000000	0.0
76	0x00000000	0.0
77	0x00000000	0.0
78	0x00000000	0.0
79	0x00000000	0.0
80	0x00000000	0.0
81	0x00000000	0.0
82	0x00000000	0.0
83	0x00000000	0.0
84	0x00000000	0.0
85	0x00000000	0.0
86	0x00000000	0.0
87	0x00000000	0.0
88	0x00000000	0.0
89	0x00000000	0.0
90	0x00000000	0.0
91	0x00000000	0.0
92	0x00000000	0.0
93	0x00000000	0.0
94	0x00000000	0.0
95	0x00000000	0.0
96	0x00000000	0.0
97	0x00000000	0.0
98	0x00000000	0.0
99	0x00000000	0.0
100	0x00000000	0.0
101	0x00000000	0.0
102	0x00000000	0.0
103	0x00000000	0.0
104	0x00000000	0.0
105	0x00000000	0.0
106	0x00000000	0.0
107	0x00000000	0.0
108	0x00000000	0.0
109	0x00000000	0.0
110	0x00000000	0.0
111	0x00000000	0.0
112	0x00000000	0.0
113	0x00000000	0.0
114	0x00000000	0.0
115	0x00000000	0.0
116	0x00000000	0.0
117	0x00000000	0.0
118	0x00000000	0.0
119	0x00000000	0.0
120	0x00000000	0.0
121	0x00000000	0.0
122	0x00000000	0.0
123	0x00000000	0.0
124	0x00000000	0.0
125	0x00000000	0.0
126	0x00000000	0.0
127	0x00000000	0.0

network_body.linear_encoder.seq_layers.2.weight f4 [128, 128]
0	0xbde857e6	-0.1134489
1	0x3e189ece	0.14904329
2	0xbddb1a2b	-0.106983505
3	0xbd8f87ab	-0.070082985
4	0x3e1811f2	0.14850596
5	0xbdd4a43f	-0.1038289
6	0x3c0c9df2	0.008582579
7	0x3d8e1f3a	0.0693955
8	0x3d0be505	0.034153957
9	0x3be81ff0	0.0070838854
10	0xbcac2fbe	-0.021018859
11	0xbd2a6f95	-0.04161032
12	0x3d8508c7	0.06495815
13	0xbcaa8ec3	-0.020820027
14	0x3cbad451	0.022806318
15	0xbd937f36	-0.07201998
16	0xbe13fe01	-0.14452364
17	0x3d9b4ed8	0.075833976
18	0x3d1b2d05	0.03788473
19	0x3cce0e8f	0.025153426
20	0xbdbbf838	-0.09178203
21	0xbd9c987c	-0.076462716
22	0xbd543835	-0.051811416
23	0x3d94aaa4	0.072591096
24	0x3d9c28c4	0.07624963
25	0x3da0467a	0.07825942
26	0xbd82f1d4	-0.06393781
27	0x3a456742	0.000753034
28	0x3c9f4ee1	0.019446792
29	0xbc285bd6	-0.010275802
30	0xbd209dad	-0.03921287
31	0xbc957554	-0.018244423
32	0x3c0efc02	0.0087270755
33	0x3d52e466	0.05148735
34	0xbd814452	-0.06311859
35	0xbd46cc5e	-0.048534743
36	0x3e50c02b	0.20385806
37	0xbb851c97	-0.004062246
38	0xbc020958	-0.007936798
39	0xbdde7638	-0.10862392
40	0xbd9d0dfa	-0.076686814
41	0x3c17e3f0	0.009270653
42	0xbd54e343	-0.051974546
43	0x3e095a44	0.1341334
44	0xbd3496d1	-0.044089142
45	0xbd3a18f8	-0.04543397
46	0x3a0b69a7	0.00053181726
47	0xbba418c5	-0.0050078356
48	0xbda25e8c	-0.0792819
49	0xbc84a9c6	-0.016194236
50	0x3dc45c08	0.09587866
51	0xbe15ad83	-0.1461697
52	0xbe50be61	-0.20385124
53	0x3d32c32d	0.043643165
54	0xbcb1221a	-0.021622706
55	0x3d5924aa	0.05301348
56	0xbdd4ab58	-0.10384244
57	0xbd88049e	-0.06641506
58	0xbd519297	-0.05116519
59	0x3da3e54c	0.08002719
60	0x3bbe549f	0.0058084275
61	0x3dfff4ba	0.1249785
62	0x3dc7c4b2	0.097543135
63	0x3b0f6e47	0.0021885799
64	0xbd287a6b	-0.041132372
65	0xbdaf0849	-0.08546502
66	0xbde59ddc	-0.1121175
67	0x3d2cc5d6	0.04218086
68	0xbe3cb602	-0.18428805
69	0x3d12b8d9	0.035820816
70	0xbcccec17	-0.02501492
71	0xbc3f192c	-0.011663716
72	0xbd551121	-0.05201829
73	0x3da86cd5	0.08223883
74	0x3e3cf4c5	0.18452747
75	0x3daab5e7	0.08335476
76	0xbca3fe51	-0.020018728
77	0xbd60c202	-0.05487252
78	0xbe290989	-0.16507544
79	0xbd962dfb	-0.07332989
80	0xbdbc6d71	-0.09200562
81	0xbd8f26d5	-0.069898285
82	0xbd669b95	-0.05630072
83	0xbdcc409e	-0.09973262
84	0x3e02308f	0.12713836
85	0x3d7b7560	0.061391234
86	0x3bd12da6	0.0063836155
87	0xbde2a789	-0.11067111
88	0xbced740c	-0.028986
89	0xbe1d31f7	-0.15351091
90	0xbde4be21	-0.11169077
91	0x3e05e82e	0.13076851
92	0xbc5e58f2	-0.013571011
93	0xbd72d468	-0.059284598
94	0x3d4ae339	0.049533103
95	0xbc4dd7a7	-0.012563623
96	0x3d85dac6	0.06535868
97	0x3d189028	0.037246853
98	0x3c975f65	0.018478105
99	0x3ca34c08	0.019933715
100	0xbe405178	-0.18781078
101	0x3e040a18	0.12894475
102	0xbe011861	-0.12606956
103	0xbd1951b4	-0.037431434
104	0x3d000d9a	0.03126297
105	0xbd7e2bf8	-0.06205365
106	0xbe04ed43	-0.12981133
107	0x3bfb8e86	0.007676902
108	0xbd3ac4a9	-0.045597706
109	0xbcfeba16	-0.031094592
110	0xbe088117	-0.13330494
111	0x3d88d0d2	0.06680454
112	0x3dd3440b	0.103157125
113	0x3c40d19c	0.011768725
114	0xbcdd1cfb	-0.026991358
115	0x3ca0b8be	0.019619342
116	0xbc86d321	-0.016458096
117	0xb9a3a69b	-0.00031213913
118	0x3d2fbc7c	0.042904362
119	0xbcd7f67b	-0.026362648
120	0x3e5ac3ce	0.21363756
121	0xbcdb07f7	-0.026737196
122	0xbd46bfa3	-0.048522603
123	0x3a035913	0.00050105265
124	0x3e40b0be	0.18817422
125	0xbda761fb	-0.08172985
126	0xbc1ba7fc	-0.0095005
127	0x3e32e40a	0.17469802
128	0xbd240105	-0.040040035
129	0x3dccf96a	0.100085095
130	0x3dec21ee	0.11529909
131	0x3bd6b08b	0.0065518073
132	0xbe656706	-0.22402582
133	0x3bad31a6	0.0052854596
134	0xbd7fb25c	-0.062425956
135	0xbc348648	-0.011018343
136	0x3cb08de4	0.021552034
137	0xbd51663f	-0.0511229
138	0x3dcd4a54	0.100239426
139	0xbc848328	-0.016175821
140	0x3db80415	0.089851536
141	0x3d3fd45e	0.04683339
142	0x3e193f6b	0.14965598
143	0xbe02c207	-0.12769328
144	0x3dda1cd9	0.106500335
145	0xbb3cd2f8	-0.002881227
146	0xbe27a0c8	-0.16369927
147	0x3d9d6993	0.07686152
148	0x3c830386	0.015992891
149	0xbdafabf9	-0.08577723
150	0xbdb5c921	-0.08876253
151	0xbb660840	-0.0035100132
152	0xbded1f58	-0.11578244
153	0xb8e802d6	-0.0001106315
154	0x3d4241b0	0.047425926
155	0xbe3e7e27	-0.18602811
156	0x3d1feef6	0.03904625
157	0x3dacba41	0.084339626
158	0xbdc7e2fc	-0.09760091
159	0xbdd60026	-0.10449247
160	0xbdc0ac92	-0.09407915
161	0x3db78314	0.08960548
162	0xbd095bf4	-0.03353496
163	0xbd38067c	-0.04492806
164	0x3cb2ce3a	0.021826852
165	0xbd0f2a29	-0.034952316
166	0x3cbadf9b	0.022811702
167	0x3bd2902e	0.006425879
168	0xbca23eea	-0.01980539
169	0xbd87cd70	-0.06630981
170	0xbcc8398e	-0.024441507
171	0x3e2f58c7	0.1712371
172	0xbc86d9dd	-0.016461307
173	0xbe0d90ea	-0.13824812
174	0x3dfbb048	0.12289482
175	0x3c95c135	0.018280605
176	0x3d30c88c	0.043160006
177	0x3ddf0a2d	0.10890613
178	0xbdb55c2b	-0.0885547
179	0x3cdfba64	0.027310558
180	0xbcb4d447	-0.022073878
181	0x3cdfc257	0.027314348
182	0xbd741b13	-0.059596132
183	0x3c6e7562	0.014554353
184	0xbe2cf371	-0.1688974
185	0x3e5573c9	0.2084495
186	0x3de18710	0.11012089
187	0x3c5de0b7	0.013542346
188	0x3cc8f011	0.024528535
189	0x3e2b0446	0.16700849
190	0x3d045742	0.032309778
191	0xbe06115f	-0.13092564
192	0xbcee6a7d	-0.029103512
193	0x3c48121e	0.012211351
194	0x3d8bc853	0.06825318
195	0x3dca0227	0.09863692
196	0x3dd99590	0.1062423
197	0xbd141e1a	-0.03616152
198	0xbda1bf26	-0.07897787
199	0xbd864e16	-0.065578625
200	0xbd25c505	-0.040471096
201	0x3be9f5e2	0.007139907
202	0xbdd66b47	-0.1046968
203	0x3c9b2c60	0.018942058
204	0x3cea2d61	0.028586091
205	0x3d52c60c	0.051458403
206	0x3d879563	0.0662029
207	0x3c8f42de	0.01748794
208	0xbdacc507	-0.084360175
209	0xbda23e1d	-0.079220034
210	0xbd72c125	-0.05926623
211	0xbdb6322a	-0.08896287
212	0x3e64d703	0.22347645
213	0xbce2aec6	-0.02767123
214	0xbde2f61e	-0.110820994
215	0xbd2a71be	-0.04161238
216	0xbde35031	-0.1109928
217	0x3cbbae2c	0.0229102
218	0x3d934062	0.071900144
219	0x3d24911a	0.040177442
220	0x3db5ef80	0.088835716
221	0x3cbff090	0.023430139
222	0x3da93df2	0.08263768
223	0x3d32f254	0.043688133
224	0xbda5dbfd	-0.080986
225	0x3e0a33ed	0.1349637
226	0x3b2d812b	0.0026474695
227	0x3d66022c	0.056154415
228	0xbc1ed48b	-0.009694229
229	0xbd60d2c0	-0.054888487
230	0xbc85ba4e	-0.016324189
231	0x3d5fe2df	0.05465972
232	0x3de88111	0.113527425
233	0xbc7ea53c	-0.015542325
234	0xbd0069da	-0.031350948
235	0xbc0bea4d	-0.008539748
236	0x3c40aa09	0.01175929
237	0xbd197340	-0.037463427
238	0xbd0f1c33	-0.034939002
239	0xbd90f4d0	-0.07077944
240	0x3db8cfeb	0.09024032
241	0xbca911c5	-0.020638356
242	0xbe092676	-0.13393578
243	0xbd1ca481	-0.03824282
244	0xbd9fc551	-0.07801307
245	0x3dbc6cf8	0.09200472
246	0xbda78fe3	-0.08181741
247	0xbda24878	-0.079239786
248	0xbdba0d3e	-0.09084557
249	0xbb9c2f18	-0.004766356
250	0xbd653bcd	-0.055965234
251	0x3da3b72d	0.079939224
252	0x3d54230f	0.051791247
253	0x3ce8a08e	0.028396871
254	0x3d37a038	0.04483053
255	0x3d6ec49a	0.058292963

network_body.vector_processors.0.normalizer.running_mean f4 [29]
0	0x3f33708f	0.70093626
1	0x3e543a5c	0.20725387
2	0x3daf5e08	0.08562857
3	0x3bc7919d	0.0060903565
4	0x3d518eac	0.051161453
5	0x3f34057e	0.7032088
6	0x3e26e596	0.16298518
7	0x3e00d37c	0.12580675
8	0x3ba9c84a	0.005181347
9	0x3d584d09	0.05280784
10	0x3f44794a	0.7674757
11	0x3ddff4d4	0.10935369
12	0x3de85574	0.11344424
13	0x3c1076c7	0.008817381
14	0x3d6a21bf	0.05716109
15	0x3f460278	0.77347517
16	0x3dc37921	0.09544588
17	0x3df94659	0.12171621
18	0x3c17e91a	0.009271884
19	0x3d42bc71	0.047542993
20	0x3f460278	0.77347517
21	0x3dc37921	0.09544588
22	0x3df94659	0.12171621
23	0x3c17e91a	0.009271884
24	0x3d42bc71	0.047542993
25	0x41a1b2ad	20.212244
26	0x414f8540	12.970032
27	0x3d6b1553	0.057393383
28	0x3ccde968	0.02513571
