Assets/Models/Scena1/iRobot 1.onnx (onnx, 88018 bytes, 10 tensors)

74 f4 [29]
0	0x3efb6aa3	0.49104795
1	0x3ee9edbc	0.4568919
2	0x3d969796	0.073531315
3	0x3d27235d	0.04080521
4	0x3e887803	0.26654062
5	0x3ea1158c	0.3146175
6	0x3e64345c	0.22285599
7	0x3d962d83	0.073328994
8	0x3d8a684b	0.067581736
9	0x3e663e59	0.22484721
10	0x3eda494b	0.42634043
11	0x3ef73e0a	0.4828952
12	0x3d9e999c	0.077441424
13	0x3d580a8f	0.052744444
14	0x3eb378c5	0.35053077
15	0x3efef08f	0.49792907
16	0x3ec9e154	0.39429724
17	0x3e1810e7	0.14850198
18	0x3dac4d50	0.08413184
19	0x3ead793a	0.3388155
20	0x3efef08f	0.49792907
21	0x3ec9e182	0.3942986
22	0x3e1810e7	0.14850198
23	0x3dac4d50	0.08413184
24	0x3ead792f	0.33881518
25	0x4186954b	16.822897
26	0x418d57ba	17.667835
27	0x401ddacc	2.4664793
28	0x3fd01306	1.6255805

action_model._discrete_distribution.branches.0.bias f4 [3]
0	0x3b6243c8	0.0034525264
1	0xbc7276ca	-0.014798829
2	0x3c378470	0.011201009

action_model._discrete_distribution.branches.0.weight f4 [3, 128]
0	0x3bbf9cf6	0.0058475686
1	0xbd3ff4e9	-0.046864424
2	0xbbaf5df8	-0.005351778
3	0xbd046a5f	-0.032328006
4	0xbe1afe13	-0.15135984
5	0xbe0f7f1b	-0.1401333
6	0x3d9c85e4	0.07642725
7	0xbc39569e	-0.011312155
8	0xbb9e2ba0	-0.004826978
9	0xbb5a7de2	-0.0033339192
10	0x3d6a9602	0.057271965
11	0x3e1b1f35	0.15148623
12	0x3cf6b550	0.030115753
13	0x3d4cf1f0	0.050035417
14	0x3c1b4641	0.009477199
15	0x3bdcffae	0.0067443466
16	0xbd92783d	-0.0715184
17	0xbba25d89	-0.004954998
18	0x3dae430a	0.085088804
19	0x3d1f7201	0.038927082
20	0xbd7adb5f	-0.061244365
21	0x3b9d3636	0.004797722
22	0x3d6db0f7	0.058030095
23	0x3d1ddc9c	0.038540468
24	0xbe27b684	-0.16378218
25	0x3a099436	0.00052482204
26	0x3cc2fabf	0.023801206
27	0xbd6461ac	-0.05575721
28	0x3da13d91	0.07873071
29	0x3a566adb	0.0008179375
30	0x3cb8fe3e	0.02258217
31	0xbc0bf482	-0.008542182
32	0x3d125767	0.035727885
33	0x3b037c4c	0.00200631
34	0xbcdd290d	-0.026997114
35	0xbe0453f0	-0.12922645
36	0x3de4e5d0	0.11176646
37	0x3d0ec7b9	0.03485844
38	0xbcfe973a	-0.03107797
39	0x3cb2d5eb	0.02183052
40	0xbc24d6c3	-0.010060969
41	0xbd951e6c	-0.07281193
42	0x3d38d5f4	0.045125917
43	0x3df3a596	0.118968174
44	0xbbefcd54	-0.007318178
45	0x3d78317d	0.06059407
46	0xbd95fc09	-0.073234625
47	0xbd850f7b	-0.06497093
48	0x3c675eac	0.014121693
49	0x3d2a92cd	0.041643906
50	0x3d8a2ae4	0.06746462
51	0xbe3c1373	-0.18366794
52	0xbd7639f9	-0.06011388
53	0xbd1d90e0	-0.03846824
54	0x3cd25fe1	0.025680484
55	0x3ce2229e	0.027604397
56	0xbd80e16d	-0.062929966
57	0x3b4ad009	0.0030946753
58	0x3d69afa5	0.057052273
59	0x3c8cc8d1	0.0171856
60	0x3dc05b64	0.093924314
61	0x3c922d0d	0.017843748
62	0x3dc71037	0.097198896
63	0x3d8e4ec4	0.06948617
64	0xbd255517	-0.04036435
65	0x3ca4d34e	0.02012029
66	0x39f2493e	0.00046212407
67	0xbdb01a4a	-0.08598764
68	0xbd538288	-0.051638156
69	0xbd089a4d	-0.033350278
70	0xbe0cfe77	-0.13768946
71	0xbbbbf56a	-0.0057360427
72	0xbe324f70	-0.17413116
73	0xbe187480	-0.14888191
74	0xbd6d8b17	-0.057993975
75	0x3cd9a5e5	0.026568362
76	0x3e015ceb	0.12633102
77	0xbdabc4ac	-0.083871216
78	0xbcffafe5	-0.031211803
79	0xbd6544b4	-0.055973724
80	0xbced12e7	-0.028939677
81	0x39204ba2	0.00015286964
82	0xbd1fe6ad	-0.03903835
83	0xbd6263a6	-0.055270813
84	0xbd87874f	-0.06617605
85	0x3d15fcbf	0.03661799
86	0xbd323c50	-0.04351455
87	0xbcda19fb	-0.026623717
88	0x3d21d6fd	0.03951167
89	0x3dcfe94f	0.10151922
90	0xbd26f6c9	-0.040762696
91	0xbcbca1d1	-0.023026379
92	0xbcdafef9	-0.026732909
93	0x3c752cd4	0.014964301
94	0xbaa3eab2	-0.0012505858
95	0xbcd3a98a	-0.025837678
96	0xbca6c3be	-0.020357009
97	0xbd8d306a	-0.06894
98	0xbd569179	-0.052384827
99	0xbb630edc	-0.0034646308
100	0xbc2fe66d	-0.01073609
101	0xbc5278f7	-0.012846223
102	0x3d319268	0.043352515
103	0xbc8744e6	-0.016512346
104	0x3c4b7404	0.012417797
105	0x3d3fffe3	0.046874892
106	0x3d42f408	0.047596008
107	0x3d56fcbd	0.052487124
108	0xbdcf0f93	-0.101103924
109	0x3ca93de6	0.020659398
110	0xbd1e4aba	-0.038645484
111	0x3d84cee6	0.06484775
112	0xba0afdfe	-0.000530213
113	0xbbce0c78	-0.0062881075
114	0x3d130ec9	0.035902772
115	0xbd09df8f	-0.033660468
116	0x3d9d46ba	0.07679506
117	0xbdd8871a	-0.105726436
118	0x3d49c765	0.049262423
119	0x3a67e524	0.00088460953
120	0x3c71fbf3	0.014769542
121	0xbce9e4b3	-0.028551435
122	0x3d3b0866	0.045662306
123	0xbd2a8e2d	-0.041639496
124	0xbb005f09	-0.0019587895
125	0xbd31d11e	-0.04341232
126	0xbd6f1fa8	-0.0583798
127	0x3a7a08d9	0.00095380616
128	0xbcec818d	-0.028870368
129	0xbbab7680	-0.005232632
130	0xbdb42ff8	-0.08798212
131	0x3c72e907	0.014826066
132	0x3d81f6b0	0.0634588
133	0x3bf78005	0.007553103
134	0xbd32060e	-0.043462805
135	0xbc4c9997	-0.012487791
136	0xbd678484	-0.05652286
137	0xbbb64020	-0.0055618435
138	0xbd0eca50	-0.03486091
139	0xbdb4eeda	-0.0883462
140	0xbd147f56	-0.03625425
141	0xbb82b38a	-0.003988688
142	0x3cd68502	0.02618647
143	0x3d0c18f4	0.034203485
144	0xbd3ea1c6	-0.046540998
145	0x3b24e922	0.0025163372
146	0xbda4f9d4	-0.080554634
147	0xbd55edc4	-0.052228704
148	0xbe0ef2ba	-0.1395978
149	0xbd73b9b7	-0.059503283
150	0xbc8e5b82	-0.017377619
151	0xbdafee85	-0.08590416
152	0x3d72017c	0.059083447
153	0x3ba7c2fe	0.0051196804
154	0xbdfaff85	-0.12255768
155	0xbd43c51b	-0.047795396
156	0xbd8a2034	-0.067444235
157	0xbc6a6f8a	-0.01430882
158	0x3bef1367	0.007296014
159	0xbca445f5	-0.02005289
160	0x3d64386c	0.05571787
161	0x3d275452	0.0408519
162	0x3c8bedcc	0.017081164
163	0x3cf165ce	0.02946749
164	0xbcc61892	-0.024181638
165	0xbd16f388	-0.036853343
166	0xbcd8f2ed	-0.026483024
167	0x3df1a1ae	0.11798416
168	0xbd463bbe	-0.04839682
169	0xbd537674	-0.051626638
170	0xbd950282	-0.07275869
171	0xbc86becc	-0.0164484
172	0xbd8ba5cb	-0.06818732
173	0xbe13da48	-0.14438736
174	0x3dc145d4	0.09437147
175	0x3d7dade2	0.061933406
176	0xbd2fc97e	-0.042916767
177	0xbdacdb0a	-0.08440216
178	0x3d31681e	0.043312185
179	0x3dc68f0e	0.09695254
180	0x3df870c2	0.12130882
181	0xbd6a8579	-0.057256196
182	0xbbfac502	-0.0076528797
183	0x3c318c86	0.010836726
184	0xbc82a4cd	-0.015947724
185	0xbd8c2451	-0.06842864
186	0x3c848e3f	0.01618111
187	0xbd5727a2	-0.05252803
188	0x3cfb137f	0.030648945
189	0xbd9a20c5	-0.075257815
190	0xbdcb4782	-0.099257484
191	0xbdb4a009	-0.08819587
192	0x3dc43e0c	0.09582147
193	0xbdd4b8df	-0.10386824
194	0x3c487a66	0.012236213
195	0x3dcc580d	0.09977732
196	0xbcc6845a	-0.024233032
197	0xbca535f3	-0.020167327
198	0x3dc40bd1	0.09572566
199	0x3bdbb594	0.0067049954
200	0x3da0ae12	0.07845701
201	0x3d7b5860	0.061363578
202	0x3d80ef0c	0.062955946
203	0xbd64f42c	-0.055896923
204	0xbd2ec7fb	-0.042671185
205	0xbd7de3d3	-0.06198485
206	0xbcc8bfc5	-0.024505505
207	0xbaad336f	-0.0013214181
208	0xbcfd8eb9	-0.030951845
209	0x3d89f81e	0.06736778
210	0xbe05b171	-0.1305597
211	0xbd60175a	-0.05470977
212	0xbda15620	-0.07877755
213	0x3cdfe1c5	0.027329335
214	0x3c12ad7c	0.008952495
215	0xbd4a9cf6	-0.049466096
216	0xbd9e6204	-0.07733539
217	0xbcfe5c6b	-0.031049928
218	0xbc12aafe	-0.0089519005
219	0x3d6faa77	0.058512177
220	0x3d42b93f	0.047539946
221	0x3d7bff3c	0.061522707
222	0xbcd8c538	-0.026461229
223	0x3afb3982	0.0019166919
224	0x3d6b99ac	0.0575196
225	0xbadfc1b3	-0.0017071277
226	0x3ba61b92	0.0050692046
227	0xbd072b71	-0.033000413
228	0x3dd65f6d	0.1046742
229	0xbd403704	-0.046927467
230	0x3cdf68cd	0.027271653
231	0x3b265b81	0.002538413
232	0x3c89d573	0.016825413
233	0xbce15f11	-0.027511152
234	0x3d0c7fe8	0.03430167
235	0xbc9ea703	-0.019366747
236	0x3de477a1	0.1115563
237	0xbe5aca22	-0.2136617
238	0xbbf80b38	-0.0075696968
239	0xbd9a4acb	-0.07533797
240	0xbca32632	-0.019915674
241	0xbd404a92	-0.046946116
242	0x3d4a4f56	0.049392067
243	0xbd0bde32	-0.03414745
244	0xbd2f04f7	-0.042729344
245	0x3d3cd91b	0.046105485
246	0x3ce5dcfa	0.028059471
247	0xbc2b1701	-0.010442496
248	0x3c218f06	0.00986076
249	0x3d84b55e	0.064799055
250	0x3cffd053	0.031227266
251	0xbcd730a2	-0.026268307
252	0xbd116c33	-0.035503577
253	0xbc034a10	-0.008013263
254	0x3da38287	0.079838805
255	0xbd1a19f5	-0.03762241

action_model._discrete_distribution.branches.1.bias f4 [3]
0	0xbcc5b5a4	-0.024134465
1	0x3bfbb2ea	0.0076812403
2	0x3c7d6e1d	0.015468148

action_model._discrete_distribution.branches.1.weight f4 [3, 128]
0	0xbd006236	-0.03134366
1	0x3d2e6def	0.04258531
2	0xbcb31771	-0.021861764
3	0xbd482e4a	-0.04887227
4	0xbd83c164	-0.06433371
5	0x3d121f07	0.03567412
6	0xbd02833d	-0.03186344
7	0xbdad2e6c	-0.0845612
8	0xbcdeba20	-0.02718836
9	0xbdba6390	-0.09101021
10	0x3da24fe6	0.07925396
11	0xbd481247	-0.048845556
12	0x3d010bc3	0.031505357
13	0x3d9cc164	0.07654074
14	0x3d9a0245	0.07519964
15	0xbd150586	-0.03638222
16	0x3dc37956	0.09544627
17	0xbae35bb9	-0.0017346061
18	0x3cfad2d2	0.030618105
19	0xbdbc9995	-0.09208981
20	0xbc41c1e6	-0.011826014
21	0xbdce3da0	-0.10070348
22	0xbd2fd0e0	-0.042923808
23	0xbd001b77	-0.031276193
24	0xbcf56298	-0.02995424
25	0xbd861c19	-0.06548328
26	0xbd3b90b9	-0.045792315
27	0xbbd8ad21	-0.0066124354
28	0xbda4e5ec	-0.080516666
29	0xbdc85031	-0.0978092
30	0x3d565fd2	0.052337475
31	0xbd857d75	-0.0651807
32	0xbd13947d	-0.03603028
33	0xbd7451d2	-0.059648342
34	0xbdcd59c6	-0.100268885
35	0x3d725c33	0.05916996
36	0xbce94b09	-0.028478162
37	0xbdc9bb85	-0.0985022
38	0xbda83a09	-0.08214194
39	0xbe10c06e	-0.14135906
40	0x3c02f303	0.007992509
41	0xbcd5866b	-0.026065072
42	0x3d71c7b5	0.059028346
43	0xbca5f061	-0.020256223
44	0x3d2c2724	0.042029515
45	0x3ad650fe	0.0016351042
46	0x3d9e6ebe	0.07735966
47	0x3b0977bb	0.0020975906
48	0xbc95532f	-0.018228142
49	0xbd73b08b	-0.059494536
50	0x3d28a172	0.04116959
51	0xbd2ec087	-0.042664077
52	0x3c24cf88	0.010059245
53	0x3ca47415	0.020074883
54	0xbd358551	-0.044316594
55	0x3d1c4cf2	0.03815932
56	0xbc29e6e0	-0.010369986
57	0xbd12e886	-0.035866283
58	0x3dc0e027	0.09417754
59	0xbc0cfc71	-0.008605109
60	0x3dd292b6	0.10281889
61	0x3c854ffb	0.01627349
62	0x3ce0c130	0.027435869
63	0xbd4d4888	-0.050118
64	0xbd5d1379	-0.05397365
65	0x3c850c47	0.016241206
66	0x3d8b7605	0.0680962
67	0xbd8cdba5	-0.06877831
68	0xbc1c85d5	-0.009553392
69	0xbbd99c6d	-0.006640962
70	0x3c0ab868	0.008466817
71	0xbe083e0d	-0.1330492
72	0x3cae3a0b	0.021267911
73	0x3c07abdc	0.008280721
74	0x3da09c70	0.07842338
75	0x3d29ebca	0.04148463
76	0x3ca9f5ae	0.020747032
77	0xbdd8899d	-0.10573123
78	0xbdd32370	-0.103094935
79	0x3c9c5b34	0.019086458
80	0xbcace5e2	-0.02110571
81	0x3ccbca79	0.02487682
82	0x3bc98cbc	0.00615081
83	0x3bbf9a50	0.005847253
84	0x3c30d96c	0.010794025
85	0x3c417bd6	0.01180931
86	0xbbca7921	-0.0061789905
87	0xbe0741fc	-0.13208765
88	0x3c908182	0.01763988
89	0x3c9e1975	0.019299248
90	0xbcbbe23e	-0.02293503
91	0x3d404bc5	0.04694726
92	0xbc218259	-0.009857737
93	0x3c58d6b3	0.013234782
94	0xbc4807c2	-0.012208881
95	0xbcfb2955	-0.030659357
96	0xbcd05ae4	-0.025433965
97	0x3cafa8e3	0.021442836
98	0x3d99c55e	0.07508348
99	0xbda02638	-0.0781979
100	0xbd5d81c1	-0.05407882
101	0xbd06f025	-0.032943863
102	0xbbdb1be6	-0.0066866754
103	0xbc4dec96	-0.0125686135
104	0x3d2350c2	0.03987194
105	0xbdbe5c84	-0.0929499
106	0xbb10c540	-0.0022090226
107	0xbb9517c3	-0.0045499518
108	0x3d29347b	0.041309815
109	0xbd2b658f	-0.0418449
110	0x3d25a17d	0.04043721
111	0x3d60a7db	0.05484758
112	0x3cdeb203	0.027184492
113	0xbccea8d7	-0.025226993
114	0xbd2580c4	-0.040406004
115	0xbc642a0f	-0.013926043
116	0xbe0df4b7	-0.13862883
117	0xbcdc47ba	-0.02688967
118	0x3d4961fa	0.049165703
119	0x3cff46c1	0.031161668
120	0x3d6bc7f3	0.057563733
121	0xbd829bcf	-0.063773744
122	0x3ce479b9	0.027890073
123	0xbc2ef747	-0.010679073
124	0xbcb37c7f	-0.02190995
125	0x3d23eb67	0.04001942
126	0x3b5f878e	0.0034107896
127	0x3d4db4b8	0.050221175
128	0x3d2510d5	0.040299255
129	0x3b889f9c	0.0041694175
130	0x3d74bfba	0.059753157
131	0xba66a100	-0.00087977946
132	0x3d0af7b5	0.033927638
133	0x3cd81837	0.026378734
134	0xbe02ffe8	-0.12792933
135	0x3d88dcb3	0.0668272
136	0x3bd5d411	0.0065255244
137	0x3ca02742	0.01954997
138	0x3c0c510e	0.008564247
139	0xbd43fb16	-0.047846876
140	0xbce4dc6b	-0.027937135
141	0x3d20368c	0.03911452
142	0xbcc2080d	-0.02368548
143	0x3d70c18a	0.058778323
144	0xbcbd155b	-0.023081472
145	0x3b8eef2d	0.004362008
146	0x3aa386d9	0.0012476101
147	0xbc868a3c	-0.016423337
148	0xbdbcb8fb	-0.0921497
149	0x3c33dcb2	0.010977911
150	0xbd2f66e3	-0.04282273
151	0xbb1ecdcf	-0.0024231558
152	0x3c7c2a6c	0.015390974
153	0x3c9892b3	0.01862464
154	0x3d06d890	0.032921374
155	0x3d01bc1e	0.031673543
156	0x3d57ec30	0.05271548
157	0x3ccc98e6	0.024975251
158	0xbb808a94	-0.00392277
159	0x3cfddaf2	0.03098819
160	0x3c85512a	0.016274054
161	0x3d4cf1b7	0.050035205
162	0x3d93c2c9	0.07214887
163	0xbc94a805	-0.018146524
164	0xbc7eabd3	-0.015543896
165	0x3cd06ce7	0.025442554
166	0xbda07356	-0.078344986
167	0x3d66531b	0.0562316
168	0xbc8cbe52	-0.017180596
169	0xbd92a459	-0.07160253
170	0x3cea7e23	0.0286246
171	0x3d23b6dd	0.039969314
172	0xbd86cadd	-0.06581662
173	0xbb56c180	-0.0032769144
174	0xbd6a4efa	-0.057204224
175	0x3c9031d3	0.017601883
176	0x3d863675	0.065533556
177	0x3d1678cc	0.036736295
178	0x3d0d3bf0	0.03448099
179	0xbd1a66a6	-0.03769555
180	0xbcdf1d2b	-0.027235588
181	0x3cc78c56	0.02435891
182	0x3debd265	0.11514739
183	0xbe00a1ad	-0.12561674
184	0x3d145f73	0.03622384
185	0x3cb0c457	0.021577997
186	0x3c87bb28	0.016568735
187	0x3d5eaf22	0.05436624
188	0xbd4a027b	-0.04931877
189	0xbd83f848	-0.0644384
190	0xbde1d390	-0.110266805
191	0xbc76a99c	-0.015055086
192	0x3d521b91	0.05129582
193	0x3dc88f8c	0.097930044
194	0x3d37cb83	0.04487182
195	0x3db134a9	0.08652622
196	0x3c82902a	0.015937883
197	0x3d8e4604	0.06946948
198	0x3c88979f	0.016673861
199	0x3d1073fc	0.03526686
200	0xbd30e748	-0.043189317
201	0x3d1e1be0	0.038600802
202	0x3d3a7aad	0.04552715
203	0xbdce769b	-0.10081216
204	0xbd2cbc46	-0.04217174
205	0x3d8c1f45	0.06841902
206	0xbd69b555	-0.057057697
207	0xbd8f2f1f	-0.069914095
208	0x3d999c2f	0.07500493
209	0x3ca38bf3	0.019964194
210	0xbc7f9aa9	-0.015600839
211	0xbdadfdfc	-0.08495709
212	0xbb56e50f	-0.0032790338
213	0x3d35b18c	0.044358775
214	0x3d7b9698	0.061422914
215	0x3cc9d0b8	0.024635658
216	0xbd3526fc	-0.04422663
217	0xbc082d0c	-0.008311521
218	0x3d1b6bd9	0.03794465
219	0xbc591e6d	-0.013251883
220	0x3c3ab5cb	0.011395882
221	0x3cda10ee	0.0266194
222	0x3da38cb8	0.07985824
223	0xbc69f027	-0.014278448
224	0x3cfbb68c	0.030726694
225	0x3cacadc2	0.021078948
226	0xbe14df5a	-0.14538327
227	0x3cd67a21	0.026181282
228	0x3d4bb56f	0.049733575
229	0xbd343515	-0.043995935
230	0x3da1b60f	0.07896053
231	0x3d5f86b3	0.05457182
232	0x3d0100e9	0.03149501
233	0x3cfba1d9	0.030716823
234	0x3c3000d5	0.010742386
235	0x3dd6e63b	0.10493132
236	0xbc908991	-0.017643722
237	0xbda87b50	-0.08226645
238	0xbbf5b030	-0.00749781
239	0xbc0e86f5	-0.008699168
240	0x3c9adf1d	0.018905217
241	0xbbf21a55	-0.007388393
242	0x3d09336f	0.033496317
243	0xbc970923	-0.018436974
244	0x3d7a2845	0.06107356
245	0x3c478756	0.012178263
246	0xbd515224	-0.051103726
247	0xbd2ed1ed	-0.04268067
248	0x3d269d16	0.040677153
249	0xbd9f88b2	-0.077897444
250	0x3a076912	0.0005165498
251	0xbda27ede	-0.07934354
252	0x3da2d97a	0.079516366
253	0xbd5f4eb1	-0.054518405
254	0x3d48bc1e	0.049007528
255	0x3ccc3e69	0.024932103

network_body.linear_encoder.seq_layers.0.bias f4 [128]
0	0xbd285dd3	-0.041105103
1	0x3d1584dc	0.036503658
2	0xbd74e18e	-0.05978542
3	0xbca1f81e	-0.019771632
4	0x3cd1b027	0.025596691
5	0x3d03b42e	0.032154255
6	0xbd856b68	-0.06514627
7	0xbd85c5e5	-0.06531886
8	0xb9dc94d8	-0.00042072567
9	0xbce0fb62	-0.027463619
10	0xbcecfd02	-0.028929237
11	0xbd698065	-0.057007212
12	0x3d0795ea	0.033101954
13	0x3b9bcd96	0.0047547324
14	0xbc8d22d5	-0.017228523
15	0xbadcfb7e	-0.0016859618
16	0x3cfff31e	0.031243857
17	0xbcf7ecdc	-0.03026431
18	0x3d346d26	0.044049405
19	0x3cc66139	0.024216281
20	0xbc35f9c2	-0.01110691
21	0xbca986ba	-0.020694125
22	0xbda6a729	-0.08137352
23	0xbc83c8a3	-0.016086882
24	0xbd9b9a1f	-0.07597756
25	0xbb4c9bac	-0.0031220717
26	0xbd4bf2f5	-0.04979225
27	0xbcab042a	-0.020876009
28	0xbd98e193	-0.074649
29	0x3cf47d30	0.02984485
30	0xbbb8e078	-0.005641993
31	0x3b9bfda6	0.004760462
32	0x3b6649a1	0.00351391
33	0x3d163b11	0.036677424
34	0x3951d292	0.00020010237
35	0xbc753146	-0.014965361
36	0x3c55136a	0.013005117
37	0x3d3b7ede	0.045775287
38	0xbdbee403	-0.093208335
39	0xbc4a09d8	-0.0123314485
40	0x3d142124	0.036164418
41	0xbc3d8447	-0.011567182
42	0xbd06814a	-0.032838143
43	0xbc8c4fda	-0.01712792
44	0xbd2666a4	-0.04062523
45	0x3d0c932f	0.034320053
46	0xbd42e83a	-0.04758475
47	0xba17e7d4	-0.0005794738
48	0x3d15c820	0.036567807
49	0x3ce25d12	0.02763227
50	0xbc268e7d	-0.010165808
51	0xbd4eed95	-0.050519545
52	0xbc7e0216	-0.015503427
53	0x3d477a21	0.048700456
54	0x3c7c69f3	0.01540612
55	0x3d086ed4	0.03330882
56	0xbd218c76	-0.039440595
57	0xbc4cc2a7	-0.012497581
58	0xbd81c35e	-0.063360915
59	0x3b48648e	0.0030577513
60	0x3d1f53d5	0.038898308
61	0x3bcff1a0	0.0063459426
62	0x3d2de7be	0.042457335
63	0x3be20475	0.006897504
64	0xbc1696dd	-0.009191242
65	0x3ce172ea	0.027520616
66	0x3ca09e4c	0.019606732
67	0xbce9584d	-0.028484488
68	0x3a7da233	0.00096753536
69	0xbdade443	-0.08490803
70	0x3d17dbd5	0.037074883
71	0xbd7d040c	-0.061771438
72	0x3d8334c1	0.064065464
73	0xbd7c687c	-0.06162308
74	0xbc8e614d	-0.017380381
75	0xbbabb7ce	-0.005240417
76	0x3cb13444	0.021631368
77	0x3c71ce72	0.014758693
78	0xbd2aacfa	-0.04166887
79	0x3c14bbbe	0.009077964
80	0xbc029b4b	-0.007971595
81	0xbda725c6	-0.081615016
82	0xbd45e5fe	-0.04831504
83	0xbd0e57b9	-0.034751628
84	0xbccb81b9	-0.02484213
85	0x3c3bbe86	0.011458999
86	0xbd0fa27f	-0.035067078
87	0x3c0dd73f	0.008657276
88	0xbdae6b9b	-0.08516618
89	0x3be81f3b	0.007083801
90	0xbc9f09e9	-0.019413905
91	0xbd803e6e	-0.062619075
92	0xbc3b3050	-0.011425093
93	0xbd7fab6c	-0.06241934
94	0x3cfb3f25	0.030669758
95	0xbc24813c	-0.0100405775
96	0x3c8b0508	0.016970173
97	0xbda59d24	-0.08086613
98	0xbc95a57b	-0.018267384
99	0x380205da	3.0999865e-05
100	0xbd86270f	-0.065504186
101	0xbc660e5c	-0.0140415095
102	0x3ca38008	0.019958511
103	0x3d685b1a	0.056727506
104	0x3b340914	0.0027471231
105	0xbcba7e96	-0.022765439
106	0x3d2534ec	0.040333673
107	0x3cbb18d8	0.022838995
108	0xbd1e02b5	-0.0385768
109	0xbb8e45f9	-0.0043418375
110	0xbd5cd1ea	-0.053911127
111	0xbd4cf6dc	-0.05004011
112	0xbda7eab8	-0.08199066
113	0x3cbab1e7	0.022789909
114	0x3d695db0	0.056974113
115	0xbca6baa4	-0.020352669
116	0x3c916408	0.017747894
117	0x3c0dd0c5	0.008655732
118	0x3b7872f2	0.003791031
119	0xbc7400c8	-0.014892764
120	0x3c5930fd	0.013256309
121	0xbbb63265	-0.0055602067
122	0xbd6e2b5f	-0.05814683
123	0x3c7fb5b3	0.015607285
124	0x3dadb106	0.0848103
125	0xbceabbcb	-0.028654
126	0xbd4a6cd0	-0.049420178
127	0x3cffcdf3	0.031226134

network_body.linear_encoder.seq_layers.0.weight f4 [128, 29]
0	0xbd401524	-0.04689516
1	0x39bd780f	0.0003613834
2	0x3d8df4f1	0.069314845
3	0x3cc3e634	0.02391348
4	0x3e0a273d	0.1349153
5	0x3da6c998	0.0814392
6	0xbcfa8064	-0.0305788
7	0x3ebad10c	0.36487615
8	0x3e6341ef	0.2219312
9	0x3e927f04	0.2861253
10	0x3d822f56	0.06356685
11	0xbc9e26d9	-0.019305633
12	0x3e664beb	0.22489898
13	0x3da50225	0.0805705
14	0xbe2f97a6	-0.17147693
15	0x3ea14137	0.31495067
16	0xbe0ca5c2	-0.13735107
17	0x3caf8830	0.021427244
18	0x3e0336ab	0.12813823
19	0xbe77367e	-0.24141881
20	0x3e9f9ce0	0.31174374
21	0x3e8b4ff3	0.27209434
22	0xbd928ca1	-0.07155729
23	0xbc7c4ee1	-0.015399666
24	0xbdd2e477	-0.102974825
25	0x3c42ae2e	0.011882348
26	0x3e82c435	0.2554032
27	0xbe590787	-0.21194278
28	0xbdacbe55	-0.084347405
29	0xbecdf310	-0.40224504
30	0x3e3039d8	0.17209566
31	0xbd14d5a3	-0.036336552
32	0x3d71d0fc	0.059037194
33	0x3c55b585	0.013043766
34	0x3df05c33	0.117363356
35	0xbd9e7e8e	-0.07738982
36	0xbeba363c	-0.36369503
37	0xbe5d1877	-0.21591364
38	0xbeb69857	-0.356631
39	0xbc074353	-0.008255797
40	0xbe89b278	-0.26893973
41	0x3dd8ca49	0.10585458
42	0xbd26f49f	-0.040760633
43	0xbd2dbd00	-0.042416573
44	0x3e3811d1	0.17975546
45	0xbdb5d5e9	-0.08878691
46	0xbe8b9456	-0.2726161
47	0x3dc58772	0.09644975
48	0xbe34dbd3	-0.17661981
49	0x3e221ff3	0.158325
50	0x3d6fa91c	0.058510885
51	0x3e428d05	0.18999107
52	0xbcc2c26e	-0.023774352
53	0xbe6a43d8	-0.22877443
54	0x3ee35f9b	0.4440888
55	0xbe159321	-0.14606906
56	0x3d838d95	0.06423489
57	0xbe9761b4	-0.2956673
58	0x3befbbf7	0.0073161083
59	0xbdc69cf1	-0.09697903
60	0x3dbd43bd	0.09241436
61	0x3ca3231b	0.0199142
62	0x3eb568fc	0.3543166
63	0xbe116538	-0.14198768
64	0xbbd8e949	-0.0066196066
65	0x3e12d97a	0.14340773
66	0xbe707b16	-0.23484454
67	0xbec36fa6	-0.38171118
68	0x3c88e688	0.016711488
69	0xbdcb09d0	-0.09913981
70	0xbdd5abb5	-0.10433141
71	0xbb124acd	-0.0022322417
72	0x3e6f41dd	0.23364969
73	0xbe9e7033	-0.30944976
74	0x3d4b47d4	0.049629048
75	0xbdc1ba8f	-0.09459411
76	0xbc254a34	-0.010088492
77	0xbe040048	-0.12890732
78	0xbe9e0065	-0.30859676
79	0xbec27b8a	-0.37984878
80	0xbd8f910f	-0.070100896
81	0x3d59d4a6	0.053181313
82	0x3e370a46	0.17875013
83	0x3e9bb90d	0.3041462
84	0x3db1cd05	0.086816825
85	0x3e000bbe	0.1250448
86	0xbe5b9dfe	-0.21446988
87	0x3e1570a7	0.14593755
88	0xbd127b6c	-0.035762236
89	0xbcad2712	-0.021136794
90	0x3d4b180e	0.049583487
91	0xbe1d0e71	-0.1533754
92	0x3e8f9030	0.28039694
93	0x3e51175e	0.2041907
94	0xbe24a40b	-0.16078202
95	0xbf0d3f00	-0.55174255
96	0xbdad34bc	-0.08457324
97	0x3df02d84	0.117274314
98	0x3e20e573	0.15712528
99	0xbd3f1302	-0.046648987
100	0x3e6de299	0.23230971
101	0xbe705a89	-0.23472036
102	0xbe474f82	-0.19463924
103	0xbe2a505f	-0.16632222
104	0xbd6bbe4f	-0.05755454
105	0x3e2fae5b	0.17156355
106	0xbe3e6e98	-0.18596876
107	0xbca44a07	-0.02005483
108	0xbe984c80	-0.29745865
109	0x3d2dae14	0.042402342
110	0x3dd04451	0.1016928
111	0x3def52d2	0.116857186
112	0x3e3481ad	0.17627592
113	0xbec64073	-0.38721046
114	0x3d19b1ec	0.037523195
115	0xbe05f3e7	-0.13081323
116	0x3e37e0c9	0.17956842
117	0xbb5d11a3	-0.0033732436
118	0x3e58f8a8	0.21188605
119	0x3e26a52d	0.16273947
120	0xbe01da6c	-0.12680978
121	0x3d9fbdef	0.07799899
122	0x3d32cb8f	0.04365116
123	0x3e3f630d	0.18690129
124	0x3e1ac86f	0.15115522
125	0xbe810b6a	-0.2520402
126	0x3e4448ed	0.19168444
127	0x3db0bd3a	0.08629842
128	0xbc636eee	-0.013881428
129	0x3e038dd9	0.1284708
130	0x3f0e61de	0.55618083
131	0x3ba1c54f	0.004936851
132	0xbde59194	-0.112094074
133	0x3dba980f	0.09111034
134	0xbddf398b	-0.10899647
135	0xbe832619	-0.25615004
136	0x3ea0920d	0.31361428
137	0x3dfd0bdd	0.12355778
138	0x3e8b2856	0.2717921
139	0x3ebebd63	0.37253866
140	0x3e2a2bef	0.16618322
141	0xbd1cadb5	-0.038251597
142	0x3d9e0a36	0.07716791
143	0x3bf76e1a	0.007550967
144	0xbe94ec9a	-0.29086763
145	0xbe171696	-0.1475471
146	0xbe37f49a	-0.17964402
147	0xbe5f5e25	-0.21813257
148	0xbe97154a	-0.2950843
149	0xbe4890d2	-0.19586495
150	0xbd88efff	-0.066864006
151	0xbe9f9c03	-0.31173715
152	0x3d223d0b	0.039608996
153	0x3d74892e	0.059701137
154	0x3ec8afcc	0.39196622
155	0xbe3626d1	-0.17788245
156	0x3e511675	0.20418723
157	0xbd3edf28	-0.046599537
158	0xbd8bb9eb	-0.068225704
159	0xbe3dba55	-0.18528111
160	0xbbf9dd26	-0.00762524
161	0x3ec8d9ea	0.39228755
162	0xbd332508	-0.043736488
163	0x3e93062c	0.28715646
164	0xbe4ba12e	-0.19885704
165	0xbe2b381d	-0.16720624
166	0xbe913222	-0.2835856
167	0xbf0b2cc9	-0.5436521
168	0xbec61ea5	-0.38695255
169	0x3de15545	0.11002592
170	0xbd3f0319	-0.046633814
171	0x3e3879cb	0.1801521
172	0xbe904c74	-0.2818333
173	0x3df1c61a	0.11805363
174	0x3de8f6f6	0.11375229
175	0x3d9f9744	0.077925235
176	0xbe29a8ff	-0.16568373
177	0x3c57e069	0.013176062
178	0xbd861eee	-0.06548868
179	0xbe148d51	-0.14507033
180	0xbe77b793	-0.24191122
181	0x3de6a944	0.112627536
182	0x3e371846	0.17880353
183	0x3e17bd35	0.1481827
184	0xbdfcbfb3	-0.12341251
185	0xbd700d01	-0.05860615
186	0x3f21ee73	0.6325447
187	0xbe39158a	-0.18074623
188	0xbe9aba18	-0.30220103
189	0x3ef86ba2	0.48519617
190	0xbe0cc56b	-0.13747184
191	0xbe112d1e	-0.14177367
192	0x3df0c84e	0.11756955
193	0xbc08010d	-0.008301032
194	0x3e9861ae	0.29762024
195	0x3e0bc002	0.13647464
196	0xbd0c2b30	-0.034220874
197	0x3c3fef44	0.01171476
198	0x3e2b4357	0.16724907
199	0x3d81c693	0.06336703
200	0xbe15b977	-0.1462153
201	0x3e2c37ee	0.1681821
202	0xbdfc3cc9	-0.12316281
203	0x3e010416	0.12599215
204	0x3c442a10	0.011972919
205	0xbe8d251e	-0.2756738
206	0x3dbb9c2c	0.09160647
207	0x3d463029	0.048385773
208	0x3d4f480f	0.05060583
209	0xbc520124	-0.012817655
210	0xbe953626	-0.29142874
211	0xbde5587a	-0.11198516
212	0xbe1bbb37	-0.15208136
213	0xbe309237	-0.17243277
214	0x3e179bb6	0.14805493
215	0x3ce8a3c8	0.02839841
216	0x3d7cfdc1	0.061765436
217	0xbe4f65ff	-0.20253752
218	0x3e691525	0.22761972
219	0x3d1f7568	0.038930327
220	0xbd5759cb	-0.052575868
221	0x3ebf42e1	0.37355712
222	0xbe16571e	-0.1468167
223	0xbc87ce63	-0.016577905
224	0x3f1a22dd	0.6020945
225	0x3e76ccfc	0.24101633
226	0x3e38458c	0.1799528
227	0xbdc1e871	-0.09468163
228	0xbeb394ef	-0.35074565
229	0x3e1dc67c	0.15407747
230	0x3efe5ce6	0.4968025
231	0x3ccf6aa7	0.02531941
232	0x3e640b2a	0.22269884
233	0x3d96daf7	0.07365983
234	0xbeeade9f	-0.4587297
235	0xbbbfa0d7	-0.005848031
236	0xbe45ddf5	-0.19322951
237	0x3e68878f	0.22707961
238	0x3dc8aef6	0.09798996
239	0xbd41c558	-0.047307342
240	0xbdb709ff	-0.089374535
241	0x3d6bc99e	0.057565324
242	0x3ea26073	0.3171421
243	0x3ed54d13	0.41660365
244	0x3e9824b9	0.29715517
245	0x3e8e0a2e	0.2774214
246	0x3ca6f733	0.020381546
247	0xbe9bde9e	-0.3044328
248	0xbe4ba5a9	-0.19887413
249	0x3e910bba	0.2832926
250	0x3df28764	0.1184223
251	0x3e6b286c	0.22964638
252	0xbddd76dd	-0.10813687
253	0xbdeafa42	-0.11473514
254	0x3e2baab7	0.16764341
255	0xbda2edd8	-0.07955521

network_body.linear_encoder.seq_layers.2.bias f4 [128]
0	0xbd57d2ec	-0.052691385
1	0xbd896795	-0.0670921
2	0xbbcc9d6c	-0.006244352
3	0xbd33a328	-0.04385677
4	0x3b392ed6	0.0028256676
5	0xbc9ce5fa	-0.01915263
6	0x3d270abf	0.040781733
7	0xbcce8645	-0.02521051
8	0xbc70909c	-0.014682915
9	0xbc697760	-0.014249653
10	0xbcf2fa1c	-0.029660277
11	0x3cfc8506	0.03082515
12	0xbd6dc6a4	-0.058050767
13	0xbcf5fa91	-0.030026706
14	0xbd861dd8	-0.06548661
15	0xbd45d3ec	-0.048297808
16	0xbc7f23d3	-0.015572506
17	0xbd759b53	-0.05996258
18	0xbc642220	-0.013924152
19	0x3c95a3fa	0.018266667
20	0x3d11aff1	0.03556818
21	0xbcbead35	-0.02327595
22	0xbd1e6a39	-0.03867552
23	0xbd5047cb	-0.050849717
24	0x3bb81f62	0.0056189755
25	0xbc9b9f65	-0.018996904
26	0x3d2362bc	0.039889082
27	0xbd800b4c	-0.06252155
28	0x3b674d83	0.0035294003
29	0xbd806bc4	-0.06270555
30	0xbd90ffb5	-0.07080022
31	0xbc62085a	-0.0137959365
32	0xbd4fc142	-0.050721414
33	0xbd4124f1	-0.04715437
34	0xbd136d90	-0.03599316
35	0xbbb7f7ae	-0.0056142425
36	0xbd3dcf28	-0.046340138
37	0xbc3e740c	-0.011624347
38	0x3d121805	0.035667438
39	0xbc376fe6	-0.011196112
40	0x3b3a0b0f	0.002838794
41	0x3c95118d	0.018196845
42	0xbcbece8e	-0.023291852
43	0x3c09297c	0.008371707
44	0x3c2e2189	0.010628113
45	0x3cc3fd16	0.023924392
46	0x3b7dda59	0.0038734882
47	0xbcdf3900	-0.02724886
48	0xbcf8fd19	-0.030394124
49	0xbd16d1de	-0.03682124
50	0xbd9f7fdf	-0.07788061
51	0x3ad343f5	0.0016118275
52	0xbd5b091b	-0.05347548
53	0xbc1eb54c	-0.009686779
54	0x3ac4d7e8	0.0015017958
55	0x3ca537d8	0.02016823
56	0xbd987791	-0.074446805
57	0xbb271d42	-0.0025499617
58	0xbca2b686	-0.019862425
59	0xbdc7c47d	-0.09754274
60	0xbaaf2066	-0.0013361096
61	0x3cae82f9	0.021302687
62	0x3d4f3c45	0.050594587
63	0x3d2b0a4b	0.041757863
64	0xbcc611c4	-0.024178393
65	0x3aa32630	0.0012447294
66	0xbd0cdcf9	-0.034390423
67	0xbc3101e3	-0.0108036725
68	0xbd15b6a8	-0.036551148
69	0xbcdccb80	-0.026952505
70	0xbc840f7a	-0.016120661
71	0xbd4a4f26	-0.049391888
72	0x3c6ae4a4	0.014336739
73	0xbca233d3	-0.019800102
74	0xbd0888fc	-0.033333763
75	0x3cac2166	0.02101202
76	0xbb93b1ac	-0.004507264
77	0xbc43c658	-0.011949144
78	0xbc6e55ea	-0.014546851
79	0xbc5c493b	-0.013445194
80	0xbd02caf5	-0.031931836
81	0xbd88ba9e	-0.066762194
82	0x3c01dc45	0.0079260515
83	0x3cb20d57	0.021734877
84	0xbccfc9c6	-0.025364768
85	0xbd590916	-0.05298718
86	0xbd183b9b	-0.03716622
87	0x3b26dd2b	0.0025461416
88	0x3c4e36e8	0.012586333
89	0x3c3b354d	0.011426282
90	0xbd32533f	-0.04353642
91	0xbda4b1f4	-0.08041754
92	0xbd8d5b9e	-0.0690224
93	0xbb95b419	-0.0045685885
94	0x3bc97db5	0.0061490186
95	0xbd86b1b2	-0.065768614
96	0xbda7d125	-0.08194188
97	0x3aaced6d	0.0013193317
98	0x3d1ed931	0.03878135
99	0x3bc4c6cd	0.006005144
100	0xbd1c0833	-0.038093757
101	0x3c372d24	0.011180196
102	0xbcd2cf51	-0.025733622
103	0xbd49c00d	-0.04925542
104	0xbd7b66b1	-0.06137723
105	0xbd09c573	-0.033635568
106	0xbd0be858	-0.034157127
107	0xbd8adf9a	-0.0678093
108	0xbc230a05	-0.009951119
109	0x3da0887c	0.07838532
110	0xbdcca903	-0.09993174
111	0xbd427a74	-0.04748006
112	0xbd3bdb8d	-0.045863677
113	0xbc0550a6	-0.008136904
114	0xbc6becad	-0.01439969
115	0xbd638aea	-0.0555524
116	0xbb1904be	-0.0023348774
117	0xbcc01688	-0.023448244
118	0xbd1081fb	-0.03528021
119	0xbd0cd346	-0.034381174
120	0xbd987155	-0.07443491
121	0xbb04f6f8	-0.0020288806
122	0xbd4ae13e	-0.049531214
123	0x3c4bdb38	0.012442403
124	0xbc5a17dd	-0.0133113535
125	0xbc9ff21c	-0.019524626
126	0xbd2e0460	-0.04248464
127	0xbdb7063a	-0.089367345

network_body.linear_encoder.seq_layers.2.weight f4 [128, 128]
0	0x3cdff743	0.027339583
1	0xbb14e315	-0.002271836
2	0xbe2951bc	-0.16535085
3	0x3d541ab6	0.051783286
4	0xbdff4734	-0.12464753
5	0x3c121dba	0.00891822
6	0x3cf2e337	0.02964936
7	0x3d32ad87	0.04362252
8	0x3d362127	0.04446521
9	0xbda7c90a	-0.08192642
10	0xbde2d066	-0.11074905
11	0x3d84da30	0.064869285
12	0xbdfbce1c	-0.122951716
13	0xbc9183f5	-0.017763117
14	0xbdbd4e78	-0.09243482
15	0xbdf753dc	-0.12076542
16	0xbc58157b	-0.013188715
17	0x3cef7e10	0.029234916
18	0xbdf8fc09	-0.12157447
19	0xbda7d47f	-0.08194827
20	0xbdea8fe3	-0.114532255
21	0xbe12e50b	-0.14345185
22	0x3dee8bd6	0.11647765
23	0xbb3eaef4	-0.002909598
24	0xbd7c0fff	-0.061538693
25	0x3dbc4f64	0.0919483
26	0x3e6d29bd	0.23160453
27	0x3e23619f	0.15955208
28	0x3d4adab0	0.049524963
29	0x3cde8080	0.027160883
30	0xbc31cc09	-0.010851868
31	0x3d6385bc	0.05554746
32	0x3ce7726f	0.028252808
33	0x3dec307b	0.115326844
34	0x3d876f22	0.06612994
35	0x3c16307e	0.009166835
36	0xbd50aa3d	-0.050943602
37	0x3d352661	0.044226054
38	0x3b1eeebb	0.0024251181
39	0x3c875a40	0.016522527
40	0xbd63caff	-0.055613514
41	0x3d97d1be	0.07413052
42	0xbd291d64	-0.041287795
43	0xbe5f1157	-0.21783958
44	0x3d0731da	0.033006527
45	0xbe2a4138	-0.16626441
46	0xbdda9be2	-0.106742635
47	0xbd65ee53	-0.056135487
48	0x3c97099a	0.018437196
49	0x3c1619f4	0.009161461
50	0xb8a5ac1e	-7.8998724e-05
51	0x3ccd8555	0.025087992
52	0xbd115cc6	-0.035488866
53	0x3c97124c	0.018441342
54	0xbe1854ff	-0.14876173
55	0xbde216cd	-0.11039505
56	0x3d050750	0.032477677
57	0xbdf04483	-0.117318176
58	0x3db072c1	0.086156376
59	0xbc9fcd77	-0.019507153
60	0xbdf18981	-0.11793805
61	0x3c32625c	0.0108877085
62	0xbbe4e0af	-0.006984792
63	0x3e0ddfc9	0.13854899
64	0x3cb1a228	0.021683767
65	0x3e0cce43	0.13750558
66	0xbe1a4d6a	-0.15068594
67	0x3c9fd568	0.01951094
68	0x3d20943b	0.039203864
69	0x3e0d1b4a	0.13779941
70	0x3d3a3975	0.04546495
71	0x3bb0c30a	0.005394344
72	0x3b47c971	0.0030485059
73	0xbdcde96c	-0.10054287
74	0x3dabd85e	0.08390878
75	0xbe0d6ade	-0.13810298
76	0xbe11bcfb	-0.14232247
77	0xbd1fb3dd	-0.03898989
78	0x3d5c5ec2	0.053801306
79	0x3da841f7	0.08215707
80	0xbd255d7f	-0.040372368
81	0xbdd38eef	-0.10329997
82	0xbd29815c	-0.041383132
83	0x3d413136	0.04716607
84	0x3e0b823d	0.136239
85	0x3ca8a23f	0.020585177
86	0x3c0ae37d	0.008477089
87	0x3d131bd2	0.035915203
88	0x3dfb87a1	0.122817285
89	0xbbc7c80a	-0.0060968446
90	0x3d77ac1c	0.06046687
91	0x3e5a40c5	0.2131377
92	0x3d786526	0.060643338
93	0x3d933fa4	0.07189873
94	0xbe3749ce	-0.17899248
95	0xbd953e86	-0.07287316
96	0xbd252a06	-0.04032328
97	0x3dfd33ad	0.12363372
98	0xbddd962f	-0.10819661
99	0xbd6fa9f2	-0.05851168
100	0x3df68769	0.12037546
101	0x3d65014d	0.055909444
102	0xbe75e401	-0.24012758
103	0xbe1395f5	-0.14412673
104	0xbc3f678e	-0.011682404
105	0x3d94232a	0.072332695
106	0xbe57b515	-0.21065171
107	0xbe147ec3	-0.14501481
108	0x3de0163e	0.10941742
109	0x3c7668ba	0.015039617
110	0x3d8f1213	0.06985869
111	0xbccdb005	-0.025108347
112	0x3cda3bd4	0.026639856
113	0xbda552a4	-0.08072403
114	0xbe221f23	-0.1583219
115	0x3dbba6df	0.091626875
116	0xbdd35b94	-0.103202015
117	0xbdce0d29	-0.10061104
118	0xbe3ddb38	-0.18540657
119	0x3e35c730	0.17751765
120	0xbdb90d7c	-0.09035775
121	0x3e235e22	0.15953878
122	0xbd08ac84	-0.03336765
123	0x3dd9888d	0.10621748
124	0x3d3ffe40	0.04687333
125	0x3d1beacb	0.038065713
126	0x3d006557	0.031346645
127	0xbcc6ef4d	-0.02428403
128	0xbd738f84	-0.05946304
129	0x3dc21363	0.09476354
130	0xbb7387b3	-0.003715974
131	0x3d9e51d2	0.0773045
132	0xbd952405	-0.07282261
133	0xbe6c3fb5	-0.23071177
134	0xbb930221	-0.004486338
135	0x3d55d0df	0.052201148
136	0x3df9daae	0.12199913
137	0xbd914a03	-0.07094195
138	0xbdd06013	-0.10174575
139	0xbd160910	-0.036629736
140	0x3e5350de	0.20636317
141	0xbe1be60d	-0.15224476
142	0xba11ed75	-0.0005566695
143	0x3db0903a	0.08621259
144	0xbd81ff4d	-0.06347523
145	0xbcedbe8d	-0.029021526
146	0xbc8f3ccb	-0.017485043
147	0xbd7743c8	-0.060367376
148	0xbc3e6f45	-0.011623208
149	0xbb89079b	-0.004181815
150	0x3d00a48a	0.031406917
151	0x3d8ed215	0.06973664
152	0xbdc9d562	-0.09855153
153	0xbe1ff104	-0.15619284
154	0xbdcd2682	-0.100171104
155	0x3db2e408	0.087349
156	0xbe46f621	-0.19429828
157	0xbe323304	-0.17402273
158	0xbcdc1937	-0.026867492
159	0xbda0c5ac	-0.07850203
160	0xbb0db179	-0.0021620675
161	0xbd6abac0	-0.057307005
162	0x3d176c08	0.03696826
163	0xbd083ef0	-0.033263147
164	0x3e0cd5da	0.13753453
165	0xbdb23a0e	-0.08702479
166	0x3bec3423	0.0072083636
167	0x3d5dd0e2	0.054154284
168	0xbdf2061e	-0.11817573
169	0x3d910e9e	0.07082866
170	0xbcd10a78	-0.025517687
171	0xbd4a7a61	-0.049433116
172	0xbdec6ae6	-0.11543827
173	0xbde60690	-0.112317204
174	0xbdce5e5f	-0.100765936
175	0xbdf8d411	-0.121498235
176	0x3c84b5c3	0.016199952
177	0x3d8ec95c	0.06972
178	0xbe419076	-0.18902764
179	0xbdb2178b	-0.08695897
180	0xbd28713e	-0.04112362
181	0xbdbb4562	-0.09144093
182	0x3e1175c2	0.14205077
183	0x3dbec511	0.09314931
184	0xbd55aaa2	-0.05216468
185	0x3d20f739	0.03929827
186	0x3dd6edc1	0.10494567
187	0xbd087f3e	-0.033324473
188	0x3decd725	0.11564473
189	0xbe058b43	-0.13041405
190	0xbc3e3ac0	-0.011610687
191	0xbcf497d6	-0.029857557
192	0xbc1d1c4a	-0.009589264
193	0x3dd01fa8	0.10162288
194	0x3da1251b	0.078684054
195	0x3e8e1db8	0.2775705
196	0x3dee99d8	0.11650437
197	0xbe83a68f	-0.25713012
198	0x3d1da843	0.038490545
199	0xbd22d1c6	-0.039750837
200	0xbcbdb55a	-0.023157764
201	0x3d33bef2	0.04388327
202	0xbd4f29ad	-0.050576854
203	0xbdf5aa70	-0.11995399
204	0x3d26e94c	0.040749833
205	0xbd510a00	-0.051034927
206	0x3e182e77	0.14861475
207	0x3e0a1d2e	0.13487694
208	0x3e03e9c4	0.12882143
209	0x3cc18127	0.023621155
210	0xbe9b2614	-0.3030249
211	0x3d85935f	0.065222494
212	0xbd7c6e71	-0.061628763
213	0x3c1c708f	0.00954832
214	0x3cc7ede8	0.024405435
215	0x3d89829e	0.067143664
216	0x3c4a09fb	0.012331481
217	0xbd93f4dd	-0.07224438
218	0xbd1add00	-0.03780842
219	0x3dbace4f	0.091213815
220	0x3d96100a	0.07327278
221	0xbe9a18e1	-0.30097106
222	0xbdc8f717	-0.09812754
223	0xbcce596c	-0.025189124
224	0xbd37027b	-0.0446801
225	0x3e1a739b	0.15083162
226	0xbda6fdbb	-0.08153864
227	0x3db38422	0.08765437
228	0x3dc7eead	0.09762321
229	0xbde48840	-0.111588
230	0xbdf54658	-0.11976308
231	0xbcb54808	-0.022129074
232	0xbc80584d	-0.015667105
233	0xbd49b843	-0.04924799
234	0x3c84408f	0.016144065
235	0x3deeba34	0.11656609
236	0x3c181e14	0.009284515
237	0xbe66d2d7	-0.22541367
238	0x3b0a98d7	0.0021148229
239	0x3d2aeb3f	0.041728254
240	0xbcbc0e91	-0.022956165
241	0x3d5e8454	0.054325417
242	0x3d3cd9f3	0.04610629
243	0x3cd7d0ce	0.026344683
244	0xbe10583e	-0.14096162
245	0x3b6e67e4	0.0036377842
246	0x3e39be9b	0.18139116
247	0xbcc046cf	-0.023471264
248	0x3d4903a1	0.049075726
249	0x3ca02b1a	0.019551802
250	0xbdc5a00a	-0.09649666
251	0xbe2797a0	-0.16366434
252	0xbda64ea1	-0.08120466
253	0x3d849e88	0.0647555
254	0x3d838720	0.064222574
255	0xbd51ee4c	-0.05125265

network_body.vector_processors.0.normalizer.running_mean f4 [29]
0	0x3f181d7e	0.5942
1	0x3e9802a8	0.29689527
2	0x3bb214e3	0.005434619
3	0x3ada603b	0.0016660759
4	0x3f12f0a0	0.57398415
5	0x3f637bf6	0.88861024
6	0x3d56abb1	0.05240983
7	0x3bb118ed	0.0054045827
8	0x3b964ae5	0.004586565
9	0x3ecd2d86	0.40073794
10	0x3e7482dd	0.23878045
11	0x3ebd9c11	0.37033132
12	0x3bc5a656	0.0060317917
13	0x3b36b68a	0.0027879798
14	0x3f2b4488	0.66901445
15	0x3f0ba489	0.54547936
16	0x3e45294a	0.19254032
17	0x3cb8cfd3	0.022560036
18	0x3be98b48	0.0071271993
19	0x3f1a6d67	0.60323185
20	0x3f0ba489	0.54547936
21	0x3e4529be	0.19254205
22	0x3cb8cfd3	0.022560036
23	0x3be98b48	0.0071271993
24	0x3f1a6d5a	0.6032311
25	0x4297b97b	75.86227
26	0x41b2691e	22.301327
27	0x3b0164ac	0.0019743843
28	0xb922dfda	-0.00015532915
