Assets/Models/Scena1/iRobot 2.onnx (onnx, 88018 bytes, 10 tensors)

74 f4 [29]
0	0x3e9f5902	0.31122595
1	0x3e736612	0.23769405
2	0x3dab975b	0.08378478
3	0x3e08467d	0.13308139
4	0x3e086da8	0.1332308
5	0x3eeb1365	0.45913234
6	0x3eda1ae3	0.42598638
7	0x3dd15ed9	0.10223169
8	0x3dc60311	0.096685536
9	0x3dd0fa56	0.10203998
10	0x3e941343	0.28920946
11	0x3e67b661	0.22628166
12	0x3dcea6c1	0.100903995
13	0x3db9c148	0.090700686
14	0x3dc18a18	0.094501674
15	0x3edee0c2	0.43530852
16	0x3ed01d20	0.4064722
17	0x3dca4c69	0.09877855
18	0x3d6dfb9c	0.05810128
19	0x3d8ff34c	0.07028827
20	0x3edee0c2	0.43530852
21	0x3ed01d20	0.4064722
22	0x3dca4c69	0.09877855
23	0x3d6dfb9c	0.05810128
24	0x3d8ff34c	0.07028827
25	0x41efeefc	29.991692
26	0x41ae3c04	21.779305
27	0x40016619	2.0218565
28	0x3ff50bf5	1.9144274

action_model._discrete_distribution.branches.0.bias f4 [3]
0	0x3cb7df31	0.022445293
1	0x3cc226b4	0.023700096
2	0xbd4e312d	-0.050339866

action_model._discrete_distribution.branches.0.weight f4 [3, 128]
0	0xbce63a7b	-0.028104058
1	0x37bd17f6	2.2541713e-05
2	0xbd25e9e2	-0.04050625
3	0x3c66256c	0.014047008
4	0x3bb4174e	0.005495942
5	0xba087d4e	-0.000520666
6	0x3c564510	0.013077989
7	0xbc82bdb9	-0.015959607
8	0xbd23ef5c	-0.040023193
9	0xbc1f1941	-0.009710611
10	0x3a7a696a	0.0009552451
11	0xbcfbe3b3	-0.030748224
12	0xbc4ae780	-0.012384295
13	0xbc51be8c	-0.012801778
14	0xbc965a1e	-0.018353518
15	0x3c6c8740	0.014436543
16	0xbccedaae	-0.025250759
17	0xbbe35fea	-0.006938924
18	0xbcd148ab	-0.025547346
19	0x3accfccf	0.0015639308
20	0x3d834bef	0.064109676
21	0x3d2448dd	0.04010855
22	0x3cace5e4	0.021105714
23	0x3c742368	0.01490102
24	0xbb6b61a3	-0.003591635
25	0x3d8c08d9	0.06837625
26	0xbb102878	-0.0021996778
27	0xbd42e728	-0.04758373
28	0xbcb02cd5	-0.021505753
29	0x3c8c98f0	0.01716277
30	0x3bc40871	0.0059824516
31	0xbd0de065	-0.034637827
32	0xbd38f3c1	-0.045154337
33	0x3c8332f8	0.016015515
34	0x3d2ae66c	0.041723654
35	0x3cfb25ac	0.030657612
36	0x3c128693	0.008943218
37	0x3cc3cfdf	0.023902832
38	0x3c50cd3c	0.012744244
39	0x3bb1630f	0.00541342
40	0x3cace7c5	0.02110661
41	0xbc86bce7	-0.016447498
42	0xbcf5e9b6	-0.030018669
43	0x3d692542	0.056920297
44	0xbc818ef4	-0.015815236
45	0xbba28fbb	-0.0049609817
46	0xbcb4004d	-0.0219728
47	0x3c0445aa	0.00807325
48	0x3d1679ac	0.03673713
49	0xbcdea271	-0.027177067
50	0x3bd5f430	0.0065293536
51	0x3c0c424c	0.008560728
52	0x3d6df7eb	0.05809776
53	0xbb39f2f9	-0.0028373583
54	0x3cc37eee	0.023864236
55	0x3c5baa1a	0.013407255
56	0x3cc7e5ee	0.024401631
57	0x3d543cab	0.05181567
58	0x3c905a63	0.017621225
59	0x3cb65237	0.022256
60	0xbd14d185	-0.036332626
61	0x3a72aa2a	0.0009256924
62	0xbcecb221	-0.028893532
63	0x3ced6191	0.028977187
64	0x3a42b158	0.0007426939
65	0xbd2c7f99	-0.042113874
66	0x3d0027b0	0.03128785
67	0xbd2b96d1	-0.041891877
68	0x3d3b33ca	0.045703687
69	0x3d06f6c7	0.03295019
70	0xbcdf29b6	-0.027241569
71	0x3c97cadb	0.018529346
72	0x3d51844f	0.05115157
73	0x3d851394	0.06497875
74	0xbd1bb57b	-0.03801487
75	0xbbeb106b	-0.007173588
76	0x3d308a0e	0.04310041
77	0xbd2b0e47	-0.041761663
78	0x3cd059a3	0.025433367
79	0x3ca9df35	0.020736316
80	0x3b8a219f	0.0042154337
81	0xbae4a017	-0.001744273
82	0xba4ec7e7	-0.0007888064
83	0xbc1b60e7	-0.009483553
84	0x3d103166	0.03520336
85	0xbcbf6e09	-0.023367899
86	0x3d503d62	0.05083979
87	0x3cd9302b	0.026512226
88	0xbd355105	-0.04426672
89	0xbc51ba85	-0.012800817
90	0x3cbf0d6a	0.023321826
91	0x3cb33424	0.021875449
92	0xbc6b471d	-0.014360216
93	0x3d100a61	0.035166148
94	0xbd041747	-0.03224876
95	0x3d068724	0.032843724
96	0xbbd84e9f	-0.0066011692
97	0x3d827142	0.063692585
98	0x3b8ed46e	0.0043588197
99	0x3c675812	0.014120119
100	0x3c6e6709	0.014550933
101	0xbc42bdae	-0.0118860435
102	0x3d622ab9	0.055216525
103	0xbcbe602b	-0.023239216
104	0x3d8f3683	0.06992819
105	0x3ced2234	0.028946973
106	0xbd57fba2	-0.05273021
107	0xbc5f7267	-0.0136381155
108	0x3bba6a95	0.005688975
109	0x3bf7b38e	0.0075592464
110	0x3cd7b34e	0.026330616
111	0xbc2d0f08	-0.010562666
112	0x3c0d93c3	0.008641186
113	0xbd15fd43	-0.036618482
114	0x3c2bee7f	0.010493874
115	0x3cf221ba	0.029557098
116	0x3c5fad80	0.0136522055
117	0x3d10c2a6	0.03534188
118	0x3d22108e	0.03956657
119	0x3d2b332d	0.041796852
120	0x3d1314e6	0.035908602
121	0xbd1a3e0f	-0.03765684
122	0x3d5fb1b1	0.05461282
123	0x3d1a27ad	0.037635494
124	0x3d2fff78	0.042968243
125	0x3a1b3153	0.00059201306
126	0xbbe9e645	-0.007138046
127	0x3d0ccbc4	0.034374014
128	0x3d005054	0.031326607
129	0xbcba6e28	-0.022757605
130	0xbc5d3bec	-0.013503056
131	0x3bbc59f9	0.0057480303
132	0x3baf9e9c	0.005359484
133	0x3d0ba622	0.034093983
134	0xbaccf70e	-0.0015637593
135	0x3b94eb1c	0.004544629
136	0xba85cfea	-0.0010209058
137	0xbd38a037	-0.045074668
138	0x3c406ad3	0.011744219
139	0xba0d7ec7	-0.00053976144
140	0xbb531282	-0.0032207076
141	0x3d4738bb	0.048638087
142	0x3b4a4802	0.0030865674
143	0x3cb19756	0.021678608
144	0x3b18ccb6	0.0023315377
145	0x3a7c26aa	0.00096187985
146	0xbcb2d3af	-0.021829454
147	0xbb5df03c	-0.0033865115
148	0x3b595c0a	0.0033166432
149	0x3c66f6ef	0.0140969595
150	0xbd039e27	-0.032133248
151	0x3bd9acc9	0.006642912
152	0x3d48dc77	0.049038377
153	0xbc49d1fd	-0.0123181315
154	0xbc167d9c	-0.009185221
155	0x3cd0296d	0.025410378
156	0x3b4b2001	0.0030994418
157	0xbce4c431	-0.027925583
158	0xbd226b61	-0.039653186
159	0x3ce691a8	0.028145626
160	0x3d24f4a9	0.04027239
161	0x3d735dcf	0.059415635
162	0xbd0414eb	-0.03224651
163	0xbc9f942b	-0.019479832
164	0xbc63b82b	-0.0138988895
165	0xbd425b61	-0.047450427
166	0xbc73fe13	-0.014892119
167	0xbd0a185d	-0.03371464
168	0x3c869eb4	0.016433097
169	0xbcf26800	-0.029590607
170	0x3ca8e7c6	0.02061833
171	0x3ccc8600	0.02496624
172	0xbd124d37	-0.03571817
173	0x3c5f6c69	0.013636687
174	0x3cc4ec0f	0.024038343
175	0xbbfcdbd7	-0.0077166366
176	0xbd0a91c4	-0.03383042
177	0x3d2ea7a6	0.04264035
178	0xbd0b6fe5	-0.034042258
179	0x3cf9295e	0.030415233
180	0xbd88bb1b	-0.066763125
181	0xbc409300	-0.0117537975
182	0xbd3cbf6a	-0.046080984
183	0xbd349272	-0.044084974
184	0xbbc42db9	-0.005986896
185	0xbcf4de63	-0.029891199
186	0xbc6d33fa	-0.014477724
187	0xbd76fa0f	-0.06029707
188	0x3c770d18	0.015078805
189	0x3c88ae63	0.016684717
190	0x3d861861	0.06547619
191	0xbd6d17cd	-0.057884026
192	0x3c9b16f4	0.018931843
193	0x3cd7b9e1	0.026333751
194	0xbc1b129a	-0.009464884
195	0x3b04ec51	0.0020282457
196	0xbc9f5942	-0.019451741
197	0xbd674e17	-0.056470957
198	0xbd884185	-0.06653122
199	0xbb92c3d6	-0.004478912
200	0xbd4db42d	-0.050220657
201	0xbc686d82	-0.014186265
202	0x3b4681a2	0.003028967
203	0xbd3495fb	-0.044088345
204	0xbd04485b	-0.032295566
205	0xbc2cc8c7	-0.010545916
206	0xbcdbd353	-0.026834166
207	0xbcd43d61	-0.025908174
208	0xbcf19b02	-0.029492859
209	0x3c8c62e6	0.017137002
210	0x3d6b6b83	0.057475578
211	0xbc6764f7	-0.014123193
212	0xbd3fc87d	-0.04682206
213	0xbb94dc23	-0.004542844
214	0xbce2c46a	-0.027681548
215	0x3c856781	0.016284706
216	0x3c61a2a5	0.013771688
217	0x3c4441e9	0.011978605
218	0x3c024a9c	0.007952359
219	0xbd331043	-0.04371668
220	0xbbd12e39	-0.006383684
221	0xbdae90f9	-0.08523745
222	0x3cc20740	0.023685098
223	0xbcbe73d1	-0.023248585
224	0xbc193e1f	-0.00935319
225	0xbd70839e	-0.05871927
226	0x3d56bc5d	0.05242573
227	0xbbbf3be8	-0.005835999
228	0xbd18b56c	-0.037282392
229	0xbd0f8004	-0.035034195
230	0xbcd395d1	-0.025828274
231	0x3ca7ca06	0.020482074
232	0xbd3f1010	-0.046646178
233	0x3c0e328f	0.008679046
234	0x3d68571d	0.056723703
235	0xbb7a536d	-0.0038196698
236	0xbc39dd63	-0.011344287
237	0x3a26116a	0.00063349924
238	0xbd334ba0	-0.043773293
239	0x3c854fde	0.016273435
240	0xbb91ce89	-0.0044496697
241	0xbc67de89	-0.014152178
242	0xbb34c75e	-0.0027584652
243	0xbd7d7ea8	-0.061888367
244	0xbc86404e	-0.016388085
245	0xbab5e4e5	-0.001387742
246	0xbd5a6bfe	-0.053325646
247	0xbca9494a	-0.02066483
248	0xbbb04c36	-0.005380179
249	0x3c113aab	0.008864085
250	0xbcd11fa1	-0.025527777
251	0xbcbe3d16	-0.023222487
252	0xbd33729f	-0.043810483
253	0x3c4b06b5	0.012391736
254	0x3d6a3115	0.057175715
255	0xbcda636e	-0.02665874

action_model._discrete_distribution.branches.1.bias f4 [3]
0	0xbcb68563	-0.0222804
1	0xbb53e52b	-0.003233264
2	0x3cd0dc92	0.025495801

action_model._discrete_distribution.branches.1.weight f4 [3, 128]
0	0x3d33d6c3	0.043905985
1	0xbc5b4f43	-0.013385597
2	0x3cc0ee1b	0.023551038
3	0x3ca13b56	0.019681614
4	0xbcb3fc8e	-0.021971013
5	0x3d2a1510	0.041523993
6	0x3d0c247b	0.034214478
7	0x3c2fb6f5	0.010724773
8	0xbbd96512	-0.006634363
9	0x3ca2e798	0.019885823
10	0x3cbd59f7	0.023114188
11	0xbcb8f0dd	-0.02257579
12	0xbd733527	-0.059376862
13	0x3d0f05b0	0.034917533
14	0x3bca5918	0.0061751716
15	0x3c637754	0.0138834305
16	0xbba45c3a	-0.005015877
17	0xbc99b310	-0.018762141
18	0x3c0db195	0.008648296
19	0x3c698efb	0.014255281
20	0xbc9cd165	-0.019142816
21	0x3cf449e8	0.029820397
22	0x3d154b43	0.03644873
23	0x3d81afa6	0.063323304
24	0xbd073e90	-0.03301865
25	0x3c7226ad	0.014779729
26	0x3d52dfcc	0.05148296
27	0x3cdfc222	0.02731425
28	0x3cc3d105	0.02390338
29	0x3b693cf1	0.0035589302
30	0xbc44bc45	-0.012007778
31	0x3c0a67bd	0.008447585
32	0x3aceadd4	0.0015768358
33	0x3d367315	0.044543345
34	0x3b94d322	0.0045417706
35	0xbd0f693c	-0.03501247
36	0x3d605376	0.054767095
37	0xbcd90271	-0.026490422
38	0xbceea0dc	-0.029129438
39	0x3b4c1e38	0.0031145941
40	0x3d8bac54	0.06819978
41	0x3cbec99d	0.023289496
42	0x3c022a91	0.007944719
43	0xbaaaaf58	-0.0013022227
44	0x3c66e96f	0.014093741
45	0xbcaaf3ca	-0.0208682
46	0xbca1b9f2	-0.019741986
47	0x3d83903d	0.06423996
48	0xbd26c920	-0.04071915
49	0xbcafce3f	-0.02146065
50	0x3cc33788	0.02383019
51	0x3b7252b7	0.0036975571
52	0x3c4e857a	0.0126050655
53	0x3d39246c	0.04520075
54	0xbcb937d0	-0.022609621
55	0xbb6d88c7	-0.0036244856
56	0x3b291676	0.0025800741
57	0x3d1472d3	0.036242317
58	0x3ce2f93f	0.02770674
59	0x3b343cd5	0.002750208
60	0x3d33f2af	0.043932613
61	0x3d622575	0.055211503
62	0x3c2fbb65	0.010725831
63	0xbd5d935c	-0.05409561
64	0x3d6ca8ad	0.05777805
65	0x3cd1a183	0.02558971
66	0x3d7869d0	0.060647786
67	0x3d163d08	0.036679298
68	0xbb75097a	-0.0037389682
69	0x3ca4c0f4	0.020111538
70	0xbcfcf259	-0.03087728
71	0xbb963128	-0.0045834966
72	0xbb16faf5	-0.0023037766
73	0x3b9d5e6c	0.0048025157
74	0xbd8cdb15	-0.06877724
75	0x3b953f00	0.0045546293
76	0xbc87ebf6	-0.016592007
77	0xbd7a19c5	-0.061059732
78	0x3cd0cb90	0.025487691
79	0xbdb3a739	-0.087721296
80	0x3cd8f7bb	0.026485315
81	0x3d2709ca	0.04078082
82	0x3d60624e	0.05478125
83	0x3c448030	0.011993453
84	0x3b1962ba	0.0023404793
85	0x3beda4bf	0.0072523053
86	0x3c119d7f	0.008887648
87	0x3cebf98e	0.02880552
88	0x3b54519e	0.003239728
89	0xbb80e6df	-0.003933772
90	0x3be38ff2	0.00694465
91	0x3c085b72	0.0083225835
92	0xbaf64153	-0.0018787779
93	0x3ce1a32c	0.027543627
94	0x3cb94980	0.022618055
95	0xbc02e15c	-0.0079883
96	0x3cc18729	0.02362402
97	0xbc4c0cae	-0.012454195
98	0x3cd3797e	0.025814768
99	0x3c06798f	0.008207693
100	0x3c88afa1	0.016685309
101	0x3c010399	0.007874393
102	0x3cb2914a	0.021797795
103	0xbcef2f72	-0.029197428
104	0x3c849413	0.016183889
105	0xbcf6a578	-0.030108199
106	0x3cc34e72	0.023841117
107	0xbc9412da	-0.018075395
108	0xbc21169a	-0.009832049
109	0xbbd1a5b1	-0.006397926
110	0xbba1debf	-0.0049398835
111	0xbb8aed0f	-0.0042396854
112	0xba2e27a3	-0.00066434796
113	0xbd5cbe82	-0.05389262
114	0xbbd6fa58	-0.006560605
115	0xbcc334b7	-0.023828847
116	0x3d5065b7	0.050878253
117	0x3c2cab11	0.010538832
118	0xbd10e3b1	-0.035373393
119	0x3af1223f	0.0018397047
120	0x3b5db64c	0.0033830581
121	0xbd49c590	-0.049260676
122	0xbd08c4d2	-0.033390827
123	0x3ba3b73b	0.004996208
124	0xbcef749f	-0.029230414
125	0xbd6129c7	-0.054971483
126	0x3c14ec0d	0.009089482
127	0xbcd51606	-0.026011478
128	0xbc2c295d	-0.010507909
129	0xbd2685df	-0.040655013
130	0x3c262786	0.010141259
131	0x3d604ffd	0.054763783
132	0x3ca3bf4b	0.019988677
133	0xbd3ed1b6	-0.046586715
134	0xbcc7e516	-0.024401229
135	0x3ca48d1c	0.020086817
136	0xbcb140b4	-0.021637298
137	0x3c99a24c	0.018754147
138	0xbd850081	-0.06494237
139	0xbd1ce4fb	-0.03830431
140	0x3d1fed17	0.039044466
141	0x3c570b22	0.013125213
142	0x3bfacf9b	0.007654143
143	0xbb7e2857	-0.0038781369
144	0xbc3f7259	-0.011684977
145	0x3d6e9ed7	0.05825695
146	0x3cf0a210	0.029374152
147	0x3c6d3bfa	0.014479632
148	0xbc56bb16	-0.013106128
149	0xbc77900c	-0.015110027
150	0x3ccacd7d	0.024756188
151	0xbd0e1666	-0.03468933
152	0x3d6beb68	0.057597548
153	0x3bfab3ba	0.0076508196
154	0x3cb9a59e	0.02266198
155	0xbd55b3eb	-0.052173536
156	0x3d4499e6	0.04799833
157	0x3c77f946	0.015135115
158	0xbc555933	-0.013021755
159	0x3d06d460	0.03291738
160	0x3ce986cb	0.028506657
161	0xbd9ac0a4	-0.075562745
162	0xbc6a4f78	-0.014301173
163	0x3cac68c4	0.02104605
164	0xbbf1d4f6	-0.0073801233
165	0x3ca92750	0.020648628
166	0xbd43c368	-0.047793776
167	0x3abc8ab9	0.0014384604
168	0xbd65845f	-0.056034442
169	0xbd456fcd	-0.048202325
170	0x3d1956f0	0.037436426
171	0x3c5de2d9	0.013542854
172	0xbc01418d	-0.007889164
173	0xbb7a55d3	-0.0038198128
174	0x3cc25f61	0.02372712
175	0xbd3fb868	-0.046806723
176	0x3d535c0c	0.051601455
177	0x3d0a0eb9	0.033705447
178	0xbd51a9f8	-0.051187485
179	0x3c1da42b	0.00962166
180	0xbd08b095	-0.033371527
181	0xbd4b016a	-0.049561895
182	0xbc642e48	-0.01392705
183	0x3c281eca	0.010261247
184	0x3c51b4b4	0.012799431
185	0xbca97448	-0.02068533
186	0xbc3c27b4	-0.011484075
187	0x3cab629c	0.020921044
188	0xbd1938c1	-0.03740764
189	0xbd2b0def	-0.041761335
190	0x3cf9b5c1	0.030482175
191	0x3b3e3ed2	0.0029029143
192	0xbd6c6ce8	-0.05772105
193	0x3cd20807	0.025638593
194	0xbc73cb2c	-0.014879983
195	0x3ccdcf37	0.025123222
196	0x3c987944	0.018612511
197	0xbce492a9	-0.027901964
198	0x3d4311a2	0.047624238
199	0xbc6b6160	-0.014366478
200	0x3c07de7e	0.008292792
201	0x3cafd980	0.021466017
202	0x3cb6b2a1	0.022301974
203	0x3d399419	0.045307253
204	0xbc9b870e	-0.018985298
205	0x3d863a74	0.06554118
206	0xbcb0f077	-0.021599038
207	0x3caf23c7	0.021379365
208	0xbcdef588	-0.027216688
209	0xbd55047e	-0.052006237
210	0xbd2d1da5	-0.0422646
211	0xbbdd498d	-0.0067531527
212	0xbca5213d	-0.02015745
213	0x3d43fbc4	0.047847524
214	0x3d519c30	0.051174343
215	0xbcff6d4b	-0.031180045
216	0xba736971	-0.00092854263
217	0x3ba643de	0.0050740084
218	0x3c9d609b	0.019211104
219	0xbc66a1cc	-0.014076661
220	0x3bc9db07	0.0061601433
221	0x3c4a27e5	0.012338613
222	0x3cf9cfc0	0.03049457
223	0x3cc17e93	0.023619926
224	0xbb9b96aa	-0.004748185
225	0x3c2c3a02	0.010511877
226	0xbd1ce8e4	-0.03830804
227	0x38d5a364	0.00010187065
228	0xbd1bfe51	-0.038084332
229	0xbd5b1522	-0.05348695
230	0xbd077bc3	-0.033077013
231	0xbcb3541c	-0.021890692
232	0xbc2fc255	-0.010727485
233	0xbcadea34	-0.02122984
234	0x3d159cbb	0.036526423
235	0x3c7537a1	0.014966876
236	0xbce8a11d	-0.028397137
237	0x3cd35458	0.025797054
238	0x3b4ab651	0.0030931423
239	0x3d4c9a76	0.049951993
240	0x3c9f4c20	0.019445479
241	0x3d8e99ef	0.06962954
242	0xbc31999c	-0.010839846
243	0xbbe4f263	-0.0069869026
244	0xbd4c5c87	-0.04989293
245	0x3b039cf5	0.0020082567
246	0x3ca13838	0.019680128
247	0xbd19e507	-0.037571933
248	0xba41539c	-0.00073748245
249	0x3d824d0c	0.06362352
250	0x3cb40e9d	0.021979624
251	0x3d094e99	0.033522222
252	0x3cae9a5b	0.021313837
253	0xbcfef469	-0.031122403
254	0x3d0070de	0.03135764
255	0xbcb40bd3	-0.021978294

network_body.linear_encoder.seq_layers.0.bias f4 [128]
0	0x3cb3835e	0.021913227
1	0xbcfd34b2	-0.030908916
2	0xbd247021	-0.040145997
3	0x3ccbbbd3	0.024869835
4	0x3d1aaf5c	0.037764892
5	0x3c85c4cd	0.016329193
6	0xbcd5811f	-0.026062546
7	0x3bc30518	0.005951535
8	0xbc3a8451	-0.011384086
9	0x3d5031ba	0.050828673
10	0x3cd9901c	0.026557975
11	0x3cf33295	0.029687205
12	0xbca5bba5	-0.020231077
13	0xbcf3976a	-0.029735286
14	0x3d07acc7	0.033123758
15	0x3ab4d858	0.0013797386
16	0x3c4f035a	0.012635076
17	0x3d2d1d49	0.042264257
18	0xba4f9e2d	-0.00079199934
19	0x3c2e708f	0.010646953
20	0x3d9a2de6	0.07528286
21	0xbc8b98df	-0.017040668
22	0x3cc54912	0.024082694
23	0xbcda4455	-0.026643911
24	0x3d432baa	0.047649063
25	0xbd0c492b	-0.034249466
26	0x3cd8012a	0.026367743
27	0xbd2033c2	-0.03911186
28	0xbbd0d4cf	-0.006373025
29	0xbccc3932	-0.024929617
30	0x3d653528	0.055958897
31	0xbb8355ab	-0.004008015
32	0x3d09c198	0.03363189
33	0x3d61e690	0.055151522
34	0x3d1df103	0.038559925
35	0xbbdf319c	-0.006811334
36	0x3c679269	0.014134028
37	0xbca51d19	-0.020155476
38	0xbcaa0f8e	-0.02075937
39	0x3d2b160e	0.04176908
40	0x3d0dc081	0.034607414
41	0xbcd1c0be	-0.025604602
42	0x3c2a4334	0.010391999
43	0x3c0b3d11	0.008498446
44	0xbc3cb547	-0.011517829
45	0xbbd28f0a	-0.006425743
46	0x3ceea951	0.02913347
47	0x3d7f019c	0.062257394
48	0x3c5c735c	0.013455238
49	0x3a6d86d8	0.0009060926
50	0xbc67d30d	-0.0141494395
51	0xbbcc8f8f	-0.0062426995
52	0x3c14e50e	0.009087814
53	0xbd06e636	-0.03293439
54	0xbc7edaaf	-0.015555068
55	0x3c456a67	0.012049294
56	0x3c206d3e	0.00979167
57	0x3ce0675b	0.027393034
58	0xbbcd66a8	-0.006268341
59	0xbd0e551c	-0.034749135
60	0x3c7155f9	0.01472997
61	0xbc606b35	-0.013697435
62	0xbd879d12	-0.06621756
63	0x3bfaf9be	0.007659166
64	0xbd06da12	-0.03292281
65	0xbcc50dc1	-0.02405441
66	0x3c905b5e	0.017621692
67	0xbc452693	-0.012033123
68	0x3c68bf01	0.014205695
69	0xbd748d57	-0.059705105
70	0xbd2c4bee	-0.0420646
71	0xbca879ff	-0.020565985
72	0xbccf43f0	-0.02530095
73	0xbbbff74d	-0.005858338
74	0x3c0944b0	0.008378193
75	0xbab6bc5c	-0.0013941634
76	0x3d2736e7	0.040823843
77	0xbd0b72c4	-0.034044996
78	0xbc2a4d56	-0.010394415
79	0xbacb527b	-0.0015512252
80	0x3d052480	0.032505512
81	0x3b1ad0e4	0.0023623044
82	0x3cc4ff3a	0.024047483
83	0x3d35bf46	0.044371866
84	0x3ca51522	0.020151678
85	0x3cf434db	0.02981036
86	0xbb9ee7a4	-0.004849391
87	0x3bd1d81a	0.006403935
88	0xba93463c	-0.0011236141
89	0xbd1576f3	-0.036490392
90	0x3c38ff2e	0.011291308
91	0xbbe8b7c7	-0.007101986
92	0xbc254865	-0.010088061
93	0xbcc456db	-0.023967197
94	0x3cbe9054	0.02326218
95	0xbd34072a	-0.043952145
96	0xbca25ece	-0.019820597
97	0xbd2170b1	-0.03941411
98	0xbc46a657	-0.012124619
99	0xbc533cb2	-0.012892889
100	0xbba353ee	-0.0049843704
101	0x3ba527e9	0.005040158
102	0x3cfc32c5	0.030785928
103	0xbc921b88	-0.017835394
104	0xbce54795	-0.027988235
105	0xbbd765b1	-0.006573402
106	0xbcc7ea54	-0.024403729
107	0xbbd47c69	-0.0064845574
108	0xbb829237	-0.0039847153
109	0xbcbee5a6	-0.023302864
110	0x3c1662ff	0.009178876
111	0xbc81bced	-0.015837157
112	0x3b8eb4d9	0.004355055
113	0x3d72f96a	0.05931989
114	0x3cac3ee1	0.021026077
115	0x3bc1b3e5	0.0059113377
116	0xbc578aea	-0.013155678
117	0xbb9b3a91	-0.0047372063
118	0xbd4e9c16	-0.050441824
119	0xbc816539	-0.015795337
120	0x3c9dd0ba	0.019264568
121	0xbc13a1eb	-0.009010772
122	0x3c9007ed	0.017581904
123	0x3cb35d4e	0.021895077
124	0x3cb43b99	0.022001075
125	0x3d31f18f	0.04344326
126	0xbc272c04	-0.010203365
127	0x3c249112	0.010044353

network_body.linear_encoder.seq_layers.0.weight f4 [128, 29]
0	0xbeb7e1c4	-0.35914433
1	0x3e543c00	0.20726013
2	0xbeaab15d	-0.33338442
3	0xbe5cc68f	-0.21560119
4	0xbd0e61ea	-0.034761347
5	0xbc9129a6	-0.017720055
6	0x3d0a42aa	0.033754982
7	0x3d308092	0.043091364
8	0x3ce98c99	0.028509425
9	0x3de3d90c	0.11125383
10	0x3d05ddf7	0.032682385
11	0xbe723e5e	-0.23656604
12	0xbe115634	-0.1419304
13	0xbe89b472	-0.2689548
14	0xbda4b9a4	-0.08043221
15	0x3da658f7	0.081224374
16	0x3d7862c8	0.06064108
17	0xbe31d6d9	-0.17367114
18	0xbd5a3866	-0.053276442
19	0x3dfbdb05	0.12297634
20	0xbe0f66c6	-0.14004049
21	0xbe9b2e49	-0.3030875
22	0xbeb1c735	-0.34722295
23	0xbde5cd7c	-0.11220834
24	0x3e171053	0.14752321
25	0xbe88c568	-0.2671311
26	0xbd2882fd	-0.041140545
27	0xbd5d191b	-0.05397902
28	0x3eaa94aa	0.33316547
29	0xbe07cb10	-0.13261056
30	0x3e01a8ab	0.12661998
31	0x3d967e3a	0.073482946
32	0x3dce0675	0.10059825
33	0x3d4f09fa	0.050546624
34	0x3d9a66d3	0.075391434
35	0x3bf8ef62	0.007596896
36	0xbe1f0eaf	-0.15532945
37	0xbe10402b	-0.14086978
38	0xbe11d826	-0.1424261
39	0x3e35d5bc	0.17757314
40	0x3e4eae2f	0.20183633
41	0x3e00a284	0.12561995
42	0xbdb40406	-0.0878983
43	0x3d673021	0.056442384
44	0x3d5002d4	0.050783947
45	0x3c145e29	0.009055653
46	0x3d634d6e	0.055493765
47	0xbe066a01	-0.13126375
48	0xbeb7383d	-0.35785094
49	0x3d5a841c	0.053348646
50	0x3ecda36c	0.40163743
51	0xbe0f0cb9	-0.13969697
52	0x3dd46dcc	0.103725046
53	0x3daf56ad	0.08561454
54	0xbde569e0	-0.11201835
55	0x3cb9dae2	0.02268738
56	0xbdc0d9c2	-0.09416534
57	0xbd155ab4	-0.036463454
58	0xbe6f89b4	-0.23392373
59	0xbc28c3c5	-0.010300581
60	0xbe9e251a	-0.3088768
61	0xbc910edd	-0.017707283
62	0xbcf324ed	-0.029680694
63	0xbe19069d	-0.14943929
64	0x3e4e1e56	0.2012876
65	0xbe50e099	-0.20398177
66	0x3de2b5d0	0.11069834
67	0x3e5b89fe	0.21439359
68	0xbe95add8	-0.29234195
69	0xbd3d1dbc	-0.046170935
70	0x3bb2e2a7	0.005459148
71	0x3cb3f1cf	0.02196589
72	0x3eda1d07	0.4260027
73	0x3e6f22b1	0.23353077
74	0xbdca8d1b	-0.09890195
75	0xbe25c418	-0.16188085
76	0xbe1f979e	-0.15585181
77	0xbd85589a	-0.0651104
78	0xbe9623d9	-0.29324225
79	0xbe7f7690	-0.24947572
80	0x3c885c3f	0.016645549
81	0xbdf5bce4	-0.11998919
82	0xbd70f24f	-0.058824833
83	0xbe32fc3a	-0.1747903
84	0xbbf9b666	-0.0076206205
85	0x3d1ab325	0.0377685
86	0xbd76864e	-0.060186677
87	0x3e57c286	0.21070299
88	0x3e159574	0.14607793
89	0xbd1aa4e0	-0.037754893
90	0x3d8d74fc	0.069070786
91	0x3eda79f4	0.42671168
92	0xbdc06634	-0.09394494
93	0x3d836670	0.06416023
94	0x3e16bdce	0.14720842
95	0xbd962a9e	-0.07332347
96	0x3ea805cb	0.3281692
97	0xbedf2595	-0.4358336
98	0x3d3f4fa6	0.046706818
99	0x3df5769f	0.11985516
100	0xbd756b74	-0.05991693
101	0x3d26f1d6	0.040757976
102	0xbe8779b8	-0.26460052
103	0xbd0c7abf	-0.034296747
104	0xbe2416f4	-0.16024381
105	0x3d77c223	0.060487878
106	0xbed2a38f	-0.4114041
107	0xbe83375f	-0.25628182
108	0xbdbaec8e	-0.091271505
109	0x3e2a5797	0.16634975
110	0x3e961e81	0.29320148
111	0xbeb86d85	-0.36021057
112	0xbdb6bc94	-0.08922687
113	0xbe3cb8d3	-0.1842988
114	0x3e48d51d	0.19612546
115	0x3e1fe441	0.15614416
116	0xbea36a17	-0.31916878
117	0x3dde7a4d	0.10863171
118	0x3e3004a4	0.1718927
119	0x3e431589	0.19051184
120	0x3d443643	0.04790331
121	0x3eac768a	0.33684188
122	0xbe71c73e	-0.23611161
123	0x3e880cab	0.26572165
124	0x3e2bca29	0.16776337
125	0xbebd47f2	-0.36968952
126	0xbe2501ad	-0.1611392
127	0xbde7c19c	-0.11316225
128	0xbe87d627	-0.26530573
129	0xbe3e09c7	-0.18558417
130	0x3d3a83de	0.045535915
131	0xbcf8afcb	-0.030357262
132	0xbe03945f	-0.12849568
133	0x3d3a6081	0.04550219
134	0x3d97c63b	0.07410856
135	0x3e7183b7	0.23585401
136	0x3e265ba3	0.16245894
137	0x3e1fb314	0.15595657
138	0xbe86620a	-0.26246673
139	0xbd0d662f	-0.034521278
140	0xbdbdce4f	-0.09267866
141	0xbd88e3bf	-0.06684064
142	0xbb296e4c	-0.0025853096
143	0xbe2cd744	-0.16878992
144	0x3e700435	0.23439105
145	0x3dbed930	0.09318769
146	0xbe5fbded	-0.21849795
147	0xbe29d7e2	-0.16586259
148	0xbd0e7d76	-0.034787618
149	0xbd3d87f8	-0.046272248
150	0x3d99f284	0.07516959
151	0x3ec4c85d	0.38434115
152	0x3a5d37e7	0.0008438811
153	0xbeaf57b1	-0.3424659
154	0x3e54893e	0.20755479
155	0x3d230d34	0.039807513
156	0xbe6f2c4b	-0.2335674
157	0x3cf2b94c	0.029629372
158	0xbe26f14d	-0.16302986
159	0xbdc5667d	-0.09638689
160	0x3f389644	0.7210429
161	0xbe2d001f	-0.16894577
162	0x3e88be98	0.26707911
163	0xbde2bdef	-0.11071383
164	0xbe4093f3	-0.18806438
165	0x3e40655b	0.18788664
166	0xbdb94a36	-0.09047358
167	0xbd23dcd2	-0.040005513
168	0xbd913b3d	-0.07091377
169	0x3db74b8f	0.089499585
170	0x3e0214b4	0.1270321
171	0x3e458fcf	0.1929314
172	0xbe6c0f5a	-0.23052731
173	0xbdc93f14	-0.09826484
174	0x3e66e221	0.22547199
175	0x3eb0e5b9	0.34550264
176	0xbec855dc	-0.39128006
177	0x3c86dcac	0.016462646
178	0xbe0a0c0a	-0.13481155
179	0x3e17cc61	0.14824058
180	0x3e412462	0.18861535
181	0xbdf19898	-0.11796683
182	0xbc050615	-0.008119126
183	0x3d98e833	0.074661635
184	0xbd4fc8b1	-0.050728504
185	0xbaf49c7a	-0.0018662356
186	0xbdf78979	-0.12086768
187	0xbe21ef9d	-0.15814061
188	0x3e87398e	0.26411098
189	0xbc30f0d9	-0.01079961
190	0x3e0dc0b6	0.13843045
191	0xbde49b0e	-0.11162387
192	0x3da6760d	0.08127985
193	0x3dfe3e5b	0.12414237
194	0xbe011780	-0.12606621
195	0x3da75544	0.0817056
196	0x3e4a182e	0.19735786
197	0xbd491b27	-0.04909816
198	0x3df81032	0.12112464
199	0x3e2f1ecf	0.17101596
200	0x3e197d95	0.14989312
201	0xbe370828	-0.17874205
202	0xbe29aac1	-0.16569044
203	0xbedbc85d	-0.42926303
204	0xbd2f09f4	-0.0427341
205	0xbc8ffaef	-0.01757571
206	0x3db64766	0.08900337
207	0x3e052aae	0.13004562
208	0x3cfc250d	0.030779386
209	0x3e4f92b0	0.202708
210	0x3e1a0e33	0.15044479
211	0x3e08863b	0.13332455
212	0x3d92a12c	0.07159647
213	0xbe4cd590	-0.20003343
214	0xbd9ac00f	-0.075561635
215	0x3d2a69f2	0.041604944
216	0xbe95728c	-0.29188955
217	0x3e82d739	0.25554827
218	0xbce98ac1	-0.028508546
219	0x3ddf3e48	0.10900551
220	0xbe79fa87	-0.24411975
221	0x3cbe08b2	0.023197506
222	0x3dc98ee0	0.09841704
223	0x3e874baa	0.26424915
224	0xbe61ae70	-0.22039199
225	0xbdb31ff1	-0.08746327
226	0x3d1b291e	0.03788101
227	0x3e1e6333	0.15467529
228	0xbe2e4ff8	-0.17022693
229	0xbdf7c356	-0.12097804
230	0xbd917be6	-0.0710371
231	0xbdc7f4aa	-0.09763463
232	0x3d9cf3e4	0.07663706
233	0x3ea33c56	0.3188197
234	0xbe8558cd	-0.26044312
235	0xbe318ff7	-0.17340074
236	0xbf18b18b	-0.5964591
237	0x390ecceb	0.00013618513
238	0xbdd0a06a	-0.101868466
239	0x3d5eff91	0.054442946
240	0x3e25777c	0.16158861
241	0xbd52a9cf	-0.051431473
242	0x3d928efe	0.0715618
243	0xbe89d173	-0.2691761
244	0x3d3eb259	0.046556804
245	0x3e86c717	0.26323768
246	0xbe3368f7	-0.1752051
247	0xbe444728	-0.19167769
248	0x3e01f72d	0.12691946
249	0xbd822c12	-0.06356062
250	0x3e02a004	0.12756354
251	0x3e4ada3c	0.19809812
252	0xbe8d8c6b	-0.27646193
253	0x3e430b3f	0.19047259
254	0xbe0b4bb3	-0.13603096
255	0xbd414df9	-0.0471935

network_body.linear_encoder.seq_layers.2.bias f4 [128]
0	0xbcdccee2	-0.026954118
1	0x3c34455e	0.011002867
2	0xbd8556a2	-0.065106645
3	0xbcbdc443	-0.023164874
4	0x3ce41c06	0.027845394
5	0xbcbac123	-0.022797173
6	0xbd047b04	-0.03234388
7	0xbbed3fc6	-0.0072402684
8	0xbc6721e8	-0.014107205
9	0xbd6e7f45	-0.058226842
10	0x3cd21678	0.02564548
11	0xbc76e138	-0.015068345
12	0xbb857ab5	-0.0040734657
13	0x3b849114	0.004045615
14	0xbd27b3b1	-0.04094285
15	0x3cdbe67e	0.026843306
16	0xbd46da04	-0.04854776
17	0xbd206fc0	-0.039169073
18	0xbd2889da	-0.04114709
19	0xbd093c56	-0.033504806
20	0x3d46eeea	0.04856769
21	0x3d9b063c	0.075695485
22	0xbc7997c7	-0.01523394
23	0xbcf8439d	-0.030305678
24	0x3d614f3c	0.055007204
25	0x3c1e5a35	0.009665062
26	0xbd170022	-0.03686536
27	0xbc39e734	-0.011346627
28	0xbd113b0d	-0.035456706
29	0x3ae14a5a	0.0017188296
30	0x3c356f69	0.0110739255
31	0xbc6fe57b	-0.014642115
32	0xbcca2db7	-0.024680002
33	0x3d839119	0.064241596
34	0xbc9621f1	-0.018326731
35	0x3c4321ad	0.011909884
36	0xbd50b616	-0.0509549
37	0xbd2ef202	-0.042711265
38	0x3ce12c1e	0.027486857
39	0xbd803e05	-0.06261829
40	0x3ce19b61	0.02753991
41	0xbd25e6d3	-0.040503334
42	0xbd1b55ad	-0.037923504
43	0x3d8b46f5	0.06800643
44	0xbd6959e9	-0.05697051
45	0x3d44e37e	0.048068516
46	0xba8ce987	-0.0010750749
47	0xbd01ba24	-0.03167166
48	0xbbe7e335	-0.0070766457
49	0x3cdf11f5	0.027230242
50	0xbc8aa03c	-0.016922109
51	0xbc6bc19e	-0.014389424
52	0x3c26c481	0.010178686
53	0xbd1b3bc4	-0.037898794
54	0x3be143e7	0.0068745497
55	0xbd4e0469	-0.050297175
56	0xbbe99a49	-0.007128988
57	0x3bc8180c	0.0061063822
58	0xbcbeeb8b	-0.023305675
59	0xbcccdcfe	-0.025007721
60	0x3c6efb85	0.014586334
61	0xbc0ac9b5	-0.008470942
62	0x3cd9eebd	0.026603097
63	0x3becaec4	0.007222982
64	0x3cc1a892	0.02363995
65	0xbd2e97d0	-0.04262525
66	0xbc9aa855	-0.018879095
67	0xbd048218	-0.03235063
68	0xbcc373c2	-0.023858909
69	0xbd0c1bf3	-0.034206342
70	0xbcf74de8	-0.030188516
71	0x3c958307	0.018250955
72	0x3c198f01	0.009372474
73	0x3c803c26	0.015653681
74	0xbc7df8cc	-0.015501212
75	0xbd3e9df8	-0.04653737
76	0x3cf80847	0.030277384
77	0x3c4692a1	0.01211992
78	0xbc9359be	-0.017987128
79	0x3d21204b	0.039337438
80	0xbd760b95	-0.06006964
81	0xbce8a249	-0.028397696
82	0x3dc5b11a	0.0965292
83	0xbd620ccd	-0.05518799
84	0xbb7d226f	-0.003862526
85	0xbcfd1351	-0.030893
86	0xbcc6db80	-0.024274588
87	0x3cac842d	0.02105912
88	0xbd8f4e1b	-0.06997319
89	0xbd81c1df	-0.06335806
90	0x3b824951	0.003976025
91	0xbd2c237d	-0.04202603
92	0xbd9a48e3	-0.07533433
93	0xbcb9baf4	-0.022672154
94	0xbc63516b	-0.013874392
95	0x3bcc1f25	0.0062292987
96	0xbd661689	-0.056173835
97	0xbb7a2273	-0.0038167506
98	0x3d08c7e0	0.03339374
99	0xbc8824c4	-0.016619094
100	0xbd376033	-0.044769477
101	0x3c9a596f	0.018841473
102	0xbbbd81b2	-0.005783283
103	0x3d740b5e	0.059581153
104	0x3b70f263	0.0036765567
105	0x3d9bd720	0.07609391
106	0x3c0d9aaf	0.0086428365
107	0xbcd40699	-0.025882052
108	0x3cc97338	0.024591073
109	0xbbae4ae8	-0.005318988
110	0xbd32b51d	-0.043629754
111	0xbd51c8a6	-0.051216744
112	0xbd73c80e	-0.05951696
113	0x3b82bbbc	0.003989665
114	0xbb8fb09c	-0.004385067
115	0xbd2af205	-0.041734714
116	0x3b2cc048	0.0026359726
117	0xbc103be3	-0.008803341
118	0xbc3d9b6f	-0.011572703
119	0x3aea53bd	0.0017877739
120	0xbc6e7161	-0.014553399
121	0xbc61ccde	-0.013781754
122	0x3ca3344f	0.019922404
123	0xbcf0dc78	-0.029402003
124	0xbc5e4ee2	-0.013568612
125	0x3d5cea74	0.05393453
126	0x3c1f66e5	0.009729122
127	0x3d36cd46	0.044629358

network_body.linear_encoder.seq_layers.2.weight f4 [128, 128]
0	0x3dd60c59	0.10451574
1	0xbd99a698	-0.07502478
2	0x3cf670de	0.030083116
3	0xbe545feb	-0.20739715
4	0x3db46f15	0.0881025
5	0x3da30bb1	0.07961214
6	0xbe1e4f6d	-0.15459986
7	0x3e166fda	0.14691105
8	0xbd6c3d49	-0.057675634
9	0xbe64a6c6	-0.22329244
10	0xbc307a2f	-0.010771318
11	0xbdffc39f	-0.12488484
12	0xbb780b6b	-0.0037848603
13	0xbe1f4f68	-0.15557635
14	0xbd031ae0	-0.032008052
15	0xbe00f0c0	-0.12591839
16	0xbcc12a60	-0.023579776
17	0xbd85c9a7	-0.06532603
18	0xbe33448d	-0.17506619
19	0xbc06f7f3	-0.008237827
20	0xbc55c7a1	-0.0130480835
21	0x3e675e1a	0.2259449
22	0xbdc0b13a	-0.09408803
23	0xba822fc4	-0.0009932448
24	0xbc8f2e41	-0.01747811
25	0x3c8e9ebe	0.017409679
26	0x3b6c2abc	0.0036036214
27	0x3c6964c1	0.014245213
28	0x3d6661f2	0.05624575
29	0x3d999eaa	0.07500966
30	0xbce42095	-0.027847568
31	0xbd8f2c34	-0.06990853
32	0x3d9ccfe2	0.07656838
33	0x3cef4c12	0.029211078
34	0x3d3aa41c	0.045566663
35	0xbc8a6174	-0.016892172
36	0xbc9201d1	-0.017823132
37	0xbddf0bd5	-0.10890929
38	0x3bdb645e	0.0066953143
39	0x39b8ce78	0.00035249046
40	0x3d9c8f57	0.076445274
41	0xbe474662	-0.19460443
42	0x3bf65c89	0.0075183553
43	0xbe7efcbb	-0.24901097
44	0x3dabaa95	0.08382145
45	0x3d979016	0.07400529
46	0x3dae2f72	0.08505143
47	0x3df2d388	0.11856753
48	0x3da2c918	0.07948512
49	0x3cc53509	0.02407314
50	0xbe569ab6	-0.20957455
51	0xbd33c6b4	-0.04389067
52	0x3cc831d4	0.024437822
53	0x3d5f4b2b	0.054515045
54	0x3deb8ce1	0.1150148
55	0xbe075905	-0.13217552
56	0x3dbed643	0.09318211
57	0x3d40ea7e	0.04709863
58	0x3cfef0bf	0.031120656
59	0x3d5ba7e5	0.053626914
60	0x3d0f2186	0.03494408
61	0xbc3d4ae3	-0.011553499
62	0xbc4cc819	-0.012498879
63	0x3d48b18c	0.048997447
64	0xbdf226f3	-0.11823835
65	0x3d45ef74	0.048324063
66	0x3e453809	0.19259657
67	0x3dc4c643	0.09608128
68	0xbd81b164	-0.06332663
69	0xbdb4ea23	-0.088337205
70	0x3c33b301	0.010967971
71	0x3e3caebb	0.1842603
72	0xbe4894c4	-0.19588
73	0x3da23285	0.07919792
74	0x3ba290c4	0.004961105
75	0xbdf95223	-0.121738695
76	0x3c2a0647	0.010377473
77	0xbd226add	-0.039652694
78	0xbcba3bf6	-0.02273367
79	0x3d817dbc	0.0632281
80	0xbd7ca789	-0.06168321
81	0x3d83383e	0.06407212
82	0xbd831ebf	-0.06402349
83	0x3cca5daf	0.024702875
84	0xbe06be68	-0.13158572
85	0xbd6886ed	-0.0567693
86	0x3b265093	0.0025377616
87	0xbdc768b4	-0.097367674
88	0xbc179af0	-0.009253249
89	0xbd637581	-0.055531982
90	0x3cf034a8	0.029321983
91	0xbcd84cd6	-0.026403826
92	0xbdd21527	-0.10257941
93	0x3d80893c	0.062761754
94	0xbce6cc5c	-0.028173618
95	0xbce77f61	-0.028258981
96	0x3e1850e2	0.14874604
97	0xbe837dd4	-0.25681937
98	0xbe0c3c12	-0.1369479
99	0xbdc332db	-0.09531184
100	0xbe0f0e1c	-0.13970226
101	0xbaecfa4a	-0.0018079963
102	0x3d602dfc	0.054731354
103	0x3dd187e3	0.102309965
104	0x3d284f88	0.041091472
105	0x3cabefd9	0.020988392
106	0x3d36c98b	0.0446258
107	0x3c697fa8	0.014251627
108	0xbcb78bbf	-0.022405503
109	0x3e320c71	0.17387559
110	0xbe10e979	-0.14151563
111	0x3de0649a	0.10956688
112	0x3dbd4b43	0.09242871
113	0x3d0edd12	0.034878798
114	0x3db5d720	0.088789225
115	0xbe44e9b3	-0.19229774
116	0x3cf40d94	0.02979163
117	0x3b26f3ec	0.0025474979
118	0xbe5db217	-0.21649967
119	0xbd2378ba	-0.039910056
120	0xbcb61ac0	-0.022229552
121	0xbdd22f18	-0.10262889
122	0xbd51df41	-0.051238302
123	0x3cd62b40	0.02614367
124	0x3e13a871	0.14419724
125	0xbd88bfeb	-0.066772304
126	0x3da003c7	0.078132205
127	0xbd26dc8d	-0.040737677
128	0x3daca85f	0.08430552
129	0xbc8a678e	-0.016895082
130	0xbca1d384	-0.019754179
131	0x3cb45b9e	0.022016343
132	0x3c8ea98d	0.017414832
133	0xbce4f6d9	-0.027949737
134	0x3d4ba7e7	0.04972067
135	0xbe2a99f2	-0.16660288
136	0xbd5348ba	-0.05158303
137	0xbd5040e7	-0.050843146
138	0xbe89d5d8	-0.26920962
139	0xbba372de	-0.0049880585
140	0x3d80478a	0.06263645
141	0x3d63c15a	0.055604316
142	0x3de84a2d	0.11342273
143	0xbdb18bd9	-0.08669252
144	0x3de94adf	0.11391234
145	0x3c855ff1	0.0162811
146	0x3d8a9ac4	0.067678005
147	0xbe774ed3	-0.24151163
148	0x3db8e0aa	0.09027226
149	0xbe70f138	-0.23529518
150	0x3e0d4fd6	0.13799986
151	0xbda525d8	-0.08063859
152	0xbd2ad47e	-0.041706555
153	0xbe7c9746	-0.24667081
154	0x3d6bf34d	0.057605077
155	0xbaa4a369	-0.0012560907
156	0x3cb76d8b	0.022391101
157	0x3dad689e	0.0846722
158	0x3d34865d	0.04407345
159	0xbde4388d	-0.11143599
160	0xbba59674	-0.005053336
161	0x3d9bb590	0.0760299
162	0x3dca5522	0.09879519
163	0xbde02f51	-0.10946525
164	0x3cc8cb14	0.024510898
165	0xbdcd54f2	-0.10025968
166	0x3ddba3a8	0.10724574
167	0x3e198fc8	0.14996254
168	0xbd1d3a80	-0.038385868
169	0xbd0ca04a	-0.03433255
170	0xbcefd36b	-0.029275617
171	0xb9a99048	-0.0003234169
172	0xbdd2e0ad	-0.1029676
173	0xbdae6506	-0.085153624
174	0xbda21bae	-0.07915436
175	0xbb007867	-0.0019603015
176	0xbda5d54c	-0.08097324
177	0xbdb60c88	-0.08889109
178	0x3d3750df	0.04475486
179	0xbd95595c	-0.072924346
180	0xbd135cc9	-0.03597716
181	0xbd029fbe	-0.031890623
182	0xbde72ba7	-0.11287623
183	0xbdd05141	-0.10171748
184	0x3d7728f5	0.060341794
185	0x3d07b1d8	0.03312859
186	0x3d7cad2e	0.061688595
187	0xbc3441b4	-0.011001993
188	0x3decc0af	0.11560189
189	0xbd93892a	-0.07203896
190	0xbc5690fc	-0.01309609
191	0x3e3ad00c	0.18243426
192	0x3c3bbd08	0.011458643
193	0xbdcd7e65	-0.100338735
194	0xbc84b542	-0.016199712
195	0xbc58e9ad	-0.013239306
196	0xbcb132c4	-0.021630652
197	0xbe3118d3	-0.17294626
198	0xbd85c86f	-0.0653237
199	0xbddd7699	-0.10813636
200	0x3b5d4176	0.0033760942
201	0x3e1cef78	0.15325725
202	0xbd94f3b7	-0.072730474
203	0x3d1e14dd	0.038594116
204	0xbca41b37	-0.020032508
205	0xbd6bbe8c	-0.057554767
206	0xbd055fed	-0.032562185
207	0xbe319107	-0.1734048
208	0x3c3c04c4	0.011475746
209	0xbde4bb03	-0.11168482
210	0xbd2d20fc	-0.042267784
211	0xbc0753e0	-0.008259743
212	0xbe087595	-0.13326104
213	0xbd7f1e82	-0.062284954
214	0x3cf9ec75	0.03050826
215	0xbdea9004	-0.1145325
216	0x3cc24c59	0.023718046
217	0xbd86f647	-0.065899424
218	0xbdc4be25	-0.0960658
219	0x3c1ac03b	0.009445245
220	0xbd52ad09	-0.05143455
221	0xbc91d0b9	-0.017799722
222	0xbd2d56e6	-0.0423192
223	0xbd25f51f	-0.04051697
224	0xbd9b6b47	-0.07588821
225	0xbd81d198	-0.06338805
226	0xbd9d9f42	-0.07696392
227	0xbb69c345	-0.0035669368
228	0xbdf63cf2	-0.12023343
229	0xbd0ee7bf	-0.03488898
230	0xbe2c5d0f	-0.16832374
231	0xbb3d6019	-0.002889639
232	0xbe365d3f	-0.17809008
233	0x3d1838f3	0.037163686
234	0x3dc6ded4	0.0971047
235	0xbd9a67be	-0.075393185
236	0xbc858247	-0.016297473
237	0xbccb946c	-0.024851047
238	0x3d10bc07	0.035335567
239	0x3ce0b2ac	0.027428947
240	0x3e62e495	0.2215751
241	0x3dba46f4	0.090955645
242	0xbcfb0603	-0.030642515
243	0x3d961a0d	0.073291875
244	0xbd71c9f1	-0.059030477
245	0xbda884bf	-0.08228444
246	0x3d6b0b11	0.0573836
247	0x3c3df2a3	0.011593494
248	0xbd2bd4af	-0.041950878
249	0xbca67155	-0.020317713
250	0xbcd0b8f0	-0.02547881
251	0xbd97a18c	-0.074038595
252	0xbdbee1a6	-0.09320383
253	0xbb0091e4	-0.0019618208
254	0xbd915878	-0.07096952
255	0xbd9a90f2	-0.075471774

network_body.vector_processors.0.normalizer.running_mean f4 [29]
0	0x3f642e4f	0.8913316
1	0x3d763598	0.060109705
2	0x3be7996d	0.0070678503
3	0x3c93bbd4	0.0180339
4	0x3d748a30	0.0597021
5	0x3f32af65	0.6979888
6	0x3e73eb83	0.2382031
7	0x3c2d0772	0.010560857
8	0x3c1a95b3	0.009435105
9	0x3d83fcfd	0.06444738
10	0x3f686a56	0.90787256
11	0x3d5db91e	0.05413162
12	0x3c288425	0.010285412
13	0x3c07e109	0.008293399
14	0x3d5465a7	0.051854756
15	0x3f3ef8d8	0.74598455
16	0x3e55d675	0.2088259
17	0x3c216b6a	0.00985227
18	0x3b5dda8e	0.0033852193
19	0x3d7eafe0	0.062179446
20	0x3f3ef8d8	0.74598455
21	0x3e55d675	0.2088259
22	0x3c216b6a	0.00985227
23	0x3b5dda8e	0.0033852193
24	0x3d7eafe1	0.06217945
25	0x423f44c9	47.817173
26	0x421f9b24	39.901505
27	0x3ac31010	0.0014882106
28	0x39c99714	0.0003845027
