Assets/Models/Scena1/iRobot 3.onnx (onnx, 88018 bytes, 10 tensors)

74 f4 [29]
00000000: e8ed f13e d8ab 5e3e 4ba9 d63d 28b7 ff3e
00000010: fc21 ca3e 41d9 e93e d56a 6f3e 55ed d53d
00000020: c6d6 ff3e 52cb b43e dea6 ec3e 3e8a 893e
00000030: fad4 ca3d d4c9 ff3e e2af cb3e b12e e23e
00000040: 9aa2 9c3e dd95 d53d ecd8 ff3e 3203 b53e
00000050: b12e e23e 24a2 9c3e dd95 d53d ecd8 ff3e
00000060: 2e03 b53e e802 af45 f52d a145 0443 bd40
00000070: cbe7 be40
0.4725182 0.2174524 0.10481509 0.49944425 0.39479053 0.45673564 0.23380597 0.10445658
0.49968547 0.3531137 0.4622106 0.26863283 0.09903903 0.4995867 0.39782625 0.44176248
0.30592805 0.10428975 0.49970186 0.35354 0.44176248 0.30592453 0.10428975 0.49970186
0.35353988 5600.3633 5157.7446 5.9144306 5.965795

action_model._discrete_distribution.branches.0.bias f4 [3]
00000000: 38d2 b83c e347 4cbd 9e1d cb3c
0.022561178 -0.049873244 0.024794396

action_model._discrete_distribution.branches.0.weight f4 [3, 128]
00000000: e4ba 233d e6af 51bc 33fb 10bd 076f 05ba
00000010: 7799 e23a e5cf d8bd 1c0b b43c e8f3 9cbd
00000020: 645e 5f3d e18b b1bb 61e6 0c3c 030f 32bc
00000030: 0eff e53a 7657 d1bc c7be 42bc c022 773d
00000040: 0590 bb3c a615 c4bc bd56 813d 221f a0bb
00000050: 8c83 96bd 9fca 723c 3781 47bd 140e 363b
00000060: e226 a43b d890 01be 4377 18bd f01c 483d
00000070: d827 85bc bb22 d6bb d73d d2bc 0f77 7d3d
00000080: 3137 48bc 579b 46bd 9b0b f13c 2b96 20bd
00000090: 5579 19bd f9b3 6dbd 59f2 3e3d d76e 0fbe
000000a0: 2672 a0bd 7797 06bd 339f c4bd 149f f2bc
000000b0: 7ab8 e63c 0bda 96bd 289c 773a ed56 9f3c
000000c0: 5bca d5bd b1ef 363d 4449 ff3b 9f20 61bd
000000d0: c3ef 8cbd bf66 973b f060 96bd 89a4 10bd
000000e0: fa5c cf3c 509a cabc e0f2 b73c 6ead 553b
000000f0: 9092 cebc 3895 7f3d f733 3b3c ce01 d23d
00000100: 0998 09bd 8e84 90bc c676 e2bc 602c afbd
00000110: 5810 833b 21b1 1bbd 9e97 603d 2362 8cbd
00000120: 700b 663d b029 23bd 7874 d2bb 560e 4fbd
00000130: c904 f23b dea9 353b b326 bd3c 20f2 063c
00000140: c73a 71bd 59ee 383d 85c9 0ebe e1bc ee3c
00000150: 8487 33be 2673 283d 5c6a 96bd cfa8 15bc
00000160: e466 f9bc 7763 41bd b962 9f3d 618d 393d
00000170: 56b1 14ba 3c92 8ebc fb6a 463d d8cd 30bd
00000180: 9601 4fbd fc85 3bbd 22b8 f0bc 7a49 943c
00000190: ae18 6fbc 77df 753d d7fd 263d d7da c93b
000001a0: e267 0cbe 6dcd dfbc b83e 523d 89ee d6bd
000001b0: 4ee8 a43d d570 a9bd 4108 163b 48a0 7fbc
000001c0: 8f7b 9fbb 3926 583d 7c2b a33c 5670 62bd
000001d0: 76de c83c a8e8 43bc fd97 333d 0f09 24bd
000001e0: a06a 803d 9659 e6bb 6c79 20bd d710 a3bd
000001f0: c318 28bc 8a27 24be fc1f 6f3b 9c15 1e3b
00000200: d379 52bd b23d 613c 5c38 123d bbf9 b5bd
00000210: b157 48bd 4015 9b3d 9f9b 303d eea3 143c
00000220: 540b b6bd 165c f0ba 566e 4e3d 6f8b 1a3d
00000230: 4c53 d2bd 7d17 78bd 6ca7 01bd e603 0b3d
00000240: 59fb 833a f9c2 a83d 0628 4b3d a60d dc3c
00000250: e5ea c33d e875 9dbb 7d33 1f3c 8958 a93b
00000260: 6d99 423b 48f2 f73b d7a6 863d 80c6 433a
00000270: e3a1 6e3d b281 fabb 476d 1abd ebe4 f1ba
00000280: b4cf 01bd 3eda 6dbc c586 f7bd ef04 953d
00000290: 8589 5f3d 7f78 bd3c e053 f03c 8007 eabc
000002a0: b5ad 9bbc c052 183d 11ea 583d 9efd fcbb
000002b0: 3ba1 99bd 0a2f 84bc c4a7 093d e81c ccbb
000002c0: ba60 013d 2ce5 da3c 4e03 c93d f072 0ebd
000002d0: 183a ad3c d82e 8bbd 9d4f 7c3d 5f03 a63c
000002e0: b1be b93b ea6d a43d f554 d3bd 4526 28bd
000002f0: 2864 a5bc 33d0 f7bc 13a7 e7bc 3c3c 58bd
00000300: 3942 c53d df33 ef3d 0808 23bd 7bd3 e53d
00000310: 24cd 6a3d 409a d8ba f979 9f3c b10d a03d
00000320: 4e8b 023d f485 9b3d c7e8 643d ee1b 1c3c
00000330: dfaf 0a3d af9d b1bb bbdf 24bd 875d 533d
00000340: 24b9 b63d fd36 99bd 3164 9a3d 1c33 bbbd
00000350: e6b1 c83d 03d6 28bc d3fc 60bc 1faf 683d
00000360: c193 0e3d 9977 93bd 9209 b7bd 695d 39bd
00000370: 98d6 393d 9ca1 4f3c 08b9 40bd 5565 503c
00000380: 2b57 0c3e a2ce e43c e8e8 893d a056 07bc
00000390: 327e 823d cd6a 8dbc 4f11 633c 9a5f a83c
000003a0: cdd9 763d 19b0 273d 7d22 91bd 09be ebbb
000003b0: 6cfa c1bc c5e7 3d3c 4f89 bd3b 745f c0bb
000003c0: eeed 01bb e10e 6e3c 6bdc 76bc 8e49 30bd
000003d0: bb47 233d 77de c43c a712 123d 7cfe 1a3c
000003e0: b0e1 9e3b 99a0 163c afbd babc 6167 443d
000003f0: 14e0 11bc 30be ab3d 4fe2 aebd 8b6d 003d
0.039973155 -0.012798285 -0.035395812 -0.0005090092 0.0017288168 -0.10586528 0.021977954 -0.07663709
0.054533377 -0.005418286 0.0085998485 -0.010867837 0.0017547326 -0.0255544 -0.011886305 0.060335875
0.022895822 -0.023936104 0.06315372 -0.004886524 -0.07349309 0.014818816 -0.048707213 0.0027779387
0.005009518 -0.1265291 -0.03722311 0.048855722 -0.01625435 -0.006534902 -0.025664253 0.06188112
-0.01222019 -0.048487987 0.02942448 -0.03920571 -0.037469227 -0.058032963 0.04661784 -0.14007126
-0.07834272 -0.032859292 -0.09600677 -0.02961687 0.028164137 -0.07365807 0.00094455713 0.01945063
-0.10438987 0.04466218 0.0077907164 -0.05496275 -0.068816684 0.0046204026 -0.07342708 -0.035313163
0.02531289 -0.024731785 0.022454679 0.0032604593 -0.02521637 0.062398165 0.011425964 0.102542505
-0.033592258 -0.017641332 -0.027644526 -0.08553386 0.003999751 -0.03801072 0.054832093 -0.068546556
0.05616325 -0.03983468 -0.0064225756 -0.05055078 0.0073858243 0.0027719657 0.023089742 0.008236438
-0.058893945 0.04514918 -0.13944061 0.029142799 -0.17532164 0.04112544 -0.07344505 -0.009134485
-0.03044457 -0.047213998 0.07782502 0.045300845 -0.0005672177 -0.017403714 0.04844187 -0.043165058
-0.05053862 -0.045782074 -0.029384676 0.018101443 -0.014593286 0.060027566 0.040769424 0.006160121
-0.13711503 -0.027319634 0.051329345 -0.10494716 0.08052121 -0.08273474 0.0022893103 -0.015602179
-0.0048670243 0.052770827 0.019918196 -0.055282913 0.02452014 -0.011957325 0.04384612 -0.0400477
0.06270337 -0.0070297224 -0.039178297 -0.07962196 -0.01025981 -0.16030708 0.003648757 0.0024121767
-0.051385712 0.013747619 0.03569828 -0.08885523 -0.048911754 0.075724125 0.04311716 0.009072287
-0.088888794 -0.0018337991 0.050398193 0.03773063 -0.10269794 -0.060569275 -0.031653807 0.033939265
0.0010069414 0.08240313 0.049598716 0.026861977 0.09566287 -0.0048053153 0.009716866 0.005168025
0.00296935 0.007566724 0.06574791 0.00074682385 0.058259856 -0.0076448554 -0.03770187 -0.0018455064
-0.03169222 -0.014517365 -0.12086252 0.07276332 0.05457451 0.023128746 0.02933687 -0.02856803
-0.019003728 0.03718829 0.052957598 -0.007720663 -0.075014554 -0.016135711 0.03360726 -0.006229032
0.031586386 0.026720606 0.098150834 -0.03477758 0.021145865 -0.06796044 0.061599363 0.02026528
0.005668484 0.08028777 -0.10318939 -0.04105212 -0.02018936 -0.030250644 -0.02827791 -0.05279182
0.096317716 0.116798155 -0.03980258 0.11221977 0.057324544 -0.0016525462 0.01946734 0.078151114
0.031871133 0.07593909 0.055886056 0.009528143 0.03385913 -0.0054204087 -0.04025243 0.051602867
0.089220315 -0.07481191 0.07538641 -0.09140608 0.097995564 -0.010304931 -0.013732153 0.056807633
0.034808878 -0.07200546 -0.08937372 -0.0452551 0.04537067 0.012672808 -0.04705146 0.012719472
0.13705127 0.027930561 0.067338765 -0.008260399 0.06371726 -0.01726284 0.013859107 0.020553399
0.060266305 0.040939424 -0.07086656 -0.007194285 -0.02367898 0.011590903 0.0057841907 -0.005870754
-0.0019825655 0.014529915 -0.0150672 -0.043038897 0.03986333 0.02403186 0.03566232 0.009460088
0.0048486814 0.009193563 -0.022795526 0.047950152 -0.008903522 0.08385885 -0.08539259 0.03135447

action_model._discrete_distribution.branches.1.bias f4 [3]
00000000: fd96 4d3c 9e67 0ebb 0a35 b5bc
0.012548205 -0.002172924 -0.022120018

action_model._discrete_distribution.branches.1.weight f4 [3, 128]
00000000: bb9f f13c 49e3 27bd d18e 7a3d f6c9 3a3d
00000010: eaab 79bd f63d b23d 7c78 543d a948 dc3b
00000020: 1804 bcbc ee18 5b3c bdee 8fbd cbc1 653c
00000030: 2b9d 3c3d 44e7 9a3b d482 203d 5ef5 2fbd
00000040: cc0c 30bd 4763 c83c c0b9 5e3d 4701 a1ba
00000050: ffe7 873d 98c2 71bc d5c0 f6bc a5af a23c
00000060: 0f05 d1bb f2d4 9bbb 93e6 98bd e46b 493d
00000070: cbf3 b03d 3da5 b33d eb69 653d 575d 023d
00000080: 9e44 9c3d 61b1 e33c 1551 0a3d eb11 963d
00000090: 1839 0f3d eb1a 8abd b25a 963c 2c0f e1bd
000000a0: 2643 923d 3d63 96bd ab3d 393d d0de 1e3d
000000b0: 5b74 0c3c 8e6d c1bc 6d90 a33c 1eb8 2fbd
000000c0: 4579 e4bc 22ce 9c3c 960f e8bc a681 ac3d
000000d0: 78c8 d9bd bbb5 8e3d eaa7 943d 1e72 143d
000000e0: bd4c 92bc f5ff 593a 6513 68bb 496d 7fbc
000000f0: ed7e 563d 50f3 063c ff43 5f3c d0bc 233b
00000100: 1958 863d 7b2e ce3c b721 40bb 08f9 e33b
00000110: 6e88 d0bc 4491 ec3d a1d7 113b a17c 1ebd
00000120: 1c51 eebd c776 643b a8bd 103d 8e7c 92bd
00000130: fff4 a03d 7aa6 13bc f3c0 c73c 2a30 183d
00000140: ecfb 5e3b 522b 453c 2dea e63c 53b9 f03c
00000150: d0af b4bd 18b4 d53c f6e1 063e 752c 963d
00000160: 4f82 933d f9e8 873d 8f03 6ebc cb35 2cbd
00000170: 0067 8739 28fe 333d 49d8 9abc 4022 8dbd
00000180: 648f 6b3b 630f c1bd 082a 783d f0d9 adbc
00000190: 679d ba3c fbd8 eabd 87a3 663d dc85 e83c
000001a0: efc3 353d 5450 4b3d 21b1 ccbb ddfa d0bd
000001b0: ca0e 9fbc 8ab6 9f3c ae22 2ebb 2ff5 373c
000001c0: 0eda 19bd eae5 fabb 52f6 83bd fc8e fb3d
000001d0: bf5c 853c 5b9d 133d 7131 96bc 42d2 843d
000001e0: 9751 c03c 841e 463d 6683 1f3d f59d 2a3d
000001f0: 9985 6c3d 6bbe 61bd 8a40 323d 8115 39bd
00000200: f5bc e6bc 25e7 be3d 7f62 49bd 42df 87bd
00000210: 4223 233e 2ae8 573b 4e65 39bd 5a3e 773d
00000220: c0ae 3cbc f9e1 be3b e8e5 893d 0a80 fdbc
00000230: 6caf babd 8d88 f4bb 547f 80bd 3bed 843c
00000240: 3193 9a3d 8f2f 573c 3b9e 99bd 75be babc
00000250: e135 16be 609d 823c 895e a4bb 9cae 273d
00000260: cea2 1abc 786b f8bb d05d 023e 6a4b 21bd
00000270: 6cba e7bd dee6 04bd e7c8 bcbd 81c2 31bd
00000280: b5bd 44bd b6cb 4dbb d086 cabd 1283 a5bd
00000290: 68b9 48bd c509 183e 751c 9fbc dd1b c23d
000002a0: a14a 1cbd daba 9e3d c284 dbbd 6089 163c
000002b0: 2236 80bd c7a6 bb3d f14b 20bc 2c74 c93c
000002c0: ea28 bc3d 7188 13bc a31b 453d d229 adbd
000002d0: 6dec 2c3e e734 30bd ff66 b9bd 0d02 33bd
000002e0: 8bee 3d3c 797a 433c 02c0 853b e575 e9ba
000002f0: 8df4 abbd 8fe0 b4bc 9e7b d3bd 7da9 acbb
00000300: a8de 5ebd cd75 493d f1a9 a2bd 003e 94bc
00000310: 2585 8a3c 6dd6 40bd eacd fbbb 5a53 f23d
00000320: 7a1e 623d 40a6 af3c 0307 af3b 4964 4a3d
00000330: fb39 f7bd 0f16 85bb 1b68 90bd 5ae7 d4bd
00000340: 143a b33c b3fd 80bc c5da 03be 9055 34bd
00000350: 06bf 023e edbb 80bd 0cab dfbd f2d9 abbc
00000360: cd99 ecbb 0847 54bd 0c00 9b3c e0f8 4939
00000370: 97b2 993b d465 61bd 644b 853d 246b fb3d
00000380: 7bc7 9ebd 1d57 403e 192a a5bd 6db7 9d3d
00000390: b392 62bc 3bf4 b43d 2eb0 92bb 29d3 9cbd
000003a0: 2a69 62bc 68e1 6ebd 497c 183d 36b2 b83d
000003b0: 91fb b4bb b76a 00be c1a0 003d 8229 dcbc
000003c0: 68cf 833d 0256 b63c 597b 703d 4132 83bd
000003d0: 5e27 24bc 041f 57bd 2fac 0bbc 1e22 1ebc
000003e0: b3a1 f5bc e55a 4fbb db5f aebd 6670 373c
000003f0: e0a0 a6bd 777c ba3d 9121 be3c 91cc 993d
0.02949511 -0.04098824 0.061171357 0.04560276 -0.060954966 0.08703224 0.051872715 0.006722529
-0.02295117 0.013372643 -0.070279576 0.014023255 0.046048325 0.004727276 0.039187267 -0.04295861
-0.042980954 0.024461402 0.054376364 -0.0012283706 0.066360466 -0.014755867 -0.030121246 0.019859144
-0.006378777 -0.0047556097 -0.074658535 0.04917516 0.0864025 0.08771751 0.056009214 0.031827297
0.07630275 0.027794542 0.033768732 0.07327636 0.03496656 -0.067434154 0.018353794 -0.10989222
0.07141714 -0.07343147 0.045224827 0.03878671 0.008572663 -0.02361181 0.019966329 -0.042900197
-0.027889857 0.01914126 -0.028327744 0.08423166 -0.106339395 0.06968256 0.072585896 0.036241643
-0.017858857 0.00083160336 -0.003541195 -0.01559002 0.05236714 0.008236721 0.013627051 0.0024984367
0.06559772 0.025168648 -0.002931697 0.006957177 -0.02545568 0.11551145 0.002225377 -0.038693074
-0.11636564 0.0034860836 0.03533712 -0.07152663 0.07859229 -0.009011859 0.024383998 0.037155308
0.003402467 0.012034254 0.028187836 0.029385244 -0.08822596 0.026086852 0.13172135 0.07332698
0.07202589 0.06636233 -0.014527216 -0.04204349 0.00025825948 0.043943554 -0.01890196 -0.06891298
0.0035943622 -0.09426763 0.06058696 -0.021222085 0.022780133 -0.11467167 0.056308296 0.028384142
0.04437631 0.049637154 -0.0062467013 -0.102040984 -0.019416232 0.019496221 -0.0026570964 0.01122789
-0.03756147 -0.0076568024 -0.06443466 0.122831315 0.016279576 0.036038738 -0.018334122 0.06485416
0.023476405 0.048368946 0.03894367 0.041654546 0.057744596 -0.055113237 0.04351858 -0.045186523
-0.028166274 0.09321431 -0.0491662 -0.0663438 0.15931419 0.0032944777 -0.045262627 0.060362197
-0.011516273 0.005825278 0.06733304 -0.030944843 -0.0911549 -0.007462567 -0.06274286 0.016226402
0.07547606 0.013133897 -0.07500883 -0.022795895 -0.1466899 0.015944183 -0.0050161523 0.040938005
-0.00943823 -0.0075811706 0.12731099 -0.03937856 -0.11314854 -0.032446735 -0.092180066 -0.043398384
-0.04803248 -0.0031401939 -0.09888995 -0.0808164 -0.049004942 0.14847477 -0.019422749 0.09477971
-0.03815711 0.07750483 -0.10718681 0.009188026 -0.06260325 0.0916267 -0.009783731 0.024591528
0.09187491 -0.009004698 0.04812206 -0.08455242 0.16887064 -0.0430192 -0.09052848 -0.043703128
0.011592518 0.011931055 0.004081727 -0.0017811625 -0.08396254 -0.022079734 -0.103263125 -0.005269228
-0.05441156 0.04918461 -0.0794257 -0.01809597 0.016909191 -0.047079492 -0.007684459 0.11832304
0.055204846 0.021441579 0.005341412 0.049412046 -0.12071606 -0.0040614675 -0.070511065 -0.10395689
0.02187828 -0.015745973 -0.12876423 -0.04402691 0.12768182 -0.06285844 -0.109212965 -0.020977948
-0.007220483 -0.051825553 0.01892092 0.00019261567 0.004690479 -0.05502875 0.0650852 0.12276295
-0.07752892 0.18783231 -0.0806467 0.07701001 -0.013828921 0.08835646 -0.0044765687 -0.07657463
-0.013819018 -0.058320433 0.037227903 0.09018366 -0.005523153 -0.12540708 0.031403307 -0.026875261
0.06436044 0.022257809 0.058711383 -0.064060695 -0.0100191515 -0.052519813 -0.0085249385 -0.009651689
-0.02998433 -0.003163987 -0.08514377 0.0111962315 -0.08136153 0.09105771 0.023209365 0.07509721

network_body.linear_encoder.seq_layers.0.bias f4 [128]
00000000: d990 a6bc d41f b93c 2de4 b53d 820e f53a
00000010: a718 073c 3ed6 f4bb efae 933b 276e a63c
00000020: 6af7 83bd 6cad f4bc 32d3 493d f5f2 87bd
00000030: 0200 8dbd 2641 963c 4959 51bc 7bd2 023c
00000040: 7f52 d53c 51eb 35bd f0f6 eb3a 1dd2 583d
00000050: e604 3ebd 6651 d03b 29f4 b73c 22ca 41bd
00000060: 1c16 643c 6f1b c8bc df75 df3b 77db 7e3d
00000070: 88ca 353d 7c93 823d 114b d8bb 311a b5bc
00000080: 8bca 49bd 9826 063d 60bd f13c 92e7 513b
00000090: 2460 75bd 0ff1 0fbc 16db 6dbd dc01 973d
000000a0: f5c2 e5bb 31cf 34bc 9855 87bd 5e34 d1bc
000000b0: ed2b 863c 8ece 5bbc 0c45 293d eed6 31bd
000000c0: 8c83 a3bc 8c79 60bc 3edc 6abd 6cd6 46bd
000000d0: f97a 41bd ca4a 653c 4bce 833d 4d3e b8bd
000000e0: 7f2b 6dbd 7273 013c 7679 db3b c09a acbc
000000f0: 5806 5dbc 3bf2 7fbd 499f 843b 82b7 883d
00000100: 7be7 a23c 466e e03c cbc1 48bb 2694 813d
00000110: 66c5 283c 4346 1a3d d7b0 18bd 05c9 4fbd
00000120: 6f8f 313d 8a7f 17bd 4608 86bd 2c65 37bc
00000130: 28de d2bc 439f 8f3c d67b caba 0a1a ccbc
00000140: 109a 313d ae55 66bb 3de8 c03a b0f0 8e3c
00000150: f98b 6c3d 9918 0f3d 3357 2fbd fab2 863b
00000160: 487d 413c 4a74 c13b 5441 9dbc 2db0 ab3c
00000170: b11b 0c3d 6138 a63c 5580 233d d11a 64bd
00000180: 30fe 81bd 1cb9 dcbc 9e00 f5bb 2903 1cbd
00000190: 20f0 923c 707c e33c 27d4 ec3c 013f 903a
000001a0: 46f5 4f3d 13d0 dd3c b43f ddbb 80a2 2a3d
000001b0: 41a5 10bc 6273 7a3d a76e 64bd dee6 e43c
000001c0: 5d94 af3c 2710 da3b 5b95 ec3a f61e 853c
000001d0: 0e70 5a3c a807 c03d f7de 6e3c d527 ac3c
000001e0: a19e 7b3c 96c5 9dbc 148e a0bc aae0 ee3b
000001f0: 99dc e9bb 6cb9 a73c 1178 2dbd 5065 0abd
-0.02033274 0.022598185 0.08881412 0.001869634 0.008245624 -0.0074718287 0.0045069377 0.020316197
-0.06443675 -0.02986785 0.049273677 -0.06638137 -0.06884767 0.018341612 -0.012777635 0.007984753
0.026040314 -0.04441387 0.001800267 0.052934755 -0.04639139 0.0063573597 0.022455292 -0.04731191
0.013921287 -0.024427144 0.0068194713 0.062221017 0.044382602 0.06375787 -0.0066007455 -0.022107216
-0.049265426 0.03275165 0.029509246 0.0032028896 -0.05990614 -0.0087855 -0.058070265 0.073734015
-0.007011766 -0.011035726 -0.066081226 -0.025537666 0.016378367 -0.013415946 0.041325614 -0.043417864
-0.019960187 -0.013700854 -0.057338946 -0.048544332 -0.047236416 0.013994882 0.06435832 -0.08996258
-0.05790281 0.007901059 0.006697829 -0.021069884 -0.013490282 -0.06248687 0.0040473086 0.06675626
0.01988577 0.027396332 -0.0030633088 0.06327085 0.01030097 0.037664663 -0.037278023 -0.050728817
0.04334968 -0.036986865 -0.06544547 -0.011193555 -0.025740698 0.017531997 -0.0015448283 -0.02491476
0.043359816 -0.0035146284 0.001471765 0.017448753 0.057750676 0.034935568 -0.04280777 0.004110691
0.0118096545 0.0059037553 -0.01919619 0.02095803 0.034206096 0.020290555 0.03991731 -0.055689637
-0.063473105 -0.026943736 -0.00747688 -0.03808895 0.017936766 0.027769297 0.028909756 0.0011005105
0.05077102 0.027076757 -0.006751979 0.04165888 -0.008828462 0.061145194 -0.05576959 0.027942117
0.02143305 0.0066547575 0.0018049882 0.016250115 0.01333238 0.0937646 0.014579526 0.021015087
0.015357644 -0.019259255 -0.019598998 0.0072899656 -0.007136893 0.020474158 -0.042350832 -0.033788025

network_body.linear_encoder.seq_layers.0.weight f4 [128, 29]
00000000: 4626 0c3e 28a1 00be 6525 883d 5d58 c1be
00000010: 3985 b73e 8b8d 00bc 879d ca3c a0d8 d13d
00000020: 9f8c 48be c1d5 853d 682a 053e ed61 c6bd
00000030: 6892 0bbf 94d4 6dbe a36d 5abe 647e 153e
00000040: fe00 12be 8a5d 41be 2ca3 f03c e0e9 faba
00000050: d805 1ebd 597d b43d 0703 703e c613 c4bd
00000060: 3dfa 35bd f4ce e93d d3d2 f1be 581b 133f
00000070: 1e79 82be a4d0 4d3e 81d5 3b3e 3960 133e
00000080: f363 ab3a fdc9 db3d 419d 3d3d 2a4b 8dbb
00000090: e46a a4be 6b7a 8f3a 97c4 f43d cd7e 863e
000000a0: b39d 3a3c 409d 6a3d 471d 8a3a 0996 be3b
000000b0: 9fc9 10bd ae2f 133e 4bbc a83e a5ee 1b3e
000000c0: d0f9 f63d ebeb 4ebe 53ab 78bd 5cd7 37be
000000d0: 74ee 26be 87a9 91bd 0c39 3abd 9865 b53e
000000e0: 388a 46be cf4c 20be 4287 833d e50d 583e
000000f0: c458 dfbe d543 39be 7d0a 2fbe 15c8 7d3e
00000100: 952b c63e f9c2 95be 9094 353e 44e4 0dbe
00000110: 9a19 e13e d6cf 093c fb86 d0be 78d8 433e
00000120: 75e0 d23e 44d8 0d3d 5023 9d3d 3a8d efbc
00000130: 21bf 94be e7e6 2cbe 6d66 8d3d 75e7 e2bd
00000140: 5ee7 ef3d 0375 333e 491f 15be 14ce c23d
00000150: a402 c9be 6db4 253e 3e46 d63e 7708 75bd
00000160: 29de 87be 11b0 58bd 3953 263e 8dbe 093c
00000170: 81a5 21bd 2262 c2bd 10b3 45be f112 58bd
00000180: a336 0cbe 5458 96be d3fb ffbd 3401 553d
00000190: 7975 a03c 5c77 7f3e 4d7e 283d 857b 7dbd
000001a0: 5177 36be c520 1c3e 2d96 a4be 6ccf 9abd
000001b0: bdd4 26bd f042 f6be 10b6 033e 8ce9 563e
000001c0: 16b6 cebe 4abf bc3c e9ce 943d a2be b5be
000001d0: ea5b d03e 31f7 a6be ac81 abbd 5bb9 3ebd
000001e0: 5480 cc3d 412f 843d 9c71 ab3d aa0f 75be
000001f0: 9c23 03be a595 a33d 0e9c bb3a d40c b5bd
00000200: ea8b a2bd 4afd 46be fbf3 32be 5d72 8abe
00000210: d75d d8be 5a4b bdbd 3905 de3d 9044 12be
00000220: fcaf 20bd 7be0 dcbe 248b 46bd 9a5e c43d
00000230: 8bda 2ebd 8a02 f0bc ebab da3e 8678 ac3e
00000240: 1f8e 7d3e 4e64 cfbd efd9 64be 9e80 6bbe
00000250: 9c43 b0bd 563a f2bc 51f5 f4bd 80ff 4a3c
00000260: c46c 4f3d 1081 3abe 6ef0 4a3e def7 f8bd
00000270: 5f0f 5d3e 4153 773e 34ad 0a3d 6ff9 8dbe
00000280: 583e dcbc 2bef 11be 3b57 a7bd d130 9abe
00000290: 5513 cfbd e93d d53e fe73 82bd c4a9 d0bd
000002a0: 6862 40be 9289 d3bd 8a3c b8be 0cfd 30be
000002b0: d24f 443e 0e07 abbc 9270 05be 1484 d6be
000002c0: c23e 483d 8928 303e 3d35 a6bd cca4 a33e
000002d0: d365 243e 9032 3e3e e7f4 b1bd 5277 5abe
000002e0: 64bf 01bf 776e b03e 95c2 043e db9f 39be
000002f0: 293e 5e3e 32e3 a8be 3e51 83bd 1a74 ff3c
00000300: f284 08be 58f8 943e 33f4 32be 507e 193c
00000310: 1d71 d4bd 8dc3 16bb e29d a4bd 0ef4 69be
00000320: c4f7 ca3d 3a93 57be 6bb8 dc3d 3498 953d
00000330: 4a19 07bd f87d eabd 1536 453e 4b8a a1be
00000340: 7b5b 55be 5bc4 79bd 1471 1b3e 334f 0b3e
00000350: ceba 72be 269a 1fbd 7fad 4d3e f0b2 35be
00000360: e977 cfbb ae5f c23e ee03 26be e0b5 f8bd
00000370: 8ac6 963e 828a c7bd bd2f ad3e 122b 023e
00000380: 9094 a93d 36b8 773d 4332 123e 5db5 94bc
00000390: b407 be3c 0804 5f3e 776b 27be 2aee c03e
000003a0: 2f78 bb3e 4bae b43d a8b9 0cbe 2ec1 42be
000003b0: 8fcc 34bd 087c 873e e9a7 0e3e a0b1 08be
000003c0: 1af0 8dbb 0dcf 543e 4d50 a43e b7e4 ab3d
000003d0: 8c02 8abd f836 d2bd 06c1 7bbe fa48 66be
000003e0: e0bf 42be 4369 24bd 7976 813e 7ec8 b9bd
000003f0: 1d1e 813e 0d6e 543e 5992 94be fc9d bc3b
0.13686475 -0.12561476 0.066477574 -0.37762728 0.35843828 -0.0078462465 0.024733318 0.10246396
-0.19584893 0.06534911 0.13004458 -0.096866466 -0.54520273 -0.23225623 -0.21330886 0.14598995
-0.14258191 -0.18883339 0.029374681 -0.0019143187 -0.03857979 0.08812971 0.23438655 -0.09574084
-0.0444281 0.11416426 -0.4723116 0.574636 -0.2548303 0.20099121 0.18343164 0.14392175
0.0013076052 0.107318856 0.046292547 -0.004311939 -0.321128 0.0010946518 0.11951559 0.26268616
0.0113901375 0.05727887 0.001053729 0.0058162254 -0.03534853 0.14373657 0.32956156 0.15227754
0.12059367 -0.20207183 -0.060710263 -0.17953247 -0.163019 -0.07112413 -0.04546456 0.35429072
-0.19388664 -0.156543 0.06422283 0.2109905 -0.4362241 -0.18092282 -0.17093845 0.24783356
0.38705125 -0.29250315 0.17732453 -0.13856608 0.43964845 0.008411368 -0.40727982 0.19125545
0.41186872 0.034630075 0.07672751 -0.029242147 -0.2905207 -0.16884957 0.06904302 -0.11079303
0.11714052 0.17525105 -0.14562716 0.095119625 -0.39259827 0.16182108 0.41850466 -0.059822526
-0.26536682 -0.052902285 0.16242684 0.008407247 -0.039464477 -0.094913736 -0.19306588 -0.05275244
-0.13692717 -0.29364264 -0.124992035 0.0520031 0.019587265 0.24947876 0.041136075 -0.061885376
-0.17818953 0.15246876 -0.32145825 -0.07559094 -0.040730227 -0.48097944 0.1286242 0.20987529
-0.40373296 0.023040432 0.072660275 -0.35497004 0.40695125 -0.32610467 -0.08374342 -0.046563487
0.09985414 0.064543255 0.08371279 -0.23931757 -0.12806553 0.07987527 0.0014313476 -0.088403374
-0.07936843 -0.1943256 -0.17475884 -0.27040377 -0.42259094 -0.09242888 0.1084084 -0.14283967
-0.03923033 -0.43140015 -0.04847254 0.09588356 -0.042688888 -0.029298086 0.42709288 0.33685702
0.24761246 -0.101265535 -0.2234876 -0.22998282 -0.086066455 -0.029568832 -0.11960853 0.0123900175
0.050640836 -0.18213296 0.19818279 -0.12156652 0.21587895 0.24152853 0.033856586 -0.27729365
-0.026885197 -0.14251392 -0.08170935 -0.3011537 -0.10111109 0.41648796 -0.0636978 -0.1018863
-0.18787539 -0.10328974 -0.35983688 -0.1728403 0.19171074 -0.020877387 -0.13031223 -0.41897643
0.048887976 0.17202963 -0.08115623 0.31961668 0.16054468 0.18573976 -0.086892895 -0.2133458
-0.50682664 0.34459278 0.12964852 -0.18127386 0.217034 -0.32985836 -0.0641198 0.031183291
-0.13331965 0.2909572 -0.17475967 0.009368494 -0.10373137 -0.002300474 -0.08037926 -0.22847006
0.09910539 -0.21052256 0.107773624 0.07304421 -0.032983102 -0.11449808 0.19258912 -0.31550822
-0.20835678 -0.060978275 0.15179855 0.13604431 -0.23704073 -0.038965367 0.20085715 -0.1774404
-0.006331433 0.37963623 -0.16212437 -0.12144065 0.29448348 -0.09743215 0.33825484 0.12711743
0.08280289 0.06047841 0.14276986 -0.018152887 0.023197033 0.21778882 -0.16349588 0.37681705
0.3661513 0.08822306 -0.13742697 -0.19019005 -0.044140395 0.26461816 0.1393124 -0.13349009
-0.004331601 0.20782109 0.32092515 0.08393233 -0.06738767 -0.10264391 -0.24585351 -0.22488776
-0.19018507 -0.040139448 0.252857 -0.09071444 0.25218287 0.20745106 -0.29017904 0.005756138

network_body.linear_encoder.seq_layers.2.bias f4 [128]
00000000: 4088 76bc 3d07 1fbd 74df cebc 0eb5 8b3c
00000010: def4 0a3d 0aa6 a63a db24 c6bc e243 b0bc
00000020: bc2b 273c edc8 70bd 1055 6dbd 312a 11bd
00000030: 545c d23c 9265 1abd ad18 3cbd 24ab c9bc
00000040: 1ebf 1abd 938c b7bd 86a8 d8bc 488a cdbd
00000050: 2366 fc3c 8247 21bd cf31 61bd 6af0 96bc
00000060: d0ff b5bc 39d1 7a3b 450f 7dbc e1fd 05bd
00000070: 9c8e 08bd b125 fbba 3fda ef3b 6b6d 35bd
00000080: e7fc 60bc d107 e8bc 8b25 3bb9 76fd 6abb
00000090: 2e7a adbd 423e 10bc 20f0 2abc edec d33c
000000a0: 7217 cbba d0ac 52bd a004 4a3c ea3d 09bb
000000b0: f023 c4bc 44a3 bbbc 3950 4dbd 9ca9 1abd
000000c0: 0e0c 3fbd a8d1 33bd 07a3 a8bc d0aa b5bb
000000d0: cbac e3bb cb14 943c f7b7 97bc f761 88bd
000000e0: 7900 a8bd 131d 2ebd c410 b1bb 2b66 363b
000000f0: c7bb 82bd 2ec3 62bd b55c 48bd b1e2 743b
00000100: a840 e1bc 9789 773b 1957 29bb ff4f bf3a
00000110: 356a cfbc 7cf3 bf3b 9deb b6bc b795 47bd
00000120: 71e0 0a3d 342f aebd 191a 25bd a679 89bd
00000130: 5c6b 10bd 8f1e 12bc 1267 d73a 4514 923b
00000140: 8ea3 f8bc e847 a8bc 1621 573d 54ee f83c
00000150: fd17 123d 8ee9 9dbc 3ec9 603d 0e70 fdbc
00000160: c064 8bbd ce6b 483c 6233 20bc b299 03bd
00000170: 8c62 02bd a796 43bd 5edc 583c f465 4dbd
00000180: a084 c3bc c058 253c 6b6e aebc 8d7d e1bc
00000190: 263a a5bd 8839 253c 8840 01bd 0bde 49bd
000001a0: bdf6 393c 5dbe bebc 7d8e ccbc a26a 113d
000001b0: 0886 0e3d 21a1 853b 7e9e a0bd aa06 8abd
000001c0: a80a 08bd c7a5 673c 86e1 233c 776d 3c3d
000001d0: 80ba 9cbc b10b a3bd b7a5 77bd cd01 99bc
000001e0: ff31 88ba d75d 76bd d7ef 42bc 4dac ef3a
000001f0: 350b 3ebd 02f4 993c 1d54 273d 58ff c5bc
-0.015047133 -0.038825262 -0.025253035 0.017054107 0.03392493 0.0012714278 -0.024187496 -0.021516744
0.010203298 -0.058785368 -0.05794245 -0.035440627 0.025678791 -0.03769452 -0.04592197 -0.024617739
-0.03777992 -0.08962359 -0.026447546 -0.10036141 0.030810421 -0.039374836 -0.05497914 -0.018425185
-0.022216707 0.003827168 -0.015445535 -0.03271282 -0.033339128 -0.0019161013 0.007319718 -0.044293802
-0.013732172 -0.02832404 -0.00017847696 -0.003585664 -0.084705696 -0.008803906 -0.010433227 0.025869811
-0.0015494658 -0.051434338 0.012330204 -0.0020941445 -0.023942918 -0.022905 -0.050125334 -0.03775941
-0.046642356 -0.043901116 -0.02058555 -0.005544044 -0.0069480888 0.018076321 -0.018520338 -0.0665931
-0.08203215 -0.042508196 -0.00540361 0.0027831893 -0.06383472 -0.05536192 -0.048916537 0.0037366564
-0.02749665 0.003777122 -0.0025839268 0.0014595984 -0.025319198 0.005857883 -0.022329146 -0.048726764
0.03390545 -0.08505097 -0.04030809 -0.06712656 -0.035258636 -0.008918419 0.0016433916 0.0044579827
-0.030351426 -0.0205421 0.052521788 0.030387081 0.03566741 -0.019276407 0.05487942 -0.03093722
-0.06806326 0.012232734 -0.009777876 -0.032128997 -0.031832263 -0.047751095 0.013236133 -0.05014606
-0.023866951 0.01009196 -0.021292886 -0.027525688 -0.080677316 0.010084517 -0.031555682 -0.049284022
0.011350331 -0.023284132 -0.024970287 0.035502084 0.03479579 0.004078046 -0.0784273 -0.06739552
-0.033213288 0.0141386455 0.010002499 0.04600283 -0.019131899 -0.07961214 -0.060460772 -0.018677616
-0.0010390877 -0.060148086 -0.011898003 0.0018285603 -0.046397407 0.01879311 0.0408517 -0.024169609

network_body.linear_encoder.seq_layers.2.weight f4 [128, 128]
00000000: 9946 033d 3073 103e c468 ddba ae77 7cbd
00000010: 6d20 edbd b316 89bd b9d0 1e3e 4be8 343e
00000020: 0c5f 7bbb 85ab b43d c6b6 eebd cbbd 66bc
00000030: 1125 90bd d215 c3bd b58a ba3a 0cdb b93d
00000040: 1aad b03c b651 dc3c fc5c 1b3d cd48 933d
00000050: 5610 27be ff79 903d 7c6e 833d 6a1d 4cbd
00000060: cd4d a9bd 7add 493c 7ee8 15be 40ac 35be
00000070: 7f85 87bd 4533 62bc 32b4 40bd 1373 c2bd
00000080: 2485 c8bd b876 c8bd e364 c7bd 90d5 b5bc
00000090: 755a 9dbc c921 3cbe f47b 083e 643f 66bd
000000a0: e9eb 833d 4848 723e 3e0e be3e dc7f e9bd
000000b0: 9826 e4bd d46f 453c d595 c9bd 004e bbbb
000000c0: 9a16 38bb 3e74 133e f9cf b63d cc18 98bd
000000d0: 2336 f7bb e964 29be b051 14bd 7787 05be
000000e0: 4233 a23d 79c0 193d ed32 e43d a281 923d
000000f0: 562d 0abc 6d52 5fbe de5a 28be 7a15 c83c
00000100: 56ac 6e3d ac80 cc3c 49a6 6ebe c5ee 35ba
00000110: f330 b93d 2402 38bd 4696 01be d355 d1bc
00000120: 4986 cbbd 4197 69bd 8e62 073e 44e6 16be
00000130: af54 a93b 351d 5b3d 9033 683c 900d a2bc
00000140: c95d afbd 41e9 ea3d 9f04 bf3d 4218 d0bd
00000150: e2f8 afbd 7938 1dbe a914 47bd c0ac 01be
00000160: a995 0d3d 12b9 ed3c 8caf 83bd 930f dcbd
00000170: 00ef 0b3e 0fb1 113d c1fc 6e3d 01d3 f6bd
00000180: a06c eabd d4ec 94bc 5044 233b a645 64bd
00000190: fa7e 803e d334 64bc 7863 90bd 6883 c73d
000001a0: b93d da3d 164f f5bd 0698 503e ee97 85bd
000001b0: 42bf 043d ffa3 483b 509d 03bd 3dbe 40be
000001c0: a8f2 363d 61d1 e1bc 1932 debc 118e 65bd
000001d0: 0644 f2bd 8a78 44bc 9cc5 9dbd 5e54 033c
000001e0: 2a06 083e a376 953d 75ba f5bd 623f 113e
000001f0: 31a4 5fbc 6eee c73d 8993 103e 9719 1f3e
00000200: d413 e43d 1cfd 9abd e521 d1bd d2f6 803d
00000210: c701 9e3d 637d 763d 5319 b83d 49de 863d
00000220: 196a bf3c b2e5 3c3d 6e5e d5bd 9ac7 3439
00000230: 944f 87be 92be f3bd 1227 c73d 3dfd b8bd
00000240: f22e 0a3c 922c b93d 4829 333d 57e0 89bd
00000250: 5947 01be 5142 f7bd 8f6f 763e 0e9d b23d
00000260: 3d75 ffbc 5c2d 073c 19cb ab3d 9eb5 9ebd
00000270: 3c05 c8bd 0f3b f4bd 15f3 473d 6e49 fc3d
00000280: c5af 5cbd 582a dd3d 45d7 b03d dcc6 15be
00000290: cb33 2fbd d932 783d a796 44bd 94a8 2f3a
000002a0: df56 303d 9275 b7bd 82bf da3c 7ee8 a4bd
000002b0: 29ed 31be f123 ef3d 95f8 713e b26e ba3d
000002c0: 713a a5be 60dd a2bd 59bf 873d 95d0 8cbc
000002d0: 4379 8abe ee1a 573d 2e27 aa3d 3a15 bdbc
000002e0: a1ad 483d c768 bdbd 78bc d8bd a082 fc3d
000002f0: 9208 c73c 753c c93d 4ef1 23be c14a 39be
00000300: e6f3 90bd 10c2 14bd ac88 21be bf1a 903d
00000310: c75c 813c bb56 18be d46b 24bd d56a 70be
00000320: 29c7 323e 3e17 713d 59ca 363d fb52 b1bc
00000330: 90f5 9bbc 988b 253e 9257 57bd e69b 543d
00000340: 1fe1 adbc bfe5 da3d 4bde 64be fa5e 41be
00000350: 0c53 10be c3ac c93d 440a 95bd b69d 1d3e
00000360: ee86 7fbd ba20 2fbb 6ef9 153d 5ff3 063c
00000370: d537 1d3b 59e3 903d fa2b 5b3e 39da 8abc
00000380: 97bd 6abc 6571 cfbc c164 74bd 3309 a1bd
00000390: ebbd 05be 9155 203d 8c22 513d c0a5 7ebd
000003a0: 9096 e6bd 3ad1 c1bd a028 093e 80e3 743d
000003b0: 7235 1bbd 5cec 31be 1f12 11bd cb3c 40bc
000003c0: a339 423d 7753 733e 3aa1 fabb ad98 23bd
000003d0: bd83 373d 5472 17be b9a3 60be 59ef 41be
000003e0: f2d1 8abd 7e96 713d 2f83 8d3e 8e56 6e3d
000003f0: e00b 6c3c c41a 7cbc f4af f53d 38f4 423e
0.03204975 0.1410644 -0.0016892185 -0.061637573 -0.1157845 -0.06693783 0.15509309 0.17666738
-0.0038356213 0.08821777 -0.11655955 -0.014083336 -0.0703832 -0.09525646 0.0014232012 0.09074983
0.021566916 0.026894432 0.037930474 0.0719162 -0.16314825 0.07054519 0.064175576 -0.04983274
-0.082667924 0.0123208705 -0.1463947 -0.1774149 -0.06617259 -0.013806169 -0.047046848 -0.09494605
-0.097910196 -0.09788269 -0.097360395 -0.022196561 -0.019208172 -0.18372263 0.13328534 -0.056212798
0.06441481 0.23660386 0.3712024 -0.1140134 -0.11140174 0.012050588 -0.09843031 -0.0057160854
-0.0028089643 0.14399812 0.089263864 -0.07426605 -0.0075442954 -0.165424 -0.036210716 -0.13039957
0.07919933 0.03753707 0.11142526 0.07153632 -0.0084336605 -0.21808787 -0.16440913 0.024424303
0.05826982 0.0249637 -0.2330562 -0.00069401815 0.090425394 -0.044923916 -0.12654981 -0.02555362
-0.09937722 -0.057029013 0.1322119 -0.14736277 0.005167566 0.05349465 0.01417245 -0.019781858
-0.0856281 0.11470271 0.09327053 -0.10160877 -0.085923925 -0.15353574 -0.048603687 -0.12663555
0.034566555 0.029018912 -0.06429967 -0.10745158 0.1366539 0.035569247 0.058346514 -0.120519646
-0.114465 -0.018179335 0.0024912544 -0.055730484 0.25096875 -0.01392861 -0.07050222 0.09741861
0.10656304 -0.11977975 0.20370492 -0.06523119 0.03240896 0.0030615327 -0.032132447 -0.1882257
0.04466501 -0.02756566 -0.027123498 -0.05604369 -0.11829381 -0.011991629 -0.077037066 0.00801572
0.13283601 0.07298019 -0.119984545 0.14184335 -0.013649986 0.09762274 0.1411878 0.15537106
0.111365944 -0.07567808 -0.10211543 0.06297077 0.07715183 0.06017817 0.08989205 0.06585366
0.023366021 0.046117492 -0.10418402 0.00017240495 -0.264279 -0.11901583 0.09724249 -0.09032676
0.008434044 0.09041704 0.04374054 -0.067322426 -0.12624873 -0.12073196 0.24065994 0.08721362
-0.031183833 0.008250561 0.08388347 -0.077494845 -0.097666234 -0.11925327 0.048815805 0.12318693
-0.053878564 0.10799092 0.086348094 -0.1462664 -0.042774003 0.060595367 -0.047995236 0.00067008403
0.043051597 -0.08957972 0.026702646 -0.08052157 -0.17375626 0.11676777 0.23629983 0.09103145
-0.3227115 -0.0795238 0.066282935 -0.017189303 -0.2704564 0.052515917 0.08308254 -0.02308141
0.04899371 -0.092485 -0.105828226 0.12329602 0.024296079 0.098259844 -0.16010019 -0.18094923
-0.0707777 -0.036317885 -0.15774792 0.070363514 0.01579131 -0.14876835 -0.040141895 -0.23478253
0.17458786 0.058860056 0.044626568 -0.021646013 -0.019037992 0.16166532 -0.052573748 0.05190649
-0.02122551 0.10688352 -0.22350423 -0.18883887 -0.1409418 0.09847405 -0.07277349 0.15392193
-0.06238454 -0.0026722387 0.036614828 0.008236735 0.0023989577 0.07074613 0.21403494 -0.01694976
-0.014327428 -0.025322625 -0.0596664 -0.07863083 -0.13060729 0.039144102 0.051058337 -0.06216979
-0.11259186 -0.09463735 0.13394403 0.059787273 -0.037892766 -0.1737532 -0.035417672 -0.011733244
0.047418248 0.23762308 -0.0076486142 -0.039940525 0.04480337 -0.14789706 -0.21937455 -0.1893896
-0.06778325 0.05898141 0.27639148 0.058188014 0.014407128 -0.015387241 0.11996451 0.19038475

network_body.vector_processors.0.normalizer.running_mean f4 [29]
00000000: e04a ac3e dbcf 4b3d 5ef9 353c 5c0c 063f
00000010: 272d 323f 4fd4 973e dab0 6d3d a7b7 343c
00000020: 568f 043f d6a2 423f 565d 9e3e a356 a03d
00000030: bd44 223c 7c38 053f d73d 333f 3217 883e
00000040: 6a0a d63d 3722 343c 7970 043f 5d28 423f
00000050: 3217 883e f908 d63d 3722 343c 7970 043f
00000060: 7528 423f 72ff 45c5 f58a 8345 74da 11bf
00000070: 280f 7d3e
0.33650875 0.049758773 0.011106817 0.5236261 0.69600147 0.29654166 0.058029987 0.011030114
0.51781213 0.7602972 0.30930585 0.07829025 0.009904084 0.52039313 0.70016235 0.26580197
0.10451205 0.010994486 0.5173412 0.7584284 0.26580197 0.1045093 0.010994486 0.5173412
0.7584298 -3167.9653 4209.3696 -0.5697396 0.24712813
