Assets/Models/Scena3/22Gen/iRobot 1.onnx (onnx, 86672 bytes, 8 tensors)

58 f4 [29]
0.48302078 0.35813504 0.18794473 0.24886507 0.3345808 0.49932176 0.38452306 0.16708435
0.30375838 0.34685916 0.4830905 0.35466212 0.16047046 0.3202732 0.34821755 0.49904075
0.34716687 0.14449477 0.30661345 0.3332083 0.49904075 0.34716687 0.14449477 0.30661345
0.33320826 29.080822 23.442318 6.1348476 4.236742
00000000: 804e f73e 7a5d b73e 9574 403e 7cd6 7e3e
00000010: 2d4e ab3e 1aa7 ff3e 35e0 c43e 2918 2b3e
00000020: 3886 9b3e 8697 b13e a357 f73e 4696 b53e
00000030: 5e52 243e d9fa a33e 9249 b23e 4582 ff3e
00000040: dbbf b13e 70f6 133e 70fc 9c3e 479a aa3e
00000050: 4582 ff3e dbbf b13e 70f6 133e 70fc 9c3e
00000060: 469a aa3e 86a5 e841 de89 bb41 ac50 c440
00000070: 6493 8740

action_model._discrete_distribution.branches.0.bias f4 [5]
-0.09768249 0.037923582 0.10807582 -0.15754154 0.048336998
00000000: c20d c8bd c255 1b3d db56 dd3d 9252 21be
00000010: 04fd 453d

action_model._discrete_distribution.branches.0.weight f4 [5, 128]
-0.00262967 0.02194917 -0.024747139 0.099153 -0.019512955 0.04183341 0.103971936 0.09546767
-0.07426721 -0.1057057 0.14083715 0.08667712 0.025473401 0.044453766 0.010313688 -0.11015246
-0.0007202113 -0.018714951 0.05981732 -0.038774792 0.13714069 0.049688477 -0.009312435 -0.06974285
-0.04164682 0.032782346 0.136718 -0.051738214 0.12336497 0.06365108 0.040954635 0.0024943775
-0.08266454 0.05701722 0.03968034 0.00031064826 -0.03970716 -0.021044776 -0.013755651 -0.063794546
0.03751945 -0.0067708874 0.022404114 0.00024060142 -0.06989268 0.01950717 -0.04007181 -0.034506727
-0.011194767 0.023429297 -0.044945683 0.05780567 0.08120348 -0.13938908 -0.024195816 0.012514014
0.003153182 0.026122192 0.09667571 0.025780294 -0.07211992 -0.016847437 0.04892805 0.00012583188
0.029888261 0.018584521 0.0064011174 0.0437211 -0.02799197 -0.07680652 0.08660577 0.013540204
-0.04650894 0.091756456 0.050760023 0.021294925 -0.04979403 0.13838866 0.068824 0.07429345
0.14017916 0.069527686 0.1367379 -0.02186728 0.0038335072 0.04745644 -0.11022466 0.08330667
0.023480702 -0.026949571 -0.020643927 0.09030715 0.04447268 -0.00089676277 0.033981193 0.033191744
0.002020147 -0.087696366 -0.027948579 -0.16598463 0.010843965 0.088717625 -0.05073515 -0.034697503
-0.007484875 -0.02634911 0.12004049 0.036146637 -0.03960403 -0.046514235 0.037215967 -0.009872199
0.086999126 0.12056773 0.016375346 -0.032022826 0.047992036 0.049385693 0.00938438 -0.08084188
-0.08559429 0.07338848 -0.0060883826 -0.05206786 -0.03178461 -0.06849095 0.077380195 0.098493844
0.017603204 0.1233197 -0.007834746 0.16091315 0.03807282 0.025936298 0.038550455 -0.097409934
0.08706077 -0.014321646 -0.016060129 -0.20315883 0.018776722 0.032293633 -0.1024923 -0.031766098
-0.08217938 0.12770197 0.14174423 0.07079303 -0.0299077 -0.09535298 -0.071904294 -0.11676762
0.15513366 0.107957095 -0.114922024 0.06907063 0.034422606 -0.054044817 -0.0090413485 0.058472265
0.06087506 0.17077425 0.092442006 0.09315607 -0.02545038 -0.04321723 0.014268697 0.11058604
0.0085026035 -0.09008208 0.08172217 -0.10964025 0.010701526 -0.09578414 -0.008686748 0.0768199
-0.17983599 -0.0760839 -0.10593121 0.09439492 -0.18121827 0.07634601 0.037853498 0.022280341
-0.25770953 -0.05232162 0.04885025 -0.008902115 -0.1360753 0.08943351 0.0022100594 0.08304306
-0.06509075 -0.01149003 -0.03061267 0.05204356 -0.038728636 -0.08188061 -0.09381553 -0.0059640803
0.14281845 -0.06253656 -0.020593137 -0.14165768 0.021236205 0.11141173 -0.15118621 -0.12215442
-0.042360786 -0.20221782 -0.052013017 0.002767982 -0.12699816 0.06810968 -0.06007566 -0.02351396
-0.012600214 0.105306275 0.0542354 -0.12148698 -0.13248819 0.014088955 -0.1294273 0.07440391
0.19663525 0.0727711 0.014535296 0.049942028 -0.17911041 -0.108294085 0.011553433 0.0005953263
-0.09955056 0.021432696 -0.054574374 -0.12339222 0.08495232 -0.00089725544 -0.07226072 -0.060868174
-0.119089626 0.12355249 -0.0010221321 -0.07249629 0.075843304 -0.14451802 0.07817561 -0.016055021
-0.13160045 -0.055195052 0.078274116 0.10282561 -0.029085537 -0.11788539 -0.16879794 0.029590527
00000000: 8b56 2cbb bfce b33c 83ba cabc ba10 cb3d
00000010: a2d9 9fbc 8259 2b3d 3def d43d 8e84 c33d
00000020: 6819 98bd 3b7c d8bd 9d37 103e c683 b13d
00000030: 98ad d03c 2715 363d befa 283c 9d97 e1bd
00000040: 90cc 3cba 1950 99bc 0203 753d 51d2 1ebd
00000050: 9c6e 0c3e 2586 4b3d 2f93 18bc 57d5 8ebd
00000060: db95 2abd c846 063d ceff 0b3e 73eb 53bd
00000070: c6a6 fc3d 7f5b 823d 0cc0 273d b678 233b
00000080: 074c a9bd e38a 693d da87 223d 81de a239
00000090: faa3 22bd 1866 acbc 625f 61bc b7a6 82bd
000000a0: ffad 193d 52de ddbb d588 b73c f449 7c39
000000b0: e523 8fbd 80cd 9f3c 5722 24bd ed56 0dbd
000000c0: 426a 37bc ccee bf3c f718 38bd a3c5 6c3d
000000d0: 034e a63d 03bc 0ebe 4e36 c6bc 9407 4d3c
000000e0: 9ea5 4e3b 35fe d53c eafd c53d 3231 d33c
000000f0: 9cb3 93bd a303 8abc c768 483d bdf1 0339
00000100: 3ad8 f43c 913e 983c 77c0 d13b e514 333d
00000110: 6a4f e5bc bd4c 9dbd 5e5e b13d bbd7 5d3c
00000120: 2980 3ebd cfea bb3d bee9 4f3d b272 ae3c
00000130: d3f4 4bbd c2b5 0d3e 99f3 8c3d 2a27 983d
00000140: 208b 0f3e 8864 8e3d 0505 0c3e 0323 b3bc
00000150: 943b 7b3b af61 423d 77bd e1bd b09c aa3d
00000160: 9a5a c03c 59c5 dcbc 741d a9bc f4f2 b83d
00000170: fc28 363d bb14 6bba dd2f 0b3d 11f4 073d
00000180: 7164 043b 279a b3bd 6bf4 e4bc e0f7 29be
00000190: e3aa 313c 96b1 b53d a9cf 4fbd f81e 0ebd
000001a0: af43 f5bb 17da d7bc cad7 f53d 7f0e 143d
000001b0: d637 22bd b685 3ebd c56f 183d 01bf 21bc
000001c0: 992c b23d 37ec f63d 9725 863c 5e2a 03bd
000001d0: 4c93 443d a748 4a3d f1c0 193c 6d90 a5bd
000001e0: 0f4c afbd b34c 963d 0e81 c7bb 1c45 55bd
000001f0: 9430 02bd fc44 8cbd 8279 9e3d 24b7 c93d
00000200: 9834 903c 0a8f fc3d 4e5d 00bc 6bc6 243e
00000210: 3ff2 1b3d 5c78 d43c 15e7 1d3d dc7e c7bd
00000220: eb4c b23d 56a5 6abc 8890 83bc de08 50be
00000230: a4d1 993c 5446 043d 7ce7 d1bd 2b1d 02bd
00000240: aa4d a8bd 4ec4 023e 6625 113e f0fb 903d
00000250: fe00 f5bc 6c48 c3bd 8f42 93bd dd23 efbd
00000260: 5cdb 1e3e 9c18 dd3d 3d5c ebbd e774 8d3d
00000270: b8fe 0c3d 195e 5dbd 2a22 14bc 9d80 6f3d
00000280: 2058 793d 72df 2e3e 3c52 bd3d 9cc8 be3d
00000290: 517d d0bc 8d04 31bd 41c7 693c ef7a e23d
000002a0: 814e 0b3c f47c b8bd f45d a73d 118b e0bd
000002b0: 7455 2f3c 7a2a c4bd dd52 0ebc c053 9d3d
000002c0: ed26 38be e0d1 9bbd 76f2 d8bd 2052 c13d
000002d0: 4891 39be 4c5b 9c3d 450c 1b3d 4385 b63c
000002e0: 81f2 83be 324f 56bd 3317 483d 2dda 11bc
000002f0: 5357 0bbe eb28 b73d a5d6 103b 7b12 aa3d
00000300: 4d4e 85bd ae40 3cbc 6cc7 fabc a12b 553d
00000310: eba1 1ebd 05b1 a7bd 5b22 c0bd 556e c3bb
00000320: 003f 123e 2b13 80bd f0b2 a8bc b60e 11be
00000330: 8df7 ad3c d52b e43d 8fd0 1abe 192c fabd
00000340: 8182 2dbd 3012 4fbe 9a0b 55bd 0867 353b
00000350: ce0b 02be 177d 8b3d e511 76bd 59a0 c0bc
00000360: 2171 4ebc d1aa d73d f025 5e3d 2ace f8bd
00000370: fcaa 07be 5cd5 663c 9788 04be 1461 983d
00000380: c05a 493e 0409 953d 7325 6e3c 0390 4c3d
00000390: b868 37be 4ac9 ddbd 9c4a 3d3c ac0f 1c3a
000003a0: 2ae1 cbbd 9f93 af3c 6189 5fbd 0fb5 fcbd
000003b0: 7bfb ad3d cb35 6bba 6efd 93bd e850 79bd
000003c0: 43e5 f3bd 1609 fd3d 10f9 85ba ef78 94bd
000003d0: bc53 9b3d 88fc 13be 891a a03d d285 83bc
000003e0: 45c2 06be 3514 62bd 2e4e a03d 3c96 d23d
000003f0: cb44 eebc e56d f1bd 5ed9 2cbe d567 f23c

network_body.linear_encoder.seq_layers.0.bias f4 [128]
0.064880565 0.06897844 0.019468516 0.07483041 -0.015809985 -0.007408929 0.026626034 -0.027273605
0.06956649 0.10043302 -0.039944228 -0.020577645 0.076646656 0.043601837 -0.029334318 0.12722874
0.15173344 0.14812207 0.1183667 0.09634968 0.08786173 0.02498323 -0.0433465 0.035805117
-0.046375174 0.002708011 0.12444746 0.09970036 0.0931455 -0.003702118 0.06602685 0.07893456
0.13250169 0.051124 0.1006508 0.12013842 0.027999505 -0.04737672 0.10202127 0.15420128
0.047769718 0.115807846 0.043334138 0.008971578 0.14180857 0.12096879 0.112207785 0.010553789
0.11553134 0.051312834 0.04930852 0.050559506 0.0424471 -0.033637524 0.07445362 0.07193646
0.100909695 0.007331836 -0.025488773 0.02575346 -0.05963277 -0.009190739 0.083843276 0.053329475
0.086888425 0.01897795 0.13058473 -0.06199213 0.116433494 0.014546107 0.046812076 0.009222254
0.04095268 -0.031200271 -0.0001568489 -0.050091423 0.10696978 0.10697605 0.080156125 0.08602871
0.049827445 -0.0069788583 0.10481234 0.07073261 0.02341507 -0.035660207 0.005572548 0.06460818
0.09570648 0.11015378 -0.0098536145 -0.1355347 -0.03297017 0.069066696 0.07461263 0.14959018
0.089666456 0.10529987 0.115567446 0.08572035 -0.008080275 0.048343863 0.069279626 0.015996551
0.078652024 0.059130438 0.034704223 0.07172669 -0.027372058 0.13468401 -0.01409072 0.1257734
0.093721494 -0.038055226 0.020421833 0.090648405 0.015488583 0.06590028 -0.0096739605 0.020315051
0.091019005 0.01736908 0.08672296 -0.061912972 0.009453546 0.011264103 0.04762907 0.054710206
00000000: 1ae0 843d 9144 8d3d 707c 9f3c b040 993d
00000010: f183 81bc 9ac6 f2bb d71e da3c e56c dfbc
00000020: e078 8e3d d4af cd3d 8f9c 23bd 7392 a8bc
00000030: ecf8 9c3d d797 323d 864e f0bc 4048 023e
00000040: 0360 1b3e 50ad 173e 3e6a f23d fb52 c53d
00000050: daf0 b33d a1a9 cc3c 198c 31bd 63a8 123d
00000060: e5f3 3dbd e378 313b 4fde fe3d b42f cc3d
00000070: 11c3 be3d 3c9f 72bb 1639 873d 71a8 a13d
00000080: 86ae 073e 6667 513d 0222 ce3d 220b f63d
00000090: 385f e53c 170e 42bd 87f0 d03d f1e6 1d3e
000000a0: 2eaa 433d aa2c ed3d 237f 313d 87fd 123c
000000b0: 4436 113e 7cbe f73d 32cd e53d cde9 2c3c
000000c0: b29b ec3d 682d 523d bbf7 493d 7c17 4f3d
000000d0: 03dd 2d3d 80c7 09bd 247b 983d 6c53 933d
000000e0: bea9 ce3d e63f f03b d5cd d0bc ecf8 d23c
000000f0: 7e41 74bd c194 16bc 06b6 ab3d 0270 5a3d
00000100: 8ff2 b13d a577 9b3c 01b8 053e 76eb 7dbd
00000110: af74 ee3d cb52 6e3c 05be 3f3d f018 173c
00000120: ffbd 273d b697 ffbc ce77 24b9 aa2c 4dbd
00000130: f912 db3d 4216 db3d e528 a43d d22f b03d
00000140: dd17 4c3d e8ae e4bb daa7 d63d 42dc 903d
00000150: f6d0 bf3c 7010 12bd ec99 b63b 4b51 843d
00000160: c201 c43d 4e98 e13d 0e71 21bc 9cc9 0abe
00000170: bb0b 07bd d772 8d3d 82ce 983d 2b2e 193e
00000180: 0ca3 b73d 75a7 d73d a0ae ec3d 278e af3d
00000190: 2163 04bc 3704 463d 7ae2 8d3d 330b 833c
000001a0: 5014 a13d c232 723d 0426 0e3d 71e5 923d
000001b0: 5e3b e0bc 9bea 093e c3dc 66bc beca 003e
000001c0: 0ef1 bf3d ccdf 1bbd b04b a73c dfa5 b93d
000001d0: d3c3 7d3c baf6 863d 887f 1ebc c06b a63c
000001e0: 2c68 ba3d 9a49 8e3c cf9b b13d 7598 7dbd
000001f0: 0ce3 1a3c 138d 383c b316 433d cf17 603d

network_body.linear_encoder.seq_layers.0.weight f4 [128, 29]
0.17877981 -0.32205427 -0.19960938 0.111227095 0.07943621 0.27982938 0.26244012 0.29329544
-0.53000766 0.20898011 -0.0177378 -0.28698456 0.18253192 0.00089955895 -0.14889452 0.3669642
-0.09241465 -0.56058323 0.039562974 0.20596057 0.18793169 0.14849596 -0.29516244 -0.019264977
0.4156543 0.417442 -0.19950083 0.06316662 -0.30680713 -0.065979205 0.23724492 -0.34722105
0.3291785 -0.074727416 0.07324519 -0.02511813 0.14487529 -0.019473067 0.08330392 -0.15832424
0.25428873 -0.13254508 -0.3578896 -0.1990642 0.49578345 0.410367 -0.16813219 -0.24110153
0.37932736 0.4320578 -0.16966276 -0.103202656 0.108702324 0.097291656 0.19614865 -0.07893868
0.091812596 0.17644952 -0.06314357 -0.53869754 -0.26545134 0.26199538 0.110070325 0.5302791
0.43882397 -0.17062846 0.09461607 0.09120599 -0.10665128 0.0643674 -0.030387681 0.1433171
-0.5247993 -0.2455239 0.23593825 -0.07329044 0.17606826 -0.02980792 0.01605447 0.14425883
-0.036601268 0.15022796 -0.46575183 0.014235002 -0.15043491 -0.17193668 0.26173913 -0.40739506
-0.37556422 -0.48023885 0.45950925 0.18282 -0.05051996 0.3158545 -0.20503376 0.24363929
0.25563726 0.1986387 -0.33088323 -0.0071839644 -0.09452767 -0.13025019 -0.034100577 0.47003946
-0.2779651 0.24532922 -0.1953333 -0.39735654 0.07933224 0.21811043 -0.2525276 -0.12633744
-0.10815975 -0.4500902 0.08000229 -0.16666846 -0.0028505253 0.28094244 0.12658761 -0.011919949
-0.31038445 0.00026017582 -0.011768527 0.14178324 0.035088476 -0.32532918 -0.25979257 -0.12087068
0.27582386 0.30187467 0.22659501 0.39888287 -0.14138097 0.05427799 -0.047084536 -0.063493714
0.16714805 0.021497602 0.30136502 0.14912532 -0.3696421 -0.21062382 0.12160064 -0.32179913
-0.23121604 0.027217383 0.0869423 0.51229185 0.12575893 0.113433704 0.10045933 0.02487665
-0.06421609 -0.24345832 0.26643625 -0.03218418 -0.08908167 0.15273844 0.07794706 0.23100016
0.311615 0.14230746 0.17299518 -0.2979383 -0.055553272 -0.33398378 0.42628872 -0.16963954
0.0911118 0.1976897 0.009296929 -0.17259452 -0.14421839 0.65758854 0.042524055 0.059708938
-0.35073924 0.42788604 0.32739523 0.32089403 -0.036740765 -0.18191697 -0.07034888 -0.15939784
0.13969687 0.009699965 -0.017448893 -0.3477454 0.12553123 0.014527375 -0.09756588 -0.045783166
0.21996702 -0.111122966 0.1575771 -0.034036733 0.11575443 0.18398817 -0.43697777 -0.12382778
-0.63115144 0.26400325 0.32984388 0.018400973 -0.2133665 0.10163434 -0.16730575 0.19934289
0.13339612 0.16937064 0.36861986 0.058198493 0.2537482 0.22649111 -0.14871107 -0.5506421
-0.03792372 -0.07493033 0.16252705 -0.22644657 -0.098336235 -0.20003152 0.16749617 0.060584106
0.14660545 0.27454236 0.014259256 -0.12852287 -0.08753134 -0.14782739 0.32679152 0.41474375
-0.096468344 -0.22068109 -0.6396412 -0.0968785 -0.06299441 -0.11170913 0.0054053813 -0.121705204
-0.16076162 -0.14905845 0.13245279 0.037263125 0.11900464 -0.6313078 0.17135169 -0.032919098
0.37652382 0.074207455 -0.3523002 0.2333717 -0.14074866 0.36037165 -0.21664698 -0.21157715
00000000: 0e12 373e 4ce4 a4be 6766 4cbe 08cb e33d
00000010: 74af a23d cc45 8f3e 8d5e 863e d22a 963e
00000020: 95ae 07bf e2fe 553e dd4e 91bc a4ef 92be
00000030: a6e9 3a3e 61d0 6b3a ce77 18be bbe2 bb3e
00000040: e443 bdbd 6282 0fbf c90c 223d 54e7 523e
00000050: 2a71 403e 530f 183e 881f 97be 96d1 9dbc
00000060: a4d0 d43e f5ba d53e f249 4cbe 805d 813d
00000070: d315 9dbe 1b20 87bd 55f0 723e f5c6 b1be
00000080: 168a a83e b00a 99bd 9301 963d 89c4 cdbc
00000090: 305a 143e fb85 9fbc 3f9b aa3d c01f 22be
000000a0: 2232 823e e6b9 07be 4e3d b7be 7cd7 4bbe
000000b0: 54d7 fd3e a01b d23e d82a 2cbe 52e3 76be
000000c0: 3237 c23e ae36 dd3e 13bc 2dbe ea5b d3bd
000000d0: 539f de3d d940 c73d 31db 483e 9aaa a1bd
000000e0: 3e08 bc3d 2faf 343e 6b51 81bd 15e8 09bf
000000f0: 3de9 87be 4224 863e 8d6c e13d 5fc0 073f
00000100: 89ad e03e 3ab9 2ebe 12c6 c13d 35ca ba3d
00000110: fc6b dabd 0ed3 833d 96ef f8bc b8c1 123e
00000120: 3f59 06bf 9e6a 7bbe cc99 713e 4c19 96bd
00000130: 3d4b 343e bd2f f4bc aa84 833c 96b8 133e
00000140: 36eb 15bd 5cd5 193e 0677 eebe ed39 693c
00000150: 9c0b 1abe 2b10 30be ac02 863e 1696 d0be
00000160: f449 c0be dee1 f5be cc44 eb3e 2b35 3b3e
00000170: 04ee 4ebd aeb7 a13e 5ff4 51be 947c 793e
00000180: e3e2 823e f267 4b3e 8769 a9be 7667 ebbb
00000190: b997 c1bd 4e60 05be 0cad 0bbd 03a9 f03e
000001a0: 7151 8ebe 9537 7b3e 7405 48be 5172 cbbe
000001b0: f178 a23d 5758 5f3e 4c4b 81be 9a5e 01be
000001c0: dc82 ddbd 3972 e6be 3ed8 a33d 23ab 2abe
000001d0: e1cf 3abb b0d7 8f3e 2fa0 013e e44b 43bc
000001e0: b6ea 9ebe 3568 8839 c8d0 40bc a02f 113e
000001f0: efb8 0f3d 8c91 a6be 8803 85be 0c8b f7bd
00000200: c938 8d3e 518f 9a3e 8608 683e 603a cc3e
00000210: 2cc6 10be 9952 5e3d b7db 40bd fe08 82bd
00000220: dc28 2b3e bd1b b03c 844c 9a3e 4fb4 183e
00000230: bb41 bdbe c5ad 57be c209 f93d dbc2 a4be
00000240: e6c3 6cbe fdf6 de3c ce0e b23d 8f25 033f
00000250: f3c6 003e ee4f e83d 9fbd cd3d 1eca cb3c
00000260: ba83 83bd 234d 79be 556a 883e 8fd3 03bd
00000270: 7370 b6bd 7767 1c3e b5a2 9f3d 4e8b 6c3e
00000280: 008c 9f3e 0cb9 113e a625 313e 5e8b 98be
00000290: d48b 63bd ecff aabe 8442 da3e fdb5 2dbe
000002a0: d398 ba3d 2b6f 4a3e 2652 183c 9ebc 30be
000002b0: fcad 13be b957 283f b42d 2e3d 5c91 743d
000002c0: 1894 b3be e113 db3e 59a0 a73e 394c a43e
000002d0: 7c7d 16bd 7148 3abe 1313 90bd 3039 23be
000002e0: b20c 0f3e 9aec 1e3c fbf0 8ebc af0b b2be
000002f0: 428b 003e 3a04 6e3c 9fd0 c7bd 2187 3bbd
00000300: 093f 613e 7094 e3bd e45b 213e 1a6a 0bbd
00000310: a910 ed3d 6567 3c3e 8dbb dfbe 6b99 fdbd
00000320: 2493 21bf 6f2b 873e 4ce1 a83e a3bd 963c
00000330: bf7c 5abe aa25 d03d 3352 2bbe 8b20 4c3e
00000340: fe98 083e 7f6f 2d3e bebb bc3e 8b61 6e3d
00000350: 49eb 813e 49ed 673e b747 18be e1f6 0cbf
00000360: e755 1bbd 1375 99bd 7e6d 263e 9ce1 67be
00000370: 8264 c9bd 10d5 4cbe 1e84 2b3e 0a27 783d
00000380: bd1f 163e d190 8c3e a89f 693c 809b 03be
00000390: a243 b3bd 1060 17be 3851 a73e 4b59 d43e
000003a0: 3291 c5bd 39fa 61be 87bf 23bf 3c68 c6bd
000003b0: 3703 81bd c2c7 e4bd a01f b13b 9440 f9bd
000003c0: b29e 24be c7a2 18be b4a1 073e 38a1 183d
000003d0: b4b8 f33d 639d 21bf d176 2f3e 2dd6 06bd
000003e0: bbc7 c03e 14fa 973d b160 b4be fef8 6e3e
000003f0: 6b20 10be a282 b83e b5d8 5dbe aea7 58be

network_body.linear_encoder.seq_layers.2.bias f4 [128]
0.03136805 0.04647398 -0.0021102813 0.0341297 -0.0004900596 -0.030962368 -0.10189265 -0.1019092
0.11005533 0.089491285 -0.11338545 0.0024959666 -0.05152471 -0.09244666 0.046366632 0.09820671
0.08258529 -0.011395308 0.014763474 0.03726873 -0.12154724 -0.09045293 -0.037595022 -0.12872468
-0.038809307 -0.10963613 -0.00087899057 0.09047836 -0.090848096 -0.011131354 -0.042625934 0.045667157
0.013935886 -0.06426677 -0.013108412 -0.07513513 -0.09264172 0.058915492 0.059831295 -0.016960725
0.02007714 0.08634738 -0.019506218 0.04965451 -0.0004776348 0.02091014 -0.028474037 -0.0110363625
0.0026382874 -0.008378514 0.0047604176 0.025096202 0.0074782097 0.08627883 -0.0029958538 -0.065361634
0.026793493 -0.1257454 -0.05689843 0.04007379 0.098719165 -0.13690805 0.015375383 -0.030201579
0.017368516 -0.08794753 0.0125824865 0.013926522 0.059472214 0.10419867 -0.08902103 0.07999884
-0.029855648 -0.12677509 -0.11858078 -0.014576141 0.06123159 0.09782855 -0.06595237 -0.019865317
-0.08063506 -0.07183996 -0.026767729 -0.0046589263 0.044233944 0.033956602 -0.024466734 -0.12252975
-0.0706115 0.037196554 -0.0907424 -0.09686185 -0.06548768 0.02603901 -0.020334834 -0.010278866
0.029698784 -0.029231183 0.08432915 -0.034432378 -0.07779468 0.004497493 0.031783752 -0.06834362
0.08324546 0.0052225566 -0.048804484 -0.036438033 0.03381187 0.017468004 0.05283802 0.008902752
-0.069927 -0.1380409 0.07079263 -0.041847143 -0.016122855 0.018450502 -0.06307676 -0.061911505
0.014931649 -0.06298616 -0.03543572 0.016685225 -0.02460936 0.10834576 0.08624248 -0.052179657
00000000: c97b 003d 805b 3e3d a54c 0abb 96cb 0b3d
00000010: 5877 00ba cba4 fdbc 18ad d0bd c5b5 d0bd
00000020: b064 e13d 3547 b73d a136 e8bd 5f93 233b
00000030: 930b 53bd ad54 bdbd f0ea 3d3d 9920 c93d
00000040: 7a22 a93d 63b3 3abc 80e2 713c 19a7 183d
00000050: c2ed f8bd 633f b9bd 3dfd 19bd 67d0 03be
00000060: 82f6 1ebd e888 e0bd 0f6c 66ba b84c b93d
00000070: 910e babd 4860 36bc 8898 2ebd 7c0d 3b3d
00000080: 5853 643c 4c9e 83bd aac4 56bc 72e0 99bd
00000090: f1ba bdbd 5f51 713d a911 753d 38f1 8abc
000000a0: d078 a43c e5d6 b03d 81cb 9fbc 8762 4b3d
000000b0: 0f6b fab9 be4b ab3c 6242 e9bc dcd1 34bc
000000c0: 1ee7 2c3b 0946 09bc 47fd 9b3b 8d96 cd3c
000000d0: c50b f53b f5b2 b03d 1656 44bb 52dc 85bd
000000e0: 077e db3c 67c3 00be 540e 69bd 6a24 243d
000000f0: 462d ca3d a031 0cbe 08e9 7b3c 4d69 f7bc
00000100: 6b48 8e3c d61d b4bd c626 4e3c 112c 643c
00000110: 2399 733d 1d66 d53d a850 b6bd 6fd6 a33d
00000120: d593 f4bc 54d1 01be 7bda f2bd c4d0 6ebc
00000130: facd 7a3d 565a c83d 0912 87bd 97bc a2bc
00000140: ff23 a5bd d420 93bd ff47 dbbc e8a9 98bb
00000150: a72e 353d 1416 0b3d 766e c8bc e1f0 fabd
00000160: c39c 90bd 6a5b 183d 27d7 b9bd 815f c6bd
00000170: 681e 86bd c34f d53c 3d95 a6bc b068 28bc
00000180: dd4a f33c 3c76 efbc c3b4 ac3d f708 0dbd
00000190: d152 9fbd b55f 933b ae2f 023d bdf7 8bbd
000001a0: 997c aa3d fb21 ab3b 36e7 47bd 0c40 15bd
000001b0: 517e 0a3d 0f19 8f3c ae6c 583d d9dc 113c
000001c0: e335 8fbd 985a 0dbe bafb 903d e967 2bbd
000001d0: 1414 84bc 8225 973c 632e 81bd eb96 7dbd
000001e0: e0a3 743c e3fe 80bd 0c25 11bd 74af 883c
000001f0: 9299 c9bc 62e4 dd3d e69f b03d 56ba 55bd

network_body.linear_encoder.seq_layers.2.weight f4 [128, 128]
0.10585552 0.060578693 -0.1554396 -0.041518338 0.11308916 -0.109337375 -0.13696824 -0.10356587
0.19711009 -0.14745224 0.13563372 0.011163946 -0.075810276 -0.012431215 -0.33198774 0.035645656
-0.09384107 0.075479396 -0.02251715 -0.0746432 -0.051593423 -0.117628984 0.25223875 -0.17615438
-0.15746106 0.18465206 -0.033826478 -0.0025046496 -0.37355146 0.0433744 0.04067872 -0.17233273
0.081059396 -0.016491331 0.12764533 0.1686282 -0.12614591 -0.08561283 0.08713518 0.09334013
-0.20025977 -5.8065693e-06 -0.21785706 0.10954806 -0.21167554 -0.45996985 0.09888983 -0.15442091
0.06422446 0.042672787 0.04804257 0.21749601 0.064760156 0.13173112 -0.17887919 0.16781852
0.15829413 0.009942279 -0.009886043 0.010368815 0.13374242 -0.108747594 0.118564114 0.06318023
-0.04233006 -0.3277098 0.15196492 -0.06339446 0.08915519 -0.1100741 0.03123406 0.13655008
0.09821951 -0.14869048 -0.24638614 0.18998778 0.056397893 -0.2295966 -0.051512323 0.014103863
0.042956676 -0.15091409 -0.040379304 -0.16099174 0.16391692 0.010006614 0.046741974 -0.012538008
0.1582832 0.10955913 -0.018021252 -0.07271329 -0.012059624 -0.21924327 -0.19803497 -0.11515726
0.097756065 -0.026321093 0.05305882 -0.0087973755 -0.35824335 0.27012435 -0.12931958 0.13025595
-0.06930167 0.07274716 -0.16548388 0.07063819 0.12694015 -0.16277853 0.017583618 0.11411123
-0.037762877 -0.018992009 0.088065475 -0.22341278 -0.018573059 -0.23379809 -0.074800864 -0.08774622
0.25494543 -0.078924865 -0.04917782 0.039529152 -0.010703782 -0.07855387 0.0840675 0.027025582
0.06572722 -0.2951989 0.0010553845 0.06434141 -0.012523914 -0.16927314 0.011848055 -0.081384495
-0.085308746 0.07026625 -0.018994616 0.17168912 -0.115882784 0.20350206 -0.21628803 -0.25840476
-0.15029655 -0.12650985 0.014235737 -0.00501457 -0.0149046695 -0.19205418 -0.041720543 -0.08265202
0.07983148 0.084428824 -0.04792544 -0.2454454 -0.10002541 0.24115556 0.1781506 0.037603505
-0.12316855 -0.06720575 -0.19841845 -0.0082624415 -0.101301834 0.022620419 -0.3881353 -0.108797796
0.12536365 -0.16565941 0.1294753 -0.323201 0.03371608 -0.19779141 0.06135404 0.006447321
0.2219833 -0.0023088579 -0.08832785 -0.053665265 0.007048727 0.11773557 0.12327935 0.07779145
-0.06746011 -0.033864725 -0.12796646 0.13035998 0.21081445 0.117875375 -0.008975471 -0.15028383
0.19605403 0.03838287 -0.08395366 -0.014976785 0.12404992 0.098325446 -0.030617004 -0.015784599
0.016726794 0.05100927 0.0040639224 0.04887448 -0.12224761 0.13898306 0.0061668823 0.15801083
-0.095446646 0.04698013 0.036557563 -0.043171942 0.12257614 0.038041998 0.20062841 0.07656736
-0.14551763 0.105179586 -0.27687976 -0.18263464 -0.24062715 -0.07148406 0.13684124 0.1457591
-0.041161206 0.019862419 -0.018317813 0.029948724 0.042567614 0.32415557 -0.18180227 -0.008234082
-0.24102366 -0.08035361 -0.12223546 -0.50493157 0.114400506 -0.14275363 -0.0032501891 -0.20799807
-0.04003606 0.06859439 0.036543 -0.011059404 0.051815674 0.1849164 -0.0025626917 0.028736155
0.11378387 0.045651097 0.0022358305 0.12480774 -0.087400876 -0.08701727 0.016002972 -0.03577214
00000000: c7ca d83d 5d21 783d 8f2b 1fbe 220f 2abd
00000010: 4a9b e73d 46ec dfbd 6741 0cbe 581a d4bd
00000020: 3ad7 493e b8fd 16be 91e3 0a3e fce8 363c
00000030: 6b42 9bbd 4bac 4bbc 4cfa a9be 2e01 123d
00000040: bf2f c0bd f194 9a3d e375 b8bc 89de 98bd
00000050: a053 53bd 77e7 f0bd 7025 813e d061 34be
00000060: 793d 21be 6e15 3d3e a28d 0abd 0c25 24bb
00000070: 2342 bfbe 5ba9 313d bb9e 263d fe77 30be
00000080: 7802 a63d d418 87bc 75b5 023e dfac 2c3e
00000090: 652c 01be c855 afbd ee73 b23d 1c29 bf3d
000000a0: e610 4dbe 0dd6 c2b6 ec15 5fbe bc5a e03d
000000b0: 79c1 58be 2b81 ebbe c086 ca3d 8420 1ebe
000000c0: 1d88 833d a9c9 2e3d 49c8 443d 46b7 5e3e
000000d0: f9a0 843d 86e4 063e 1b2c 37be 9ed8 2b3e
000000e0: db17 223e f1e4 223c 12f9 21bc f6e1 293c
000000f0: c6f3 083e 0fb7 debd bed1 f23d a364 813d
00000100: 4962 2dbd 94c9 a7be b19c 1b3e f4d4 81bd
00000110: ff96 b63d 886e e1bd 92de ff3c c9d3 0b3e
00000120: 4f27 c93d 5142 18be a64c 7cbe 288c 423e
00000130: 7a01 673d 5f1b 6bbe 96fe 52bd e413 673c
00000140: 57f3 2f3d 3989 1abe c564 25bd 05db 24be
00000150: d6d9 273e c8f2 233c 8374 3f3d 386c 4dbc
00000160: fe14 223e 8a60 e03d 4ea1 93bc b5ea 94bd
00000170: bb95 45bc 4f81 60be aec9 4abe 92d7 ebbd
00000180: 5534 c83d 559f d7bc 3554 593d de22 10bc
00000190: ac6b b7be bd4d 8a3e 5a6c 04be d161 053e
000001a0: 09ee 8dbd 77fc 943d 9b74 29be c1aa 903d
000001b0: 99fc 013e 6aaf 26be 850b 903c 26b3 e93d
000001c0: 3fad 1abd 2195 9bbc ac5b b43d 52c6 64be
000001d0: 8726 98bc c468 6fbe 3231 99bd 4ab4 b3bd
000001e0: 3588 823e 5ca3 a1bd af6e 49bd 52e9 213d
000001f0: ea5e 2fbc dae0 a0bd 952b ac3d c164 dd3c
00000200: fe9b 863d 4f24 97be d454 8a3a 6ec5 833d
00000210: 1a31 4dbc f055 2dbe 581e 423c eaac a6bd
00000220: 5ab6 aebd c0e7 8f3d 999a 9bbc 46cf 2f3e
00000230: f453 edbd d862 503e 9c7a 5dbe a14d 84be
00000240: 57e7 19be cc8b 01be 023d 693c 4351 a4bb
00000250: b732 74bc daa9 44be 29e3 2abd 7645 a9bd
00000260: b07e a33d 05e9 ac3d 774d 44bd 0a56 7bbe
00000270: 1fda ccbd 7cf1 763e 1c6d 363e 2206 1a3d
00000280: cb3f fcbd 2ba3 89bd 352e 4bbe 315f 07bc
00000290: 5677 cfbd 754e b93c acb9 c6be 61d1 debd
000002a0: 545f 003e 9fa2 29be 2c95 043e 9a7a a5be
000002b0: df19 0a3d d589 4abe 604e 7b3d 0c44 d33b
000002c0: 974f 633e 3550 17bb 3be5 b4bd 1cd0 5bbd
000002d0: 02f9 e63b 591f f13d e279 fc3d 2051 9f3d
000002e0: 8728 8abd bdb5 0abd a409 03be 167d 053e
000002f0: bedf 573e a568 f13d db0d 13bc 01e4 19be
00000300: 63c2 483e 5b37 1d3d e6ef abbd 3061 75bc
00000310: e20d fe3d da5e c93d 83d0 fabc b44e 81bc
00000320: a106 893c 19ef 503d a72a 853b 9b30 483d
00000330: f45c fabd 9351 0e3e 8f13 ca3b 97cd 213e
00000340: 8879 c3bd 3d6e 403d 62bd 153d 10d5 30bd
00000350: 3309 fb3d edd1 1b3d 8971 4d3e 59cf 9c3d
00000360: 9302 15be 6568 d73d 2fc3 8dbe 9304 3bbe
00000370: f766 76be 3c66 92bd 1c20 0c3e e041 153e
00000380: a798 28bd 83b6 a23c 3d0f 96bc 0757 f53c
00000390: 615b 2e3d b8f7 a53e 602a 3abe 3ee8 06bc
000003a0: e8ce 76be 6f90 a4bd 9656 fabd 3243 01bf
000003b0: d04a ea3d 022e 12be 2001 55bb 72fd 54be
000003c0: dafc 23bd 377b 8c3d 1dae 153d 8132 35bc
000003d0: ac3c 543d ba5a 3d3e d5f2 27bb 1668 eb3c
000003e0: 8507 e93d a5fc 3a3d 0387 123b 339b ff3d
000003f0: 3bff b2bd 1c36 b2bd aa18 833c cf85 12bd

network_body.vector_processors.0.normalizer.running_mean f4 [29]
0.6291967 0.1510873 0.036666885 0.06633296 0.5326675 0.4739484 0.18040234 0.028742518
0.102845564 0.6203717 0.6289367 0.14755733 0.026449582 0.11603927 0.41077313 0.53096956
0.14017236 0.021333054 0.10504562 0.6062419 0.53096956 0.14017236 0.021333054 0.10504562
0.60624194 48.21979 38.290123 -0.009754212 -0.00012042675
00000000: 0913 213f a1b6 1a3e 0430 163d 93d9 873d
00000010: e65c 083f 5da9 f23e 64bb 383e 6e75 eb3c
00000020: b2a0 d23d aed0 1e3f ff01 213f 4519 173e
00000030: cbac d83c ffa5 ed3d db50 d23e 9fed 073f
00000040: 5889 0f3e a8c2 ae3c 2822 d73d ab32 1b3f
00000050: 9fed 073f 5889 0f3e a8c2 ae3c 2822 d73d
00000060: ac32 1b3f 11e1 4042 1629 1942 21d0 1fbc
00000070: 9e8d fcb8
