Assets/Models/Scena3/22Gen/iRobot 2.onnx (onnx, 86672 bytes, 8 tensors)

58 f4 [29]
0	0x3ef7b6c5	0.4838163
1	0x3eb839d5	0.35981622
2	0x3e3fc663	0.18728022
3	0x3e802b13	0.25032863
4	0x3eabba7d	0.33540717
5	0x3effae5b	0.4993771
6	0x3ec4f637	0.38469097
7	0x3e2bf493	0.16792516
8	0x3e9c65f7	0.30546543
9	0x3eb1ec08	0.3475039
10	0x3ef7c5e2	0.4839316
11	0x3eb663bc	0.35622966
12	0x3e24f0b5	0.16107447
13	0x3ea4e18c	0.3220333
14	0x3eb29f4b	0.34887156
15	0x3eff79d9	0.4989765
16	0x3eb29f23	0.34887037
17	0x3e14b076	0.1452044
18	0x3e9dddb7	0.30833218
19	0x3eab2a0d	0.3343052
20	0x3eff79d9	0.4989765
21	0x3eb29f23	0.34887037
22	0x3e14b076	0.1452044
23	0x3e9dddb7	0.30833218
24	0x3eab2a0c	0.33430517
25	0x41e94dfb	29.163076
26	0x41bb317c	23.399162
27	0x40c35b0d	6.1048646
28	0x40883f5d	4.257735

action_model._discrete_distribution.branches.0.bias f4 [5]
0	0xbdc3c757	-0.095595054
1	0x3d2203c5	0.039554376
2	0x3ddd7818	0.10813922
3	0xbe23c074	-0.15991384
4	0x3d4068b3	0.04697485

action_model._discrete_distribution.branches.0.weight f4 [5, 128]
0	0x3b3b6bd7	0.0028598213
1	0x3cd77a40	0.02630341
2	0xbc95de01	-0.018294336
3	0x3dd52e35	0.10409204
4	0xbc59aa4b	-0.01328523
5	0x3d2a3bae	0.04156082
6	0x3dd62992	0.10457148
7	0x3dc0ca5d	0.09413598
8	0xbd88fdd1	-0.06689037
9	0xbddc8d6c	-0.107691616
10	0x3e133e50	0.14379239
11	0x3db10568	0.08643609
12	0x3cf45cb9	0.02982937
13	0x3d2b22c4	0.041781202
14	0x3bdd82e0	0.0067599863
15	0xbddfc4db	-0.10926219
16	0x3baa85ec	0.005203953
17	0xbc79cb6a	-0.015246252
18	0x3d8a5418	0.06754321
19	0xbd1442eb	-0.03619663
20	0x3e093dd9	0.134025
21	0x3d5affad	0.053466488
22	0xbc2c6ae0	-0.010523528
23	0xbda22e35	-0.079189695
24	0xbd30a9e4	-0.04313077
25	0x3d0c4d92	0.034253664
26	0x3e0b106d	0.13580485
27	0xbd44f2da	-0.048083164
28	0x3e018275	0.12647422
29	0x3d7c7038	0.061630458
30	0x3d27101b	0.040786844
31	0x3c2e32f1	0.010632263
32	0xbda72e0e	-0.08163081
33	0x3d75982f	0.059959587
34	0x3d209bfc	0.03921126
35	0x3be9b51d	0.007132186
36	0xbd29624b	-0.041353505
37	0xbca9f287	-0.020745529
38	0xbbc270dc	-0.005933864
39	0xbd60659c	-0.054784402
40	0x3d32d7ee	0.043662958
41	0xbb9aaf7f	-0.004720628
42	0x3caaa091	0.020828517
43	0xbb51612e	-0.0031948793
44	0xbd8eb24c	-0.06967601
45	0x3c80c369	0.015718179
46	0xbd4daf41	-0.050215963
47	0xbd132579	-0.03592441
48	0xbbb17d8c	-0.0054165777
49	0x3ccc216d	0.024918282
50	0xbd214fc2	-0.039382704
51	0x3d7e0069	0.06201211
52	0x3da44c58	0.08022374
53	0xbe0fc61f	-0.14040421
54	0xbcbd5592	-0.023112092
55	0x3c98bc9a	0.01864462
56	0x3babe86e	0.0052462136
57	0x3cb28f5a	0.021796871
58	0x3db62f13	0.088956974
59	0x3ce68ced	0.02814337
60	0xbd929096	-0.07156484
61	0xbbea99a5	-0.007159429
62	0x3d56f3ba	0.05247853
63	0x3b59c246	0.0033227368
64	0x3cf77a20	0.0302096
65	0x3cf9d00a	0.030494709
66	0x3bc4cf5d	0.006006165
67	0x3d29ad7d	0.041425217
68	0xbcb06c78	-0.021536097
69	0xbd9d61a6	-0.076846406
70	0x3da92d55	0.082605995
71	0x3c524ba8	0.012835421
72	0xbd50e82d	-0.05100267
73	0x3db372be	0.0876212
74	0x3d63f28e	0.05565124
75	0x3c8fe6d3	0.01756612
76	0xbd4b5a40	-0.049646616
77	0x3e18503d	0.14874358
78	0x3d86011a	0.06543179
79	0x3d8a9cde	0.06768201
80	0x3e0fa81c	0.14028972
81	0x3d8d3f00	0.06896782
82	0x3e10bd4d	0.14134713
83	0xbcd672ea	-0.026177842
84	0x3bf53649	0.007483278
85	0x3d376a21	0.044778947
86	0xbdd54641	-0.104137905
87	0x3dae099b	0.08497926
88	0x3c1abf71	0.009445057
89	0xbce3da69	-0.027814107
90	0xbca0d1ef	-0.019631354
91	0x3dc2389a	0.09483452
92	0x3d228f6e	0.039687566
93	0xb9199fb2	-0.00014650708
94	0x3d04fac5	0.032465715
95	0x3d02fafa	0.03197763
96	0x3b20a1bc	0.0024510464
97	0xbd9f59f5	-0.0778083
98	0xbcddd569	-0.027079301
99	0xbe26d7c3	-0.16293244
100	0x3be73260	0.0070555657
101	0x3dbe27f6	0.09284966
102	0xbd400df2	-0.0468883
103	0xbcf2ade8	-0.02962394
104	0xbb358941	-0.0027700218
105	0xbcb69c75	-0.022291401
106	0x3df70374	0.120612055
107	0x3d27aa6a	0.040934004
108	0xbd1871e5	-0.037217993
109	0xbd3b8021	-0.04577649
110	0x3d2768d8	0.04087147
111	0xbc53727a	-0.012905711
112	0x3db1bec0	0.08678961
113	0x3dfbc9ce	0.122943506
114	0x3c4a9c8b	0.012366424
115	0xbcfa5bc6	-0.03056134
116	0x3d409702	0.047019012
117	0x3d480626	0.04883399
118	0x3c49ccd2	0.012316899
119	0xbd9dc4e9	-0.07703573
120	0xbda55bb5	-0.08074132
121	0x3da7fe2e	0.08202778
122	0xbc214c16	-0.0098448
123	0xbd4b6851	-0.04966003
124	0xbcfdddfa	-0.030989636
125	0xbd92a780	-0.07160854
126	0x3da0b41f	0.07846855
127	0x3dbc8816	0.09205644
128	0x3c1c79e4	0.009550545
129	0x3dec9ebd	0.115537144
130	0xbc382039	-0.011238151
131	0x3e1fc71c	0.15603298
132	0x3d1a83a0	0.037723184
133	0x3cd54ffb	0.026039114
134	0x3d1c6f0d	0.038191844
135	0xbdb2b6ec	-0.08726296
136	0x3da915b4	0.08256093
137	0xbbea3657	-0.007147591
138	0xbcd91717	-0.026500268
139	0xbe543d6a	-0.20726553
140	0x3c939b28	0.01801832
141	0x3d090f51	0.033461872
142	0xbddbfc9c	-0.10741541
143	0xbd0e77c2	-0.03478218
144	0xbd9af480	-0.07566166
145	0x3e02da18	0.12778509
146	0x3e07720c	0.13227099
147	0x3d9d9ccc	0.07695922
148	0xbcf99d58	-0.030470535
149	0xbdc65d02	-0.096857086
150	0xbd94e161	-0.0726955
151	0xbdebefc5	-0.11520342
152	0x3e26344a	0.16230884
153	0x3dd96942	0.106157795
154	0xbdeb7e3a	-0.11498685
155	0x3d9c9ef0	0.076475024
156	0x3d1c74ab	0.0381972
157	0xbd4d6624	-0.050146237
158	0xbbf7daa8	-0.0075639077
159	0x3d6a93e8	0.05726996
160	0x3d764077	0.060120072
161	0x3e2d8576	0.16945443
162	0x3db9daf3	0.090749644
163	0x3dbda499	0.0925991
164	0xbd0f543b	-0.034992438
165	0xbd2c0ded	-0.04200547
166	0x3c4ece30	0.012622401
167	0x3deb5c8a	0.1149226
168	0x3bcad445	0.0061898553
169	0xbdbfdfee	-0.09368883
170	0x3da8f1db	0.08249255
171	0xbde37b52	-0.11107506
172	0x3c3fab59	0.011698567
173	0xbdc4dfea	-0.09613021
174	0xbc71689c	-0.0147344135
175	0x3da4ccdc	0.08046886
176	0xbe3aa70f	-0.1822779
177	0xbd9d690e	-0.07686053
178	0xbdc66e6b	-0.09689029
179	0x3db5848f	0.08863174
180	0xbe318092	-0.17334202
181	0x3d9eb2f6	0.07748978
182	0x3d24e071	0.040253107
183	0x3d06d73b	0.032920104
184	0xbe869261	-0.26283553
185	0xbd515a96	-0.05111178
186	0x3d466656	0.04843744
187	0xbc89bf75	-0.016814927
188	0xbe07945e	-0.13240191
189	0x3da5ee46	0.08102088
190	0x3c653edf	0.01399204
191	0x3dbcbf8e	0.09216224
192	0xbd771fc8	-0.060333043
193	0xbc442824	-0.011972461
194	0xbd0365e4	-0.032079592
195	0x3d7bccf5	0.06147476
196	0xbd1696d1	-0.036764923
197	0xbdadc854	-0.08485475
198	0xbdbbd749	-0.09171922
199	0xbc56f0e1	-0.013118953
200	0x3e10f300	0.14155197
201	0xbd6b03dd	-0.05737673
202	0xbc94816f	-0.018128125
203	0xbe0d7714	-0.13814956
204	0x3cb6329f	0.022240935
205	0x3dd9d832	0.10636939
206	0xbe185568	-0.1487633
207	0xbdeee569	-0.1166485
208	0xbd307df7	-0.04308888
209	0xbe478096	-0.19482645
210	0xbd518e6b	-0.05116121
211	0x3b307218	0.0026923474
212	0xbe013810	-0.12619042
213	0x3d811dfe	0.06304549
214	0xbd74912a	-0.05970875
215	0xbca03198	-0.019554898
216	0xbc50f829	-0.0127544785
217	0x3de09c4b	0.109673105
218	0x3d640fef	0.055679258
219	0xbdfbdd98	-0.12298125
220	0xbe0c9bc6	-0.13731298
221	0x3c4d82b9	0.012543374
222	0xbe058a1b	-0.13040964
223	0x3d9b8d7e	0.07595347
224	0x3e470957	0.19437157
225	0x3d93d8e0	0.072191
226	0x3c66e5d9	0.014092886
227	0x3d614500	0.054997444
228	0xbe368bcb	-0.17826764
229	0xbdd52286	-0.104069754
230	0x3c39142e	0.011296315
231	0x3a8e691a	0.0010865063
232	0xbdcd5cda	-0.10027476
233	0x3cab7d1a	0.020933677
234	0xbd6f8758	-0.058478683
235	0xbdfee92c	-0.12446818
236	0x3dbb7011	0.09152234
237	0xbb1c1a04	-0.0023819217
238	0xbd989c6b	-0.07451709
239	0xbd77259e	-0.06033861
240	0xbded82c2	-0.11597206
241	0x3df3f5e1	0.11912132
242	0xbb0968ac	-0.002096693
243	0xbd8aab9b	-0.067710124
244	0x3d98cbc8	0.07460743
245	0xbe0cf120	-0.13763857
246	0x3d9839e9	0.074329205
247	0xbc21adee	-0.009868128
248	0xbe01c335	-0.12672122
249	0xbd56c410	-0.052433074
250	0x3d9bbe54	0.076046616
251	0x3ddb645d	0.10712502
252	0xbd01c7ed	-0.031684805
253	0xbdeb8f55	-0.11501948
254	0xbe2cd987	-0.16879855
255	0x3d059525	0.03261294

network_body.linear_encoder.seq_layers.0.bias f4 [128]
0	0x3d81340c	0.06308755
1	0x3d830e74	0.06399241
2	0x3cb3b68a	0.021937627
3	0x3d96dde1	0.07366539
4	0xbc831b96	-0.016004365
5	0xbbca20ae	-0.0061684465
6	0x3cf3e6fc	0.029773228
7	0xbccf6f1e	-0.02532154
8	0x3d9248b2	0.07142772
9	0x3ddd028e	0.10791503
10	0xbd37683b	-0.044777136
11	0xbc9c3af6	-0.019071084
12	0x3d9fa12f	0.07794415
13	0x3d3aa281	0.045565132
14	0xbcff7791	-0.031184943
15	0x3dfa154b	0.122110926
16	0x3e1d0b0f	0.1533625
17	0x3e18fb92	0.14939716
18	0x3de88eb0	0.113553405
19	0x3dccf36c	0.100073665
20	0x3db60ca5	0.088891305
21	0x3cbb9c6b	0.022901734
22	0xbd38a560	-0.04507959
23	0x3d1bfa36	0.038080417
24	0xbd3f3cca	-0.046688832
25	0x399c51a2	0.0002981546
26	0x3dfe2ebf	0.1241126
27	0x3dc97de0	0.09838462
28	0x3dc4bc1d	0.09606192
29	0xbbb0121f	-0.005373254
30	0x3d895323	0.0670531
31	0x3d9f63b5	0.077826895
32	0x3e0d8818	0.13821447
33	0x3d563913	0.052300524
34	0x3dcf8740	0.10133219
35	0x3df9ad57	0.12191265
36	0x3ce31390	0.027719289
37	0xbd4146cd	-0.04718666
38	0x3dd3ac45	0.10335592
39	0x3e1e2f0a	0.15447631
40	0x3d3fd148	0.046830446
41	0x3ded0955	0.115740456
42	0x3d291532	0.04127998
43	0x3b559f08	0.003259601
44	0x3e130176	0.14356026
45	0x3dff1aab	0.124562584
46	0x3de3156a	0.11088069
47	0x3b91e5b7	0.004452433
48	0x3df00273	0.11719217
49	0x3d5a527c	0.05330132
50	0x3d43acec	0.047772333
51	0x3d45dbfa	0.04830549
52	0x3d2c72a6	0.042101525
53	0xbd087512	-0.033314772
54	0x3d95ea58	0.07320088
55	0x3d892d00	0.06698036
56	0x3dd61880	0.10453892
57	0x3bcf56c0	0.00632748
58	0xbcb72bb6	-0.02235971
59	0x3cc03e27	0.023467137
60	0xbd7aab1e	-0.061198346
61	0xbc2b1a3f	-0.010443269
62	0x3da5da7e	0.08098315
63	0x3d65204f	0.055939015
64	0x3db1ea3f	0.08687257
65	0x3c951cdc	0.018202238
66	0x3dfdde1f	0.12395882
67	0xbd62ee9a	-0.05540333
68	0x3deedc0b	0.116630636
69	0x3c57dcad	0.013175172
70	0x3d2fb3c7	0.04289606
71	0x3c277dad	0.010222835
72	0x3d2a295b	0.041543346
73	0xbd07448f	-0.033024367
74	0xb959ea5c	-0.00020782038
75	0xbd54695a	-0.051858284
76	0x3dd77b15	0.10521523
77	0x3ddff187	0.109347396
78	0x3da8c190	0.08240044
79	0x3dacfd51	0.08446754
80	0x3d56c23f	0.05243134
81	0xbb997df2	-0.0046842033
82	0x3dd62c1d	0.10457633
83	0x3d90646c	0.07050404
84	0x3ca6566c	0.020304881
85	0xbd1a493e	-0.037667505
86	0x3b966f39	0.0045908955
87	0x3d806d04	0.06270793
88	0x3dc741b5	0.097293295
89	0x3de1d6e9	0.11027319
90	0xbc44ea2d	-0.0120187225
91	0xbe0ac01f	-0.13549851
92	0xbd093bc3	-0.03350426
93	0x3d931207	0.07181173
94	0x3d9a71bb	0.075412236
95	0x3e179ccd	0.14805909
96	0x3db6ea88	0.08931452
97	0x3dd094f2	0.10184659
98	0x3de14e49	0.1100126
99	0x3daf6fcc	0.085662454
100	0xbbb33bc1	-0.0054697697
101	0x3d2c004a	0.041992463
102	0x3d8e8602	0.06959154
103	0x3c6ec421	0.014573128
104	0x3d9986d1	0.07496417
105	0x3d7492a4	0.05971016
106	0x3d0bb9cb	0.034112733
107	0x3d94617c	0.07245156
108	0xbce9abbb	-0.02852427
109	0x3e0af1e7	0.13568841
110	0xbc893c79	-0.016752468
111	0x3e0089cb	0.12552564
112	0x3dc09cb0	0.09404886
113	0xbd1b8074	-0.0379643
114	0x3c9bdc1f	0.01902586
115	0x3dbbe2d5	0.09174124
116	0x3c8ec99d	0.017430121
117	0x3d83b063	0.064301275
118	0xbc283d5e	-0.010268537
119	0x3c9c2c5f	0.019064127
120	0x3dbbaad8	0.09163445
121	0x3c8cd05c	0.017189197
122	0x3daeb92e	0.08531414
123	0xbd7b3ab3	-0.061335277
124	0x3c31d9c1	0.010855139
125	0x3c5e5bf9	0.013571733
126	0x3d34ae18	0.04411134
127	0x3d4d8cca	0.050183095

network_body.linear_encoder.seq_layers.0.weight f4 [128, 29]
0	0x3e37227c	0.17884248
1	0xbea61758	-0.32439685
2	0xbe4eb8b5	-0.20187648
3	0x3de5c39f	0.112189524
4	0x3da4cf4a	0.0804735
5	0x3e90ed73	0.2830616
6	0x3e868dcd	0.2628006
7	0x3e977de4	0.29588234
8	0xbf073a15	-0.52823
9	0x3e4ee501	0.20204546
10	0xbc90386c	-0.017605029
11	0xbe910338	-0.28322768
12	0x3e3672e3	0.17817263
13	0x3af0e59a	0.0018378973
14	0xbe155d2b	-0.14586322
15	0x3ebd123b	0.3692797
16	0xbdb0645e	-0.086128935
17	0xbf0f664f	-0.56015486
18	0x3d2955ee	0.041341715
19	0x3e4fa2af	0.20276903
20	0x3e42d016	0.19024691
21	0x3e1e7f12	0.15478161
22	0xbe96e74c	-0.2947334
23	0xbc8f3f57	-0.017486257
24	0x3ed32e5b	0.41246304
25	0x3ed70f7b	0.42003998
26	0xbe4c2936	-0.19937596
27	0x3d805f44	0.062681705
28	0xbe992d3c	-0.29917324
29	0xbd815e31	-0.06316794
30	0x3e6abe68	0.22924197
31	0xbeabdf8b	-0.33568987
32	0x3ea671d8	0.3250873
33	0xbd9d53fe	-0.07682036
34	0x3d96421c	0.07336828
35	0xbc9f6383	-0.01945663
36	0x3e0b441a	0.13600197
37	0xbc87cd9c	-0.016577534
38	0x3da142b2	0.07874049
39	0xbe225dbd	-0.15856071
40	0x3e7e2019	0.24816932
41	0xbe07346f	-0.13203596
42	0xbeb6ab38	-0.35677505
43	0xbe499d5f	-0.19688939
44	0x3efe7ddc	0.49705398
45	0x3ed24901	0.41071323
46	0xbe27a582	-0.1637173
47	0xbe71d2d1	-0.23615576
48	0x3ec2caf6	0.38045472
49	0x3edddd36	0.43332833
50	0xbe2d6185	-0.16931732
51	0xbdca515b	-0.098787986
52	0x3de8c041	0.113647945
53	0x3dc98ffc	0.09841916
54	0x3e45f451	0.1933148
55	0xbda571be	-0.08078335
56	0x3dc3343d	0.09531448
57	0x3e336be1	0.17521621
58	0xbd7eae37	-0.062177863
59	0xbf09e3df	-0.5386333
60	0xbe89917b	-0.26868805
61	0x3e85aaf2	0.26106983
62	0x3dedfcce	0.11620484
63	0x3f08ef99	0.53490597
64	0x3ede8243	0.43458757
65	0xbe304c57	-0.17216621
66	0x3dbcf142	0.09225704
67	0x3dc1c414	0.09461227
68	0xbdef492e	-0.1168388
69	0x3d978202	0.07397844
70	0xbc9c98b5	-0.019115785
71	0x3e113071	0.14178635
72	0xbf07dc0d	-0.53070146
73	0xbe7df21d	-0.2479939
74	0x3e713b7d	0.23557849
75	0xbd98df59	-0.07464475
76	0x3e31d27b	0.17365448
77	0xbcd206e0	-0.025638044
78	0x3c5e8f48	0.013583966
79	0x3e135a47	0.14389907
80	0xbd1b776e	-0.037955694
81	0x3e175c9a	0.14781418
82	0xbeec546d	-0.46158162
83	0x3bfcba55	0.007712642
84	0xbe1d5567	-0.1536461
85	0xbe30dd55	-0.17271931
86	0x3e82ca29	0.2554486
87	0xbece4704	-0.40288556
88	0xbebf87f7	-0.3740842
89	0xbef3ac3d	-0.47592345
90	0x3eec307b	0.46130738
91	0x3e395df4	0.18102247
92	0xbd49f4f6	-0.04930588
93	0x3ea12a42	0.31477553
94	0xbe48a849	-0.19595446
95	0x3e7c9597	0.24666439
96	0x3e8583a7	0.26077005
97	0x3e4c3963	0.19943766
98	0xbea9a217	-0.33131477
99	0xbbcc3763	-0.0062321885
100	0xbdc25fa1	-0.09490896
101	0xbe0d0c8d	-0.13774319
102	0xbd0735f5	-0.03301044
103	0x3ef0f8c7	0.47064802
104	0xbe8e10ef	-0.27747294
105	0x3e7c66d5	0.24648602
106	0xbe49ef46	-0.19720182
107	0xbecae375	-0.3962666
108	0x3da3b801	0.0799408
109	0x3e5fd94c	0.21860236
110	0xbe80b3a8	-0.25137067
111	0xbe03486b	-0.12820594
112	0xbde05103	-0.10952952
113	0xbee85213	-0.45375118
114	0x3daccad8	0.08437127
115	0xbe27d4e3	-0.16389804
116	0xbb7a19d9	-0.003816238
117	0x3e91c6c7	0.28471968
118	0x3dcef241	0.101048
119	0xbbf80258	-0.007568639
120	0xbe9e11e2	-0.30873019
121	0xbbaa27f2	-0.00519275
122	0xbc0850bf	-0.008320033
123	0x3e14ab12	0.14518383
124	0x3d10fca5	0.03539719
125	0xbea8e763	-0.32989034
126	0xbe87a149	-0.26490238
127	0xbdfd58b9	-0.12370438
128	0x3e8c679c	0.27422798
129	0x3e9c5008	0.3052981
130	0x3e6da155	0.23206075
131	0x3ecccd40	0.40000343
132	0xbe0f8bfd	-0.14018245
133	0x3d688a34	0.056772426
134	0xbd404ae9	-0.04694644
135	0xbd85003a	-0.06494184
136	0x3e2c4e9c	0.16826862
137	0x3cb9ed48	0.022696152
138	0x3e9b9380	0.3038597
139	0x3e18d878	0.14926326
140	0xbebdff94	-0.37109053
141	0xbe5a4c05	-0.21318062
142	0x3df7e07d	0.121033646
143	0xbea5388f	-0.32269713
144	0xbe68d7a2	-0.22738507
145	0x3d019798	0.03163871
146	0x3da974d4	0.08274236
147	0x3f01c7ce	0.506955
148	0x3df315f2	0.1186942
149	0x3de62638	0.112377584
150	0x3dd95764	0.106123716
151	0x3cb51f8c	0.02210977
152	0xbd8efaae	-0.06981407
153	0xbe7aa2ca	-0.24476162
154	0x3e874c40	0.26425362
155	0xbd1c13f9	-0.038104985
156	0xbdb42800	-0.08796692
157	0x3e1c04f9	0.15236272
158	0x3d941039	0.07229657
159	0x3e67b12f	0.22626184
160	0x3e9f20ec	0.31079805
161	0x3e1455bd	0.14485832
162	0x3e2b2a89	0.16715445
163	0xbe992c4f	-0.29916617
164	0xbd61e64e	-0.055151276
165	0xbeab6b00	-0.33480072
166	0x3edb90ea	0.42883998
167	0xbe33b11a	-0.17548028
168	0x3db81541	0.08988429
169	0x3e4ad896	0.19809183
170	0x3c184b2c	0.009295266
171	0xbe32bf34	-0.1745575
172	0xbe14f542	-0.14546683
173	0x3f2847a9	0.65734345
174	0x3d3f5233	0.04670925
175	0x3d60e4ea	0.05490581
176	0xbeabf366	-0.33584136
177	0x3ed7ea5f	0.42170998
178	0x3ea8b858	0.32953143
179	0x3ea362b4	0.31911242
180	0xbd0e1064	-0.0346836
181	0xbe3aaf27	-0.18230878
182	0xbd95c762	-0.0731342
183	0xbe1e7e8f	-0.15477966
184	0x3e0e8a92	0.13920048
185	0x3c668370	0.014069423
186	0xbca66e2e	-0.02031621
187	0xbeb52801	-0.35382083
188	0x3dee4f04	0.11636165
189	0x3c7b0ba5	0.0153226005
190	0xbdd3c23a	-0.1033978
191	0xbd360d5c	-0.044446334
192	0x3e5e0e34	0.21685106
193	0xbde8f69a	-0.113751605
194	0x3e222c55	0.15837224
195	0xbd234d62	-0.03986872
196	0x3defcd89	0.117091246
197	0x3e393690	0.1808722
198	0xbee1141f	-0.43960664
199	0xbe05b21e	-0.13056228
200	0xbf235e27	-0.6381554
201	0x3e88bfcd	0.26708832
202	0x3ea54134	0.3227631
203	0x3ccca627	0.024981571
204	0xbe62500e	-0.22100851
205	0x3de38ce7	0.11110859
206	0xbe2decbb	-0.16984837
207	0x3e4e98ee	0.20175526
208	0x3e085dfb	0.133171
209	0x3e2cf009	0.16888441
210	0x3ebd3f5f	0.3696241
211	0x3d66fe31	0.05639476
212	0x3e804448	0.25052094
213	0x3e6d1934	0.23154145
214	0xbe1c1faf	-0.15246461
215	0xbf0d5416	-0.5520643
216	0xbd2698e8	-0.040673167
217	0xbd9a8f00	-0.07546806
218	0x3e2eb633	0.17061691
219	0xbe6ad798	-0.22933805
220	0xbdc88cb6	-0.097924635
221	0xbe4ecf69	-0.20196308
222	0x3e246da3	0.16057448
223	0x3d8ca4f4	0.068674
224	0x3e1329c1	0.14371397
225	0x3e8cc6c8	0.27495408
226	0x3c49fa40	0.012327731
227	0xbe0ab1fb	-0.13544457
228	0xbdafb6b9	-0.085797735
229	0xbe16eb25	-0.14738138
230	0x3ea5d851	0.323916
231	0x3ed4d0d2	0.41565567
232	0xbdcac41c	-0.09900686
233	0xbe67082e	-0.22561714
234	0xbf223c4d	-0.6337326
235	0xbdc88ed5	-0.09792868
236	0xbd7b0029	-0.06127945
237	0xbde18e67	-0.11013489
238	0x3bc99a6a	0.006152441
239	0xbe008778	-0.12551677
240	0xbe2637a0	-0.16232157
241	0xbe1eaab5	-0.15494807
242	0x3e02d5ce	0.12776873
243	0x3d0dbb96	0.034602724
244	0x3dfbc44d	0.12293301
245	0xbf220bf2	-0.6329948
246	0x3e32a29e	0.17444846
247	0xbd0b2de5	-0.033979315
248	0x3ebf3e5c	0.37352264
249	0x3d92e07d	0.07171724
250	0xbeb55271	-0.3541446
251	0x3e6d84be	0.23195168
252	0xbe113650	-0.14180875
253	0x3eb6f943	0.35737047
254	0xbe606584	-0.21913725
255	0xbe5a8b46	-0.21342191

network_body.linear_encoder.seq_layers.2.bias f4 [128]
0	0x3ce41537	0.027842147
1	0x3d347204	0.044054046
2	0xbb207eda	-0.0024489672
3	0x3d13980b	0.03603367
4	0xbbb64758	-0.005562704
5	0xbd084ead	-0.033278156
6	0xbdd07f03	-0.101804756
7	0xbdd2d731	-0.10294951
8	0x3dde502e	0.10855137
9	0x3db87c58	0.09008092
10	0xbdeed80c	-0.116623014
11	0x3b9c2b06	0.004765871
12	0xbd5267bd	-0.051368464
13	0xbdbf5e3e	-0.09344147
14	0x3d42e7a6	0.0475842
15	0x3dc391fb	0.09549328
16	0x3dac8e19	0.084255405
17	0xbc209136	-0.009800246
18	0x3c857b97	0.016294284
19	0x3d137f47	0.036010053
20	0xbdfe32a8	-0.12412006
21	0xbdb9a0be	-0.09063862
22	0xbd14d0cb	-0.036331933
23	0xbdfe69f5	-0.124225534
24	0xbd26ffca	-0.040771283
25	0xbde1da6a	-0.11027987
26	0x3af79397	0.001888859
27	0x3dbbd364	0.09171179
28	0xbdb8dbc8	-0.09026295
29	0xbc26b81b	-0.01017573
30	0xbd3509fc	-0.044198975
31	0x3d3c16b7	0.0459201
32	0x3c59c970	0.013292655
33	0xbd810f0c	-0.06301698
34	0xbc736cbf	-0.01485747
35	0xbd96e68a	-0.073681906
36	0xbdc26205	-0.09491352
37	0x3d789ad5	0.060694534
38	0x3d7931ab	0.060838383
39	0xbc8b1e8c	-0.01698234
40	0x3c94eea6	0.018180203
41	0x3db08551	0.08619178
42	0xbcb4df27	-0.022079064
43	0x3d5b7f04	0.05358793
44	0x3a1da1b7	0.0006013172
45	0x3cbf57b0	0.023357242
46	0xbce62abc	-0.02809655
47	0xbc5044a5	-0.012711679
48	0x3b4ba9ea	0.0031076618
49	0xbc0a8e90	-0.008456841
50	0x3b43861f	0.002983458
51	0x3cae7779	0.021297203
52	0x3be7884d	0.007065809
53	0x3db334b1	0.087502845
54	0xbb411f0c	-0.0029467968
55	0xbd895fa3	-0.067076944
56	0x3ce2a960	0.027668655
57	0xbe03d337	-0.12873541
58	0xbd686989	-0.05674127
59	0x3d28b1d8	0.04118523
60	0x3dcc83a1	0.09986044
61	0xbe0cdf78	-0.13757122
62	0x3c6551c3	0.013996544
63	0xbd01b584	-0.031667247
64	0x3c8436c6	0.0161394
65	0xbdb47212	-0.0881082
66	0x3c0cd6dc	0.008596148
67	0x3c8ede62	0.017440025
68	0x3d63008b	0.05542044
69	0x3dd58240	0.10425234
70	0xbdb9c29e	-0.090703234
71	0x3d9a4411	0.07532514
72	0xbd01ba42	-0.03167177
73	0xbe040cf3	-0.12895565
74	0xbdf0e4ef	-0.117624156
75	0xbc4cdbc7	-0.012503571
76	0x3d6bf07c	0.05760239
77	0x3dc75981	0.097338684
78	0xbd8abd00	-0.0677433
79	0xbcd8b663	-0.026454156
80	0xbda148b2	-0.07875194
81	0xbd9960a5	-0.074891366
82	0xbcca7235	-0.024712661
83	0xbbb81f72	-0.005618983
84	0x3d2934d0	0.04131013
85	0x3d0dd295	0.034624655
86	0xbcdb2c8d	-0.026754642
87	0xbdfa39b9	-0.12218041
88	0xbd9892f6	-0.074499056
89	0x3d170f8b	0.036880057
90	0xbdb9eec9	-0.09078748
91	0xbdc12237	-0.09430354
92	0xbd86e96b	-0.0658749
93	0x3ccb3736	0.0248066
94	0xbc91f53a	-0.017817128
95	0xbbf87029	-0.00758173
96	0x3d06c1a2	0.032899506
97	0xbd0ac640	-0.033880472
98	0x3da63a62	0.081166044
99	0xbd0fd6f8	-0.03511712
100	0xbd9c6fec	-0.07638535
101	0x3b157879	0.0022807403
102	0x3cef62a4	0.02922184
103	0xbd8f7f19	-0.07006664
104	0x3da8850a	0.082285
105	0x3bb9f291	0.005674668
106	0xbd4a3afe	-0.049372666
107	0xbd28b1ea	-0.041185297
108	0x3d02f3cc	0.031970784
109	0x3c874531	0.016512485
110	0x3d615460	0.055012107
111	0x3c132d56	0.008982977
112	0xbd952876	-0.07283108
113	0xbe09afed	-0.13446017
114	0x3d95c3ac	0.07312712
115	0xbd2e4437	-0.042545523
116	0xbc83003a	-0.015991319
117	0x3c889c79	0.016676174
118	0xbd646052	-0.05575592
119	0xbd8084d1	-0.06275333
120	0x3c67ced0	0.014148429
121	0xbd7e3d1b	-0.062069993
122	0xbd25f175	-0.040513474
123	0x3c8c57a9	0.017131643
124	0xbcd36b2a	-0.025807936
125	0x3ddbe137	0.10736316
126	0x3db1aa36	0.08675043
127	0xbd5e22ed	-0.054232527

network_body.linear_encoder.seq_layers.2.weight f4 [128, 128]
0	0x3dc47ed0	0.095945
1	0x3d63d7c0	0.055625677
2	0xbe1dec7e	-0.15422246
3	0xbd2e76bf	-0.042593714
4	0x3de5dadc	0.11223385
5	0xbdebb4a6	-0.11509065
6	0xbe0dd1b7	-0.13849531
7	0xbde79f50	-0.11309683
8	0x3e4e4c89	0.20146383
9	0xbe1569f6	-0.14591202
10	0x3e0ae68d	0.1356451
11	0x3c385713	0.011251229
12	0xbdab6dc4	-0.083705455
13	0xbc5ca384	-0.01346672
14	0xbea91abe	-0.33028215
15	0x3d15d28c	0.036577746
16	0xbdc32ab0	-0.09529626
17	0x3d8c01ce	0.06836282
18	0xbc997d82	-0.018736605
19	0xbd96f202	-0.07370378
20	0xbd7634b4	-0.060108855
21	0xbdf46f87	-0.11935335
22	0x3e7b3bbe	0.24534509
23	0xbe3c684c	-0.18399161
24	0xbe1f8cb4	-0.15581018
25	0x3e396c59	0.18107738
26	0xbd008e0e	-0.031385474
27	0xbb829223	-0.003984706
28	0xbebf1be8	-0.37325978
29	0x3d314d83	0.04328681
30	0x3d106625	0.035253663
31	0xbe2f55b2	-0.17122534
32	0x3da9741f	0.082741015
33	0xbc425e30	-0.011863276
34	0x3dfe32c2	0.12412025
35	0x3e2956ff	0.16537093
36	0xbdfdf8aa	-0.124009445
37	0xbdaadda3	-0.08343055
38	0x3da481b6	0.08032553
39	0x3db65688	0.08903223
40	0xbe4d894a	-0.20071903
41	0xba9badaa	-0.0011877317
42	0xbe6359ff	-0.222023
43	0x3ddc85e5	0.10767726
44	0xbe5e77d1	-0.21725394
45	0xbeed353b	-0.46329674
46	0x3db6059c	0.08887789
47	0xbe21269b	-0.15737383
48	0x3d7bad83	0.06144477
49	0x3d233572	0.03984589
50	0x3d2b57fd	0.04183196
51	0x3e5bceb0	0.21465564
52	0x3d84067d	0.0644655
53	0x3e017886	0.12643632
54	0xbe35b3ab	-0.17744319
55	0x3e2b7344	0.16743189
56	0x3e182baa	0.14860407
57	0x3c3e92a2	0.01163164
58	0xbc3167a5	-0.010827933
59	0x3c3ce69a	0.011529589
60	0x3e06fe23	0.13182883
61	0xbddfe882	-0.10933019
62	0x3df30f44	0.11868146
63	0x3d8543fa	0.06507106
64	0xbd3b796b	-0.04577009
65	0xbea39b40	-0.31954384
66	0x3e183cde	0.14866969
67	0xbd62a728	-0.055335194
68	0x3db9bd43	0.09069302
69	0xbdeb0582	-0.1147566
70	0x3ceb56e9	0.028727965
71	0x3e0b5b66	0.13609084
72	0x3dbec11f	0.09314179
73	0xbe1e37fd	-0.15451045
74	0xbe757b11	-0.23972727
75	0x3e3ad575	0.1824549
76	0x3d5040b3	0.050842952
77	0xbe6837c2	-0.2267752
78	0xbd5f6d73	-0.05454774
79	0x3c770f1f	0.015079289
80	0x3d2b2564	0.041783705
81	0xbe19a6ea	-0.15005079
82	0xbd27bd7e	-0.0409522
83	0xbe2b32ad	-0.1671855
84	0x3e20019c	0.15625614
85	0x3c1e9c53	0.009680825
86	0x3d2a00bf	0.041504618
87	0xbc7b6fb6	-0.015346458
88	0x3e269f9e	0.16271827
89	0x3de29031	0.110626586
90	0xbca53855	-0.020168463
91	0xbd8bfb1b	-0.06835004
92	0xbcc69fe0	-0.024246156
93	0xbe605a0c	-0.2190935
94	0xbe504e3b	-0.20342343
95	0xbdf331e5	-0.11874751
96	0x3dbdc466	0.09265976
97	0xbcbf226f	-0.023331849
98	0x3d6260d7	0.055268135
99	0xbc6f2cb5	-0.014598061
100	0xbeb6dd25	-0.35715595
101	0x3e8bf819	0.2733772
102	0xbe0475c4	-0.12935549
103	0x3dfaf5dc	0.12253925
104	0xbd81d38f	-0.0633918
105	0x3d92e37c	0.071722955
106	0xbe270952	-0.16312149
107	0x3d846ae6	0.06465702
108	0x3dfd3cd6	0.12365119
109	0xbe285832	-0.16439894
110	0x3c93d762	0.018047038
111	0x3de99972	0.114062205
112	0xbd0b1da3	-0.03396381
113	0xbccc39a0	-0.024929821
114	0x3db3c2fc	0.08777425
115	0xbe6427b6	-0.22280774
116	0xbcb3000a	-0.021850605
117	0xbe76cb5a	-0.2410101
118	0xbd98f66c	-0.07468876
119	0xbdb24743	-0.08704998
120	0x3e824181	0.254406
121	0xbda4aae1	-0.08040405
122	0xbd4ad6b6	-0.04952117
123	0x3d2f1475	0.04274412
124	0xbc23c65c	-0.009996023
125	0xbd9ecffe	-0.07754515
126	0x3da720a9	0.08160526
127	0x3cf9b270	0.030480593
128	0x3d78b1e9	0.060716543
129	0xbe96c844	-0.29449666
130	0x3bb9a588	0.005665485
131	0x3d812198	0.063052356
132	0xbc07ff19	-0.008300566
133	0xbe2df3ee	-0.16987583
134	0x3c8f0d22	0.017462317
135	0xbda9ed72	-0.08297242
136	0xbdb7d808	-0.089767516
137	0x3da00104	0.07812694
138	0xbc807e00	-0.015685081
139	0x3e2eb824	0.17062432
140	0xbdf0e114	-0.1176168
141	0x3e54f130	0.2079513
142	0xbe5b3c47	-0.21409713
143	0xbe80d92f	-0.25165698
144	0xbe17d3cd	-0.1482689
145	0xbdf5de41	-0.12005282
146	0x3c31970b	0.010839234
147	0x3a4e78ea	0.0007876294
148	0xbc154938	-0.009111695
149	0xbe3d89fc	-0.18509668
150	0xbd2c6f6c	-0.042098448
151	0xbda90ebe	-0.08254765
152	0x3da0e377	0.078558855
153	0x3d9ef453	0.07761445
154	0xbd2abf25	-0.041686196
155	0xbe78bda9	-0.242911
156	0xbdc78757	-0.09742611
157	0x3e783b84	0.24241453
158	0x3e343cac	0.1760127
159	0x3d30a3ab	0.043124836
160	0xbe0201ab	-0.12695949
161	0xbd94ba29	-0.0726207
162	0xbe49bf54	-0.19701892
163	0xbc4ae204	-0.012382988
164	0xbdce32df	-0.10068297
165	0x3cccd482	0.025003675
166	0xbec60856	-0.38678235
167	0xbdea22cf	-0.114324205
168	0x3e0948fa	0.13406745
169	0xbe2ed1e6	-0.17072257
170	0x3e06e2c2	0.13172439
171	0xbea61ad2	-0.32442337
172	0x3cffc905	0.031223783
173	0xbe493412	-0.1964877
174	0x3d7ea0b6	0.062164985
175	0x3c107644	0.008817259
176	0x3e627cca	0.22117916
177	0xbac7ccb5	-0.0015243503
178	0xbdb04018	-0.08605975
179	0xbd5a6e5c	-0.053327903
180	0x3bb4a08e	0.0055123037
181	0x3df55eec	0.119809955
182	0x3dfcdbae	0.12346588
183	0x3da5761f	0.080791704
184	0xbd8b0696	-0.067883655
185	0xbd0f9ea1	-0.03506339
186	0xbe04b8d2	-0.12961128
187	0x3e0ded62	0.13860086
188	0x3e55e11b	0.20886652
189	0x3df806e7	0.121106915
190	0xbbf97677	-0.007612999
191	0xbe188e32	-0.14897993
192	0x3e447e3e	0.19188783
193	0x3d3075ff	0.04308128
194	0xbdaeca39	-0.08534665
195	0xbc8fe56e	-0.017565455
196	0x3df2d291	0.118565686
197	0x3dd340ab	0.10315069
198	0xbd037798	-0.032096475
199	0xbc4a3307	-0.012341267
200	0x3cb37276	0.021905165
201	0x3d4f2d8d	0.05058055
202	0xbaac3760	-0.0013139062
203	0x3d6de55a	0.058080055
204	0xbe042be3	-0.12907366
205	0x3e118628	0.14211333
206	0x3bd2f0da	0.006437403
207	0x3e1c0940	0.15237904
208	0xbdceb2cd	-0.10092697
209	0x3d3d23ce	0.046176724
210	0x3d16a21b	0.03677569
211	0xbd47a478	-0.048740834
212	0x3dfa17b8	0.12211555
213	0x3cdf9140	0.02729094
214	0x3e4b5d25	0.1985975
215	0x3da55de6	0.0807455
216	0xbe0d0a6c	-0.13773507
217	0x3dd60eeb	0.10452064
218	0xbe8d6f1b	-0.2762383
219	0xbe387e3d	-0.18016906
220	0xbe7250d0	-0.2366364
221	0xbd8e2a93	-0.06941714
222	0x3e0ec9a4	0.13944107
223	0x3e0e2e76	0.13884911
224	0xbd1fc2b9	-0.03900406
225	0x3c99d834	0.018779851
226	0xbc9bcc46	-0.019018304
227	0x3ce9f7e3	0.028560584
228	0x3d31a9b9	0.04337475
229	0x3ea256b8	0.31706786
230	0xbe32a1e6	-0.17444572
231	0xbc96eeca	-0.01842441
232	0xbe73186b	-0.23739783
233	0xbda691e1	-0.08133293
234	0xbe062f57	-0.13103996
235	0xbf00545b	-0.50128716
236	0x3df0cf96	0.11758344
237	0xbe11b1e7	-0.1422802
238	0xba2e421b	-0.0006647424
239	0xbe5a9859	-0.21347179
240	0xbd2a87be	-0.04163336
241	0x3d767c9e	0.060177438
242	0x3d2ac13a	0.04168818
243	0xbc7af7fe	-0.015317915
244	0x3d518631	0.051153366
245	0x3e3f26a0	0.18667078
246	0xbbdd414b	-0.0067521683
247	0x3cd35250	0.025796086
248	0x3decc905	0.11561779
249	0x3d3a6553	0.045506787
250	0xbb214f9c	-0.0024614101
251	0x3dfe2a98	0.12410468
252	0xbdb64590	-0.08899987
253	0xbdb77094	-0.089570194
254	0x3c8f7683	0.017512565
255	0xbd2fa689	-0.04288343

network_body.vector_processors.0.normalizer.running_mean f4 [29]
0	0x3f204da6	0.6261848
1	0x3e1c7d2e	0.15282127
2	0x3d1515f1	0.036397878
3	0x3d8993a3	0.067176126
4	0x3f083e70	0.5322027
5	0x3ef33752	0.47503144
6	0x3e38f060	0.18060446
7	0x3cede85e	0.029041465
8	0x3dd55042	0.104156986
9	0x3f1e1f57	0.6176657
10	0x3f2030b0	0.6257429
11	0x3e18b8a1	0.1491418
12	0x3cda5aed	0.026654685
13	0x3df0ab4e	0.11751424
14	0x3ed3db68	0.4137833
15	0x3f083063	0.5319883
16	0x3e113a3a	0.14182368
17	0x3cb08512	0.021547828
18	0x3dd9e0da	0.1063859
19	0x3f1b0335	0.6055177
20	0x3f083063	0.5319883
21	0x3e113a3a	0.14182368
22	0x3cb08512	0.021547828
23	0x3dd9e0da	0.1063859
24	0x3f1b0336	0.60551775
25	0x4241b34a	48.425087
26	0x421803a3	38.00355
27	0xbc21c2e6	-0.009873128
28	0xb9e31f1a	-0.00043319986
