Assets/Models/Scena3/17Feb/iRobot.onnx (onnx, 86672 bytes, 8 tensors)

58 f4 [29]
0	0x3eff2867	0.49835512
1	0x3e3c6b0e	0.18400213
2	0x3da31b6a	0.07964213
3	0x3e66d673	0.22542743
4	0x3ec32c2f	0.38119647
5	0x3ee2f0ab	0.4432424
6	0x3ea50de3	0.32237157
7	0x3dc9e3f2	0.0985793
8	0x3dce3a07	0.100696616
9	0x3edae97b	0.42756256
10	0x3ecc463a	0.3989733
11	0x3e112307	0.14173518
12	0x3db6f0ea	0.089326695
13	0x3e336eeb	0.1752278
14	0x3e9ad378	0.30239463
15	0x3ee6c3e6	0.45071334
16	0x3e5be306	0.21473321
17	0x3dccba75	0.09996501
18	0x3e04c252	0.12964752
19	0x3ead345f	0.33829018
20	0x3ee6c3e6	0.45071334
21	0x3e5be306	0.21473321
22	0x3dccba75	0.09996501
23	0x3e04c252	0.12964752
24	0x3ead345f	0.33829018
25	0x41c83381	25.025148
26	0x419161cb	18.17275
27	0x3f54d99b	0.8314454
28	0x3f709fa9	0.9399362

action_model._discrete_distribution.branches.0.bias f4 [5]
0	0x3cb0f40b	0.021600744
1	0xbd13e3f6	-0.036106072
2	0xbd10ebf4	-0.035381272
3	0xbc02ba39	-0.007978969
4	0x3d2d332d	0.042285133

action_model._discrete_distribution.branches.0.weight f4 [5, 128]
0	0xbdbcebd3	-0.092246674
1	0x3dce061e	0.100597605
2	0xbd0b48fc	-0.03400515
3	0x3c0981a5	0.008392726
4	0x3d65f69a	0.05614338
5	0xbcd7d1bf	-0.026345132
6	0x3cc80f95	0.024421493
7	0x3dcbb04f	0.099457376
8	0x3db1f71c	0.086897105
9	0x3c986986	0.018605005
10	0x3c06f008	0.008235939
11	0x3c818b13	0.015813386
12	0x3cfab573	0.0306041
13	0xbdb8639f	-0.09003376
14	0x3b44976f	0.0029997488
15	0xbe04e8de	-0.12979457
16	0x3c260555	0.010133107
17	0xbb8a3cbe	-0.004218667
18	0xbda4175d	-0.08012269
19	0xbd1b9afc	-0.0379896
20	0x3d6a479b	0.057197195
21	0xbdf304df	-0.118661635
22	0xbc5ac458	-0.013352476
23	0x3bf31f99	0.007419538
24	0x3c491626	0.012273347
25	0xbd812a6a	-0.06306918
26	0x3ba81c3c	0.005130319
27	0x3d908eba	0.07058473
28	0xbd9c2358	-0.07623929
29	0x3b5f3d90	0.0034063794
30	0x3d44e598	0.04807052
31	0x3bf9f520	0.007628098
32	0xbc33e38e	-0.010979546
33	0xbdbdfee1	-0.0927713
34	0x3c8a157d	0.01685595
35	0x3b7241ed	0.0036965564
36	0x3d4fcfcc	0.05073528
37	0xbd9454b6	-0.0724272
38	0xbd195214	-0.03743179
39	0xbd42909d	-0.047501195
40	0xbdd9e3e0	-0.10639167
41	0xbdb5f46e	-0.08884512
42	0x3cd44d78	0.025915846
43	0x3c8fd286	0.01755644
44	0x3d25c39a	0.040469743
45	0xbcb6ef8c	-0.022331022
46	0x3d98b1a2	0.07455756
47	0x3c7c0b1f	0.015383511
48	0x3d522407	0.05130389
49	0x3cfe0d15	0.031012097
50	0xbd1409f4	-0.036142305
51	0xbd1e8bc7	-0.03870752
52	0xbbed9fb3	-0.0072517036
53	0x3c700d24	0.0146515705
54	0x3d5c0b6a	0.053721823
55	0x3d87e294	0.06635013
56	0xbd3dfa79	-0.046381447
57	0xbb93dc41	-0.0045123403
58	0xbd11f587	-0.035634544
59	0xbc97bae2	-0.01852173
60	0xbd42dea3	-0.047575604
61	0xbd645ffc	-0.0557556
62	0xbdcc0fe1	-0.09963966
63	0xbc7a5361	-0.015278668
64	0xbdc19424	-0.09452084
65	0xb913f7db	-0.00014111346
66	0xbdb640c8	-0.08899075
67	0xbda03d7e	-0.07824229
68	0xbb880577	-0.004151042
69	0x3da3b53e	0.079935536
70	0x3d26d547	0.04073074
71	0xbd60e036	-0.054901324
72	0xbd7eaf79	-0.062179063
73	0x3cafd74d	0.021464968
74	0x3c97205b	0.018448045
75	0xbad8cce9	-0.001654056
76	0xbcb09ec8	-0.021560088
77	0x3bde8084	0.0067902226
78	0x3d054563	0.032536875
79	0x3d776c6c	0.060406134
80	0xbc181350	-0.009281948
81	0xbd1e68a8	-0.038674027
82	0x3a1b021a	0.0005913094
83	0xbcf61ca4	-0.030042954
84	0x3dab771c	0.08372328
85	0x3d93af2e	0.07211147
86	0xbd24dc5f	-0.040249225
87	0x3ca4ca3d	0.020115966
88	0xbd1f3e7a	-0.03887794
89	0x3d1f4e5d	0.038893092
90	0xbcfc4f37	-0.030799491
91	0xbbcfde72	-0.006343656
92	0xbc297968	-0.010343887
93	0x3d38e2f0	0.0451383
94	0xbbdd30c3	-0.0067501976
95	0xbda52899	-0.08064384
96	0x3d64583d	0.055748213
97	0xbe000cce	-0.12504885
98	0xbc9b3e88	-0.018950716
99	0xbd2a9334	-0.04164429
100	0xbd439fe7	-0.047759917
101	0x3c8b6548	0.017016068
102	0x3cad8169	0.021179872
103	0xbdda7746	-0.10667281
104	0xbaab175f	-0.001305323
105	0x3d61046a	0.05493585
106	0xbe007a1b	-0.1254658
107	0x3d2227c6	0.039588712
108	0x3b8f1174	0.0043660942
109	0x3d6f4a61	0.058420543
110	0xbd07a60c	-0.03311734
111	0xbdd535c2	-0.10410644
112	0xbd11b673	-0.035574388
113	0xba5d334a	-0.00084381236
114	0x3cc56d6f	0.024100034
115	0x3d829c07	0.06377416
116	0xbe200caa	-0.15629831
117	0xbdd2b56b	-0.10288509
118	0x3caed412	0.021341357
119	0x3d7f7f39	0.06237719
120	0x3d39b4a1	0.045338277
121	0x3d4fd589	0.050740752
122	0xbd22e780	-0.039771557
123	0xbd41d2e6	-0.04732027
124	0xbd87edc9	-0.06637151
125	0x3ccd6b2d	0.02507552
126	0xbd1e178a	-0.038596667
127	0x3d38029a	0.044924356
128	0xbd571fa3	-0.052520406
129	0x3c9ffed2	0.019530687
130	0x3d9eb3c3	0.077491306
131	0x3d9d5a4b	0.07683238
132	0x3d7f1512	0.062275954
133	0xbe07f524	-0.13277107
134	0xbdeea055	-0.11651675
135	0xbd3e2642	-0.046423204
136	0xbda0c25c	-0.07849571
137	0xbd070c3a	-0.032970645
138	0xbc7c7cb9	-0.015410596
139	0xbdc4dac6	-0.0961204
140	0x3cb1cb62	0.021703426
141	0xbd027b59	-0.031855915
142	0x3cdf1410	0.027231246
143	0xbd982c82	-0.07430364
144	0xbd890878	-0.066910684
145	0xbd6ae0c7	-0.05734327
146	0xbbc6288d	-0.0060473145
147	0x3b11302d	0.002215396
148	0xbd91f67d	-0.07127092
149	0xbc99a828	-0.018756941
150	0xbc7ae0d4	-0.015312392
151	0xbdc6e344	-0.09711316
152	0xbcda649b	-0.0266593
153	0x3c556ac6	0.013025945
154	0x3d0aaac2	0.033854254
155	0xbd2d2139	-0.04226801
156	0xbd73928c	-0.05946593
157	0xbd83a95d	-0.06428788
158	0x3d1d261c	0.038366422
159	0x3cde5a3e	0.02714264
160	0x3d969c4c	0.0735403
161	0x3d206f11	0.03916842
162	0x3d8e9966	0.06962852
163	0xbd2ebe58	-0.042661995
164	0x3db07696	0.086163685
165	0x3de43084	0.11142066
166	0x3c5d747c	0.013516542
167	0x3d2d957f	0.0423789
168	0x3d19a218	0.0375081
169	0x3cc90de2	0.024542753
170	0xbd3ab4de	-0.045582645
171	0x3cf1f5ab	0.029536089
172	0xbc689b64	-0.014197204
173	0xbd39e2d1	-0.045382325
174	0x3c750df4	0.01495694
175	0xb90c1c83	-0.00013362062
176	0x3cde2244	0.027115948
177	0xbdc5d441	-0.09659625
178	0xbd8718f7	-0.065965585
179	0x3d94cc70	0.07265556
180	0x3c26528a	0.010151515
181	0x3d59b2e6	0.053149126
182	0xbbd5b157	-0.0065213847
183	0x3ceafc89	0.028684871
184	0xbd4b2504	-0.049595848
185	0x3d8f79af	0.07005631
186	0xbdedc5c8	-0.116099894
187	0xbda593f7	-0.08084863
188	0xbccca00a	-0.024978656
189	0xbd570c7e	-0.052502148
190	0x3dd933dc	0.106055945
191	0xbdecd5a1	-0.11564184
192	0xbd50fb42	-0.051020868
193	0xbd3fd056	-0.046829544
194	0x3de01f5b	0.109434806
195	0x3e05f48b	0.13081567
196	0x3c60cf9d	0.013721374
197	0x3bc30f73	0.0059527694
198	0xbe06e85e	-0.13174579
199	0xbd2cab3b	-0.042155486
200	0xbd3c4a58	-0.045969337
201	0xbbf4cfe6	-0.0074710725
202	0x3deace56	0.11465137
203	0x3c7d4ab1	0.015459702
204	0xbe07877a	-0.13235274
205	0xbd2f32de	-0.04277312
206	0xbc7b8154	-0.015350658
207	0xbd4a40c9	-0.04937819
208	0xbb5fccec	-0.0034149243
209	0x3ca927cb	0.020648858
210	0x3bedecef	0.0072609107
211	0x3cc074a0	0.023493111
212	0xbd13cc3e	-0.036083452
213	0x3da87610	0.08225644
214	0xbbbbcaa8	-0.0057309456
215	0xbc86fafd	-0.016477102
216	0x3dc56012	0.096374646
217	0x3d2d8fba	0.042373396
218	0x3e145a71	0.14487626
219	0xbcbe66d4	-0.023242392
220	0xbda1be3a	-0.07897611
221	0x3d390d71	0.045178834
222	0x3cb0d952	0.021588001
223	0xbdb53ab9	-0.08849091
224	0xbca41d3e	-0.020033475
225	0xbd44ce5a	-0.048048355
226	0xbe08f787	-0.13375674
227	0x3bf892ac	0.007585844
228	0x3dc1bd5b	0.09459945
229	0x3c8ea140	0.017410874
230	0x3d1eab71	0.038737718
231	0x3c5e5966	0.013571119
232	0x3d230243	0.03979708
233	0xbcd74415	-0.026277581
234	0x3dd81670	0.105511546
235	0x3c841040	0.01612103
236	0xbd68fbb1	-0.056880657
237	0xbcba27ca	-0.022724051
238	0x3a0f0280	0.00054553896
239	0xbca0c9ba	-0.01962744
240	0xbdd0604d	-0.10174618
241	0xbd36f000	-0.044662476
242	0x3d3df3dd	0.046375144
243	0x3b9b1dfb	0.0047337986
244	0xbce3645d	-0.027757818
245	0xbd771a28	-0.06032768
246	0x3cb147ca	0.021640677
247	0xbd038fb3	-0.032119464
248	0xbd5263bb	-0.05136464
249	0xbd58be55	-0.05291589
250	0x3dab68ab	0.08369573
251	0x3cdb121a	0.02674203
252	0x3d30d995	0.043176252
253	0xbcdcd1ac	-0.026955448
254	0xbcae219a	-0.021256257
255	0xbd16610c	-0.036713645

network_body.linear_encoder.seq_layers.0.bias f4 [128]
0	0xbd5a688f	-0.05332237
1	0x3c03ce23	0.008044752
2	0x3db69c13	0.089164875
3	0x3b2f37e1	0.0026736187
4	0xbd4c30e2	-0.049851306
5	0xbc7bec46	-0.015376156
6	0x3cdc7fd5	0.026916424
7	0x3ca079c7	0.019589318
8	0xbd8727c4	-0.065993816
9	0xbc2c1901	-0.010504008
10	0xbbd37b62	-0.0064539174
11	0xbc8a0759	-0.016849207
12	0x3d142144	0.036164537
13	0x3b0c12fc	0.002137362
14	0xbd3e2ee4	-0.046431437
15	0xbd33eb33	-0.043925475
16	0xbc9c20f0	-0.019058675
17	0xbd963699	-0.073346324
18	0xbc77588a	-0.015096793
19	0xbae56132	-0.001750028
20	0xbd19a87c	-0.037514195
21	0x3c57912b	0.013157169
22	0x3c42cf73	0.01189028
23	0x3d8f6657	0.07001942
24	0x3c88ff26	0.016723227
25	0x3dd50d56	0.10402934
26	0xbce0020a	-0.027344722
27	0x3d2e2ba2	0.04252208
28	0x3d005f31	0.03134078
29	0xbd586268	-0.052828223
30	0x3ca8229b	0.020524314
31	0xbc3b8193	-0.011444467
32	0x3d69ef8d	0.05711322
33	0x3ce4df80	0.027938604
34	0x3d198c82	0.037487514
35	0xbcc35207	-0.023842825
36	0x3cb89ead	0.0225366
37	0x3ccd8ba3	0.025090998
38	0xbb8e4b84	-0.0043424983
39	0xbcce8619	-0.025210427
40	0xbd06525f	-0.0327934
41	0x3d14163d	0.03615402
42	0x3b426364	0.0029661292
43	0x3d8efc4b	0.06981715
44	0x3c50be64	0.012740705
45	0xbd4d3240	-0.05009675
46	0xbc94a071	-0.01814291
47	0xbda40c9a	-0.08010216
48	0x3c940b6d	0.018071854
49	0xbc75bbdd	-0.014998403
50	0x3c98eb9c	0.018667035
51	0x3c55e690	0.013055459
52	0x3d791aca	0.060816564
53	0x3d28fc74	0.041256383
54	0xbbdfca6d	-0.006829551
55	0xbd2d8610	-0.04236418
56	0xbda0c89a	-0.07850762
57	0xbd82bd4c	-0.06383762
58	0xbced9451	-0.029001387
59	0xbd20d4af	-0.03926533
60	0xbc373db7	-0.011184148
61	0xbce551bc	-0.027993076
62	0xbd47d242	-0.0487845
63	0xbd7e28c7	-0.062050607
64	0x3dbc8c76	0.09206478
65	0xbdaa463b	-0.08314177
66	0x3c234b52	0.009966688
67	0x3db8ddd4	0.09026685
68	0x3b3f558a	0.0029195272
69	0x3cadd177	0.021218045
70	0x3c28b541	0.010297121
71	0x3cf9546f	0.030435769
72	0x3c685c1f	0.01418212
73	0x3c28aecc	0.010295581
74	0x3c3b0ddf	0.011416881
75	0x3d1120e0	0.035431743
76	0x3d229087	0.039688613
77	0x3dde27b5	0.10847417
78	0x3d31fc8e	0.043453746
79	0x3d67c4f0	0.0565843
80	0xbd648349	-0.055789266
81	0x3dd1c9ae	0.102435455
82	0x3ba28cb5	0.0049606212
83	0xbd8f774d	-0.07005177
84	0xbcd71c18	-0.026258513
85	0x3c84e18d	0.016220832
86	0x3d97d41b	0.07413503
87	0xbd36945e	-0.044575088
88	0x3bba9afa	0.005694744
89	0x3d1a0721	0.037604455
90	0x3af04ada	0.0018332854
91	0xbc4c4a72	-0.012468921
92	0x3d8f0d91	0.069850095
93	0x39cde138	0.00039268448
94	0xbd87e41e	-0.06635307
95	0x3da70866	0.08155899
96	0x3cdb803d	0.026794547
97	0xbcb8f9f6	-0.022580128
98	0xbc2f6f86	-0.010707742
99	0xbd631687	-0.055441406
100	0xbd3eedba	-0.046613432
101	0x3ca25499	0.01981573
102	0x3d493885	0.049126167
103	0x3c280f37	0.010257534
104	0x3c2a27df	0.010385483
105	0x3c5610b7	0.013065509
106	0xbd08f62c	-0.033437893
107	0xbc71ce37	-0.014758638
108	0x3c01bf0d	0.007919085
109	0x3c3a0ec1	0.011356057
110	0x3ce735ae	0.028223839
111	0x3b24fade	0.0025173943
112	0x3d6ad7ca	0.0573347
113	0x3c75229b	0.014961864
114	0xbd9e3166	-0.07724266
115	0xbb5fd2ca	-0.003415274
116	0x3d367582	0.044545658
117	0xbd3fb610	-0.046804488
118	0xba4a35d3	-0.0007713709
119	0xbd1da9d0	-0.038492024
120	0xbd82956a	-0.06376155
121	0xbcc658a9	-0.024212198
122	0x3a3ff58e	0.0007322662
123	0x3b829b24	0.0039857794
124	0xbd4217b6	-0.047385894
125	0x3da97220	0.08273721
126	0xbd7ad08f	-0.061234053
127	0xbcf67059	-0.030082868

network_body.linear_encoder.seq_layers.0.weight f4 [128, 29]
0	0xbe10f0ec	-0.14154404
1	0x3d2506d8	0.04028973
2	0xbe6ed24b	-0.23322408
3	0xbd12082a	-0.035652317
4	0xbe001bf3	-0.12510662
5	0x3eac94ea	0.33707362
6	0xbe92b615	-0.28654543
7	0x3df98eec	0.12185463
8	0xbd96c1bb	-0.0736117
9	0xbf1e64be	-0.6187247
10	0xbd8ea85d	-0.069657065
11	0x3d0ce614	0.034399107
12	0xbed3c9b5	-0.41364828
13	0x3e27f074	0.1640032
14	0x3f0852e8	0.53251505
15	0xbe82239e	-0.254178
16	0xba2b7dda	-0.00065418857
17	0xbe2d012d	-0.1689498
18	0xbeaed185	-0.34144226
19	0x3df5beab	0.11999258
20	0xbc91e5e1	-0.01780981
21	0x3eaf17e5	0.34197918
22	0x3da521a4	0.08063057
23	0x3f0b1ab6	0.5433763
24	0xbcdd646e	-0.027025428
25	0xbe798ca8	-0.24370062
26	0x3e129dbe	0.14317986
27	0x3edfbf36	0.4370057
28	0x3e075fd8	0.13220155
29	0xbe192c69	-0.14958347
30	0xbe100416	-0.14064059
31	0x3e8c88cb	0.27448115
32	0xbe1e0bfb	-0.15434258
33	0x3e3747fe	0.17898557
34	0xbe3f244b	-0.18666188
35	0x3daff6b8	0.0859198
36	0x3c124413	0.008927363
37	0x3e81dff7	0.25366184
38	0xbd15dd53	-0.036588024
39	0x3e2903bc	0.16505331
40	0xbeae1c28	-0.34005857
41	0x3e4261aa	0.18982568
42	0xbdbdf671	-0.092755206
43	0x3ea1abe0	0.31576443
44	0x3dba5551	0.09098304
45	0xbdd97e6d	-0.10619817
46	0xbec3c6fb	-0.38237748
47	0x3d5c9052	0.053848572
48	0x3daf5d5e	0.0856273
49	0x3dabbd64	0.08385733
50	0xbe9ec75e	-0.3101148
51	0xbe93792a	-0.28803378
52	0x3d91be83	0.07116415
53	0x3d8ff5a4	0.07029274
54	0xbe1393fa	-0.14411917
55	0x3e656ca8	0.2240473
56	0xbd946e38	-0.07247585
57	0x3ead9365	0.33901516
58	0xbebe149a	-0.37125093
59	0xbe845b32	-0.25850827
60	0x3e99f5a9	0.30070236
61	0xbd20662a	-0.03915993
62	0x3e84dbc1	0.2594891
63	0xbd5b3d30	-0.05352515
64	0xbc8384f8	-0.016054615
65	0x3ed405cb	0.4141067
66	0x3df79500	0.12088966
67	0x3dcf3c91	0.10118974
68	0xbdb28ed5	-0.08718649
69	0x3bef16d6	0.0072964234
70	0xbe079514	-0.13240463
71	0x3c1b8532	0.009492205
72	0xbe6f9077	-0.23394953
73	0x3e02e83c	0.12783903
74	0xbd19fc40	-0.03759408
75	0xbf0f8339	-0.56059605
76	0xbda25b58	-0.07927579
77	0x3d07e7d7	0.033180084
78	0x3e3177d4	0.17330867
79	0x3e91b649	0.28459385
80	0xbf517427	-0.8181786
81	0x3e1a84c6	0.15089712
82	0xbea03384	-0.31289303
83	0x3d1458d0	0.03621751
84	0xbd967944	-0.07347348
85	0x3e2af060	0.16693258
86	0xbe9a482c	-0.30133188
87	0x3e87d233	0.26527557
88	0xbcd45705	-0.0259204
89	0x3eb89c50	0.36056757
90	0xbc1f7f5c	-0.009734955
91	0xbe88b1d2	-0.26698166
92	0x3de0f906	0.109849975
93	0xbe2efafb	-0.17087929
94	0x3e6362d7	0.22205673
95	0x3dda35f7	0.10654824
96	0xbc79ae31	-0.015239284
97	0xbdec9386	-0.11551575
98	0xbe2e90da	-0.17047444
99	0xbd9b3dad	-0.07580123
100	0xbd0aa20c	-0.033845946
101	0xbc537e24	-0.012908492
102	0x3b282483	0.0025656528
103	0xbe9c43d3	-0.30520496
104	0xbe524621	-0.20534565
105	0x3e9b4ea4	0.30333436
106	0xbe8ab180	-0.27088547
107	0x3e2d8f12	0.16949108
108	0x3ea9487a	0.33063108
109	0xbcfcd460	-0.030862987
110	0xbd99509b	-0.074860774
111	0xbe8e48d4	-0.27789938
112	0xbe86c572	-0.26322514
113	0xbd860748	-0.065443575
114	0xbd11022c	-0.035402462
115	0x3cafcab4	0.021458961
116	0x3e987be4	0.2978202
117	0xbe87c566	-0.2651779
118	0xbe81ba00	-0.2533722
119	0x3e946cc1	0.28989223
120	0xbd097c6b	-0.03356592
121	0xbe60b35f	-0.21943425
122	0x3e2ee36e	0.17078945
123	0xbe16b520	-0.14717531
124	0x3e5ac60f	0.21364616
125	0x3e1df5f4	0.15425855
126	0xbbc6b8da	-0.0060645165
127	0xbd9fde25	-0.078060426
128	0xbd2d3e0b	-0.042295497
129	0x3da44273	0.08020487
130	0xbde7543b	-0.112953626
131	0xbe6f59a6	-0.23374042
132	0x3e1e4943	0.15457635
133	0xbebb5725	-0.36589924
134	0x3ecffa0b	0.40620455
135	0x3dc51bcb	0.09624442
136	0x3ea7f99a	0.32807618
137	0x3e831c4e	0.25607532
138	0xbe8c95ec	-0.2745813
139	0x3c02f24d	0.007992339
140	0x3d91c6a4	0.07117966
141	0x3e692bb7	0.22770582
142	0x3dd7a6b3	0.10529842
143	0xbe531fa2	-0.20617536
144	0xbd2cff50	-0.042235672
145	0xbd107d49	-0.03527573
146	0xbe5ac46b	-0.2136399
147	0xbe36ec08	-0.17863476
148	0xbdc12ab1	-0.09431971
149	0x3e6a64cc	0.22890013
150	0xbd99eca0	-0.07515836
151	0xbdc78204	-0.097415954
152	0xbe56fc92	-0.20994785
153	0xbcb11199	-0.021614837
154	0xbde74e13	-0.11294188
155	0x3e28f855	0.16500981
156	0xbe45b5ae	-0.19307587
157	0xbc7bc979	-0.015367859
158	0xbe759f87	-0.23986636
159	0x3d01ab97	0.03165778
160	0x3e0340a3	0.12817626
161	0x3ce35ff0	0.027755708
162	0xbe06cc8f	-0.1316397
163	0x3cba5d34	0.02274952
164	0x3ce91e1c	0.02845674
165	0xbc9de7e7	-0.019275619
166	0x3d4b054d	0.049565602
167	0xbe172fca	-0.14764324
168	0xbdc5694d	-0.09639225
169	0x3e4c4e2d	0.19951697
170	0xbda035d3	-0.07822766
171	0x3df32253	0.11871781
172	0xbed1245f	-0.4084806
173	0x3ea72583	0.32645807
174	0xbe12925a	-0.14313641
175	0x3e303c21	0.17210437
176	0x3de1fae9	0.110341854
177	0x3e4be8cb	0.19913022
178	0x3c9a3e7f	0.018828629
179	0x3bce1ea6	0.0062902747
180	0xbe040756	-0.12893423
181	0xbd3515be	-0.044210188
182	0x3e91e7c3	0.28497133
183	0xbe9057ad	-0.2819189
184	0xbebd906d	-0.3702425
185	0xbd01c7c3	-0.03168465
186	0xbe4b781f	-0.19870041
187	0x3deeed86	0.11666398
188	0xbe809b95	-0.251187
189	0x3e3512e0	0.17682981
190	0x3e1725f0	0.14760566
191	0xbe4c6bef	-0.19963048
192	0xbc11682c	-0.008874934
193	0xbe1afc46	-0.15135297
194	0xbd5e2a06	-0.054239295
195	0xbe1030aa	-0.14081064
196	0xbdcb32d9	-0.09921808
197	0xbe93a2cc	-0.28835142
198	0xbea41bb9	-0.320524
199	0xbe87c246	-0.26515406
200	0x3e09ab08	0.1344415
201	0xbea6e10d	-0.32593575
202	0x3c984897	0.018589301
203	0xbecd6d81	-0.40122607
204	0x3d788b4e	0.060679726
205	0xbd65f150	-0.056138337
206	0xbd169c16	-0.03676995
207	0xbdadec63	-0.08492353
208	0x3edb764d	0.42863694
209	0xbc3c909f	-0.01150909
210	0x3dd9b787	0.10630708
211	0xbe62cefd	-0.22149272
212	0x3c47eae6	0.012202
213	0x3d0d67d0	0.03452283
214	0x3e950122	0.29102427
215	0xbe420af7	-0.18949495
216	0x3ec80029	0.39062622
217	0x3e84320e	0.2581944
218	0x3e23d18e	0.15997908
219	0x3e11453b	0.14186566
220	0xbe81b7d2	-0.25335556
221	0xbe1199ef	-0.14218877
222	0xbad7e9a1	-0.0016472825
223	0xbe8ebf04	-0.27880108
224	0xbb8115d3	-0.003939369
225	0x3e11e952	0.14249161
226	0x3d2598bc	0.040428862
227	0x3e07b737	0.13253485
228	0xbe0fa30d	-0.14027043
229	0x3e79bb02	0.24387744
230	0x3e546307	0.20740901
231	0xbee2bf78	-0.44286704
232	0xbd282f37	-0.041060653
233	0xbda851ad	-0.082187034
234	0xbe639c62	-0.22227624
235	0xbd938159	-0.072024055
236	0xbdc8e5e2	-0.09809472
237	0x3e845bdb	0.2585133
238	0x3db519b4	0.08842793
239	0xbbcf27ab	-0.0063218675
240	0x3da0bb1e	0.0784819
241	0x3d0c6125	0.03427233
242	0x3e139efd	0.14416118
243	0xbd2a78c5	-0.04161908
244	0xbe569a12	-0.2095721
245	0x3df8f618	0.12156314
246	0x3e5d1be3	0.21592669
247	0x3d1a3aac	0.03765361
248	0x3b8d749f	0.004316881
249	0xbe157269	-0.14594425
250	0x3c809497	0.015695853
251	0x3d9016b3	0.070355795
252	0xbee64567	-0.44974825
253	0xbe502d56	-0.20329794
254	0x3de3fdef	0.11132418
255	0x3eca02a3	0.39455137

network_body.linear_encoder.seq_layers.2.bias f4 [128]
0	0xbcc3e7f0	-0.023914307
1	0xb89c2ebb	-7.447364e-05
2	0x3d650844	0.055916086
3	0xbd3cdfa2	-0.04611171
4	0xbb9e65aa	-0.0048338966
5	0xbca94a93	-0.020665443
6	0xbca2ae91	-0.01985863
7	0xba881653	-0.001038263
8	0xbb4fa703	-0.003168524
9	0x3d1b67f1	0.037940923
10	0xbb97d677	-0.0046337205
11	0x3c7ebafd	0.015547511
12	0xbc01dcfc	-0.007926222
13	0xbd2ea4ed	-0.042637754
14	0xbd4a6870	-0.049416006
15	0xbbc3a725	-0.005970853
16	0xbc37e924	-0.011225019
17	0x3d30802a	0.043090977
18	0xbc6e7bc9	-0.01455588
19	0x3c201c7e	0.009772418
20	0xbc263e32	-0.010146664
21	0xbaa2b3dc	-0.0012413221
22	0x3ca28089	0.019836681
23	0x3c9f3ed8	0.019439146
24	0x3caadbd9	0.020856785
25	0x3c9ed9a1	0.019390883
26	0x3c33c2b6	0.010971716
27	0x3b122d55	0.0022304852
28	0x3733c3f8	1.0714859e-05
29	0xbae48cf2	-0.0017437025
30	0xbd2b4522	-0.041813977
31	0x3cc29b2f	0.023755638
32	0x3c99ab89	0.018758552
33	0xbc316880	-0.010828137
34	0x3c7295a0	0.014806181
35	0x3ceed459	0.02915399
36	0xbc1a1baa	-0.00940601
37	0xbc9381e6	-0.018006276
38	0xbcc21b13	-0.02369455
39	0xbcbc7409	-0.023004549
40	0xbcaca702	-0.02107573
41	0x3c89f9c9	0.01684274
42	0xbceb0261	-0.028687658
43	0x3ba41778	0.0050076805
44	0x3cb15685	0.021647701
45	0xbd5fa112	-0.054596968
46	0x3b35b62a	0.0027726986
47	0xbb3f1be3	-0.002916091
48	0x3c87c441	0.016573073
49	0x3d95a77b	0.07307335
50	0xbd146759	-0.036231373
51	0xbd0e81a5	-0.034791607
52	0xbd452a39	-0.04813597
53	0xbd1eea2b	-0.03879754
54	0x3d2d453a	0.042302348
55	0xbcfcf4c8	-0.03087844
56	0xbc000481	-0.007813574
57	0xbd828c0e	-0.063743696
58	0x3d21b0a5	0.039475102
59	0xbc349d31	-0.0110238055
60	0x3cb6c0b9	0.022308694
61	0xbd272832	-0.040809818
62	0x3ce5abf1	0.02803609
63	0x3ce9e1ef	0.028550116
64	0xbc35e609	-0.011102208
65	0xbbbfdacc	-0.00585494
66	0xbce68023	-0.028137272
67	0xbd0fa85d	-0.035072673
68	0x3d0350c6	0.032059453
69	0x3d82201a	0.06353779
70	0xbb7c82d1	-0.003853012
71	0xbd3f0d56	-0.046643578
72	0xbd5edc77	-0.05440947
73	0x3d50d32f	0.05098265
74	0x3c0b1a86	0.00849021
75	0xbd58f0ed	-0.05296414
76	0x3d08dc96	0.033413492
77	0x3d243e42	0.040098436
78	0xbdaf6910	-0.08564961
79	0x3c937d09	0.018003957
80	0xbd2365f1	-0.03989214
81	0xbd138fd3	-0.036025833
82	0xbc789f18	-0.01517465
83	0x3b4b4daf	0.0031021645
84	0x3cf23777	0.029567463
85	0xbca2799c	-0.019833378
86	0x3cc8f14e	0.024529126
87	0xbda41a5f	-0.080128424
88	0x3d98dfdb	0.07464572
89	0xbdab8056	-0.083740875
90	0x3dca5c86	0.09880929
91	0xbcc28eeb	-0.02374979
92	0xbd84f87b	-0.064927064
93	0x3cf3297c	0.029682867
94	0x3906539c	0.00012810383
95	0xbcb0b86f	-0.02157232
96	0x3d0ea7fc	0.03482817
97	0xbcec4a84	-0.028844126
98	0xbd49cd26	-0.04926791
99	0x3d47f8a9	0.048821125
100	0xbd3dc343	-0.046328794
101	0xbd414db4	-0.047193244
102	0xbc340146	-0.010986632
103	0xbdda3d60	-0.106562376
104	0xbd8ccfe3	-0.06875589
105	0xbc0f6a5b	-0.008753384
106	0x3b89b7c1	0.0042028134
107	0xbb467a0d	-0.003028515
108	0x3bdffa1e	0.006835236
109	0xbd531c88	-0.05154088
110	0xbcb27a05	-0.0217867
111	0xbd96eaff	-0.07369041
112	0xbb1bb8f9	-0.0023761375
113	0x3ba951e8	0.0051672347
114	0x3cc15a1b	0.023602536
115	0xbd52068f	-0.051275786
116	0xbcdb8245	-0.026795516
117	0xbd04517d	-0.032304276
118	0xbcbf8477	-0.023378594
119	0x3dee38e6	0.11631946
120	0x3d18401d	0.03717052
121	0x3bdf1399	0.006807756
122	0x3d6a842f	0.057254966
123	0xbd554428	-0.052066952
124	0x3cd8fd0e	0.026487853
125	0x3ce1aa4e	0.027547028
126	0xbc0df86e	-0.008665187
127	0x3c658d23	0.0140107

network_body.linear_encoder.seq_layers.2.weight f4 [128, 128]
0	0xbcdbeacb	-0.026845356
1	0x3e143683	0.1447392
2	0x3c2eda70	0.010672197
3	0x3d4bdd6d	0.049771715
4	0xbb7c9767	-0.0038542391
5	0x3bba2d1a	0.005681646
6	0x3d4e2889	0.050331626
7	0xbdba3eb1	-0.09093989
8	0x3e7327ad	0.23745604
9	0xbda29b08	-0.07939726
10	0xbdcc3cce	-0.09972535
11	0xbe5c1284	-0.21491438
12	0xbdb8fdc3	-0.09032776
13	0xbde7a476	-0.11310665
14	0x3d796470	0.0608868
15	0x3bf48ca5	0.007463055
16	0xbd228290	-0.039675295
17	0xbba61dc9	-0.0050694686
18	0xbe469dab	-0.19396083
19	0xbe021c5a	-0.12706128
20	0x3e57c410	0.21070886
21	0x3da6ba75	0.081410326
22	0xbdb7e11e	-0.089784846
23	0x3e0c2c33	0.13688736
24	0xbe3f7ccb	-0.18699948
25	0x3dbc1134	0.09182969
26	0x3d92b222	0.071628824
27	0x3d61a40e	0.055088095
28	0xbe7b47ba	-0.2453908
29	0xbdfa2a2c	-0.12215075
30	0x3d63ece1	0.055645827
31	0x3d7da603	0.0619259
32	0xbe819a42	-0.25313002
33	0x3dbc00c2	0.09179832
34	0x3e1b68c2	0.1517668
35	0x3e09f7c1	0.13473417
36	0xbcf056e1	-0.029338302
37	0xbe068094	-0.13134986
38	0xbe02b21e	-0.12763259
39	0x3e10e39a	0.14149323
40	0x3e7ac972	0.24490908
41	0x3e29bbf6	0.16575608
42	0x3db9e024	0.090759546
43	0xbe2d153e	-0.16902635
44	0xbd2bc550	-0.04193622
45	0x3e0fbce2	0.14036897
46	0xbcd68684	-0.026187189
47	0xbde3089f	-0.11085629
48	0x3e5b71bc	0.21430105
49	0xbd9beedb	-0.076139174
50	0x3d906f1e	0.07052444
51	0x3dce2903	0.10066416
52	0xbe1f5b91	-0.15562274
53	0xbe89a2c1	-0.26881984
54	0x3e236b33	0.15958862
55	0x3e0ba5b1	0.13637425
56	0x3ce46d30	0.027884096
57	0x3e35459d	0.17702337
58	0xbd1a24c6	-0.037632726
59	0x3e8c4513	0.2739645
60	0xbdfc12f3	-0.12308302
61	0x3d3505ba	0.044194914
62	0xbe8a5809	-0.2702029
63	0xbd1794de	-0.037007205
64	0xbc9ea479	-0.019365536
65	0xbd9ea307	-0.07745939
66	0xbe6e660d	-0.23281117
67	0x393746e1	0.00017478644
68	0xbc039c17	-0.00803282
69	0xbcb43fd4	-0.022003092
70	0xbe30f970	-0.17282653
71	0x3a947f7f	0.0011329501
72	0x3d60d392	0.05488927
73	0xbc2fe72f	-0.010736271
74	0xb870151b	-5.7240115e-05
75	0xbd77b30f	-0.060473498
76	0xbdb2064b	-0.086926065
77	0xbdcf43db	-0.10120364
78	0xbd5d1843	-0.053978216
79	0xbdf951ef	-0.12173831
80	0x3dee023b	0.11621519
81	0xbe48e32f	-0.19617914
82	0xbcd0dc0d	-0.025495553
83	0x3cf76b97	0.03020267
84	0xbc5f4721	-0.013627798
85	0xbd6695b2	-0.056295104
86	0xbe4bd06a	-0.19903722
87	0x3d26eb20	0.040751576
88	0xbd802fdd	-0.06259129
89	0xbe12d9ef	-0.14340948
90	0xbde54727	-0.11195212
91	0x3d244868	0.040108114
92	0xbe0c7246	-0.13715467
93	0xbe7a924d	-0.24469872
94	0xbe05983a	-0.13046351
95	0xbc2a208b	-0.010383735
96	0x3d5251c6	0.051347516
97	0x3cfa8ffd	0.030586237
98	0x3aef0524	0.0018235785
99	0xbddbc3cd	-0.107307054
100	0xbdcdc310	-0.10046971
101	0xbb0733a9	-0.0020630157
102	0x3db2194f	0.086962335
103	0x3db182a8	0.08667499
104	0x3e4c3879	0.19943418
105	0xbdb0def8	-0.08636278
106	0xbe3344bd	-0.1750669
107	0xbcfe2b49	-0.0310265
108	0x3d4f2d9e	0.050580613
109	0xbcba7463	-0.022760576
110	0xbdea5c39	-0.11443371
111	0xbdfd674a	-0.123732165
112	0xbccf98fb	-0.025341501
113	0x3d95b7e2	0.073104635
114	0x3d0fad57	0.03507742
115	0xbe1c5558	-0.15266931
116	0x3c716839	0.014734321
117	0x3d069e39	0.032865737
118	0xbdfc1494	-0.123086125
119	0x3e27c0ad	0.16382094
120	0x3dd0f0c2	0.10202171
121	0x3db0a61b	0.08625432
122	0xbdbe54a7	-0.0929349
123	0x3dc57f61	0.09643436
124	0xbdb7610c	-0.08954057
125	0xbdaee331	-0.08539427
126	0xbda7f99d	-0.08201907
127	0x3cd41b03	0.025891786
128	0xbdf08698	-0.11744422
129	0xbe340c1e	-0.17582747
130	0xbe9a6ed7	-0.3016269
131	0xbe98eceb	-0.29868254
132	0x3e4e7dcf	0.2016518
133	0x3cd02d4c	0.025412224
134	0x3e01a4ed	0.1266057
135	0xbe0887eb	-0.13333099
136	0x3ccf1fdd	0.025283748
137	0xbe44d674	-0.19222432
138	0xbc80c2df	-0.015717922
139	0x3d831857	0.06401127
140	0xbc88fb27	-0.016721321
141	0x3e01cc20	0.12675524
142	0xbd26623d	-0.04062103
143	0xbdb4332a	-0.08798821
144	0xbc338987	-0.010958082
145	0x3d164058	0.036682457
146	0x3e0989ff	0.13431548
147	0x3c884d4f	0.016638426
148	0x3d632728	0.055457264
149	0xbe6d8ff7	-0.2319945
150	0xbeb7e333	-0.35915527
151	0xbdcf79b9	-0.10130639
152	0xbd944bb6	-0.07241003
153	0xbc8d6413	-0.017259633
154	0xbd2b3017	-0.04179391
155	0xbdca0102	-0.098634735
156	0xbe032cfd	-0.1281013
157	0x3dec9fe3	0.115539335
158	0xbd47c3b6	-0.04877063
159	0xbc826a70	-0.015919894
160	0xbdb66f1c	-0.08907911
161	0x3bd0dfa5	0.0063743168
162	0xbcd9f7d4	-0.026607431
163	0xbd244fb7	-0.040115084
164	0x3e0fe5ee	0.14052555
165	0x3c299c0f	0.010352149
166	0x3e0386ae	0.12844345
167	0x3e248d86	0.16069612
168	0x3e19bdfe	0.15013883
169	0xbdda9180	-0.10672283
170	0xbe0860f1	-0.1331823
171	0xbe31ab95	-0.1735061
172	0x3e8718d4	0.2638613
173	0x3d8b41c0	0.0679965
174	0x3db8fe14	0.090328366
175	0xbda93ca6	-0.08263521
176	0x3c2af9df	0.0104355505
177	0x3dc42590	0.09577477
178	0xbe665b68	-0.22495806
179	0xbd0cfd37	-0.034421172
180	0xbd80a322	-0.06281115
181	0x3e320443	0.17384438
182	0xbd0da76d	-0.034583498
183	0x3ca2248a	0.019792814
184	0x3d23a980	0.03995657
185	0x3e13fbf1	0.14451577
186	0x3d2db089	0.042404685
187	0x3bd51d0b	0.0065037063
188	0x3d803b28	0.06261283
189	0xbdbe17a5	-0.092818536
190	0xbe8e0ceb	-0.2774423
191	0x3b64815e	0.0034867148
192	0xbe404506	-0.1877633
193	0x3e50aae0	0.20377684
194	0x3e330419	0.17482032
195	0x3e563332	0.20917967
196	0xbdfac0aa	-0.12243779
197	0x3cdb445e	0.026765998
198	0xbd9675f9	-0.0734672
199	0x3dd80677	0.10548108
200	0x3dacfd03	0.08446696
201	0xbce6ac66	-0.028158378
202	0xbdd55bf8	-0.10417932
203	0x3d868450	0.06568205
204	0x3b8a8de0	0.0042283386
205	0xbe7247d9	-0.2366022
206	0x3e63dcf3	0.22252254
207	0x3d2505eb	0.040288847
208	0xbe1dadf7	-0.15398394
209	0xbe158452	-0.14601257
210	0x3db90411	0.09033979
211	0x3e165857	0.14682136
212	0x3cc1e487	0.02366854
213	0xbe12eaa3	-0.1434732
214	0x3d28a666	0.041174315
215	0xbe19edf6	-0.15032181
216	0x3c3c6912	0.01149966
217	0x3d2f9ab3	0.042872142
218	0xbcc1744d	-0.023615027
219	0x3d4994cc	0.04921417
220	0x3e20398f	0.15646957
221	0xbd9c452c	-0.07630381
222	0x3c834fd9	0.016029285
223	0xbe2dae83	-0.16961102
224	0xbdfc58c0	-0.12321615
225	0xbd5e0319	-0.054202173
226	0x3bf61369	0.007509638
227	0xbe114fc1	-0.1419058
228	0xba2955e0	-0.0006459635
229	0x3e728883	0.23684888
230	0x3df91ff9	0.121643014
231	0xbd08536f	-0.033282693
232	0xbe1b909b	-0.15191881
233	0xbcbc9728	-0.023021296
234	0x3bd0da21	0.0063736592
235	0xbde9305e	-0.113861784
236	0x3dcc324a	0.099705294
237	0xbd44218d	-0.04788356
238	0x3d37f974	0.04491563
239	0xbda674f2	-0.08127774
240	0xbea5b661	-0.32365707
241	0xbd043b89	-0.03228334
242	0x3cc8582f	0.024456112
243	0xbd9c6fdb	-0.07638522
244	0xbd652fa0	-0.055953622
245	0x3e88513f	0.26624486
246	0xbd85b254	-0.06528154
247	0x3e3dbc5d	0.18528886
248	0x3e004cc1	0.1252928
249	0xbd86dc64	-0.06585005
250	0x3df600e1	0.120118864
251	0xbec2fbc8	-0.3808272
252	0xbd99b5c0	-0.07505369
253	0xbc98aa6c	-0.018635951
254	0x3e0f83c4	0.14015108
255	0x3e0a5ad0	0.13511205

network_body.vector_processors.0.normalizer.running_mean f4 [29]
0	0x3f0a6093	0.5405361
1	0x3d0fb740	0.03508687
2	0x3bd12536	0.0063826097
3	0x3d5bf4cb	0.05370025
4	0x3eeccf6f	0.4625201
5	0x3e898869	0.26861885
6	0x3df1409b	0.11779901
7	0x3c20c778	0.009813182
8	0x3c27d563	0.010243746
9	0x3f0d45a3	0.5518438
10	0x3f4d264f	0.8013658
11	0x3ca80153	0.020508444
12	0x3c03c69b	0.008042957
13	0x3d01e18e	0.031709246
14	0x3ea7c270	0.32765532
15	0x3f376a6d	0.7164677
16	0x3d467b55	0.048457462
17	0x3c2560e7	0.010093904
18	0x3c8c150b	0.017099878
19	0x3ecb2d4f	0.39683005
20	0x3f376a6d	0.7164677
21	0x3d467b55	0.048457462
22	0x3c2560e7	0.010093904
23	0x3c8c150b	0.017099878
24	0x3ecb2d50	0.39683008
25	0x41ae672f	21.800383
26	0x42556337	53.34689
27	0xba70bd08	-0.0009183441
28	0x3a4bf68b	0.0007780573
