Assets/Models/Scena2/16Feb/iRobot.onnx (onnx, 86672 bytes, 8 tensors)

58 f4 [29]
000000 9b cd f2 3e 5c 79 a1 3e ee 1d 82 3d 1b 7d d2 3e
       0.4742249 0.31537902 0.06353365 0.41111073
000010 93 7e b3 3e 0c e6 ff 3e 72 9e e4 3e 04 d0 1d 3e
       0.35057506 0.499802 0.44652134 0.15411383
000020 a5 43 ce 3e 6e 89 cb 3e 35 13 c8 3e 49 9c f8 3e
       0.40285984 0.39753288 0.39077154 0.48556736
000030 e6 8c 40 3d 52 d3 fc 3e 4f bc c9 3e 6c 54 fe 3e
       0.04700937 0.49379975 0.3940148 0.49673784
000040 d4 a4 4e 3e 3d f0 91 3d 0b 00 00 3f 52 9d d6 3e
       0.20180064 0.071259 0.50000066 0.419169
000050 6c 54 fe 3e d4 a4 4e 3e 3d f0 91 3d 0b 00 00 3f
       0.49673784 0.20180064 0.071259 0.50000066
000060 51 9d d6 3e 20 6d dc 41 9f 50 87 41 d9 8c 79 3f
       0.41916898 27.553284 16.914366 0.9748054
000070 81 dc 6f 3f
       0.9369584

action_model._discrete_distribution.branches.0.bias f4 [5]
000000 92 9e bc 3d 22 d4 2a be 5c 27 ae bd dc c1 8f 3d
       0.092099324 -0.16682485 -0.08503601 0.070193976
000010 c7 92 4f 3b
       0.003167318

action_model._discrete_distribution.branches.0.weight f4 [5, 128]
000000 d2 97 5e bb 97 cf a8 bd b4 0f 0c 3d 54 36 c5 3c
       -0.0033965004 -0.082427196 0.034194663 0.024073757
000010 a2 7f 87 bd 3e d7 71 3d f0 60 ec bd 52 17 a7 3c
       -0.06616141 0.05904316 -0.11541927 0.020396862
000020 d3 9a 9f bb a2 47 52 3c 9c cf ed bd b6 c5 3f 3c
       -0.0048707514 0.012834461 -0.11611864 0.011704853
000030 72 fd 08 3c ec e5 f5 bd 02 77 3d bc 2c 4e 35 3b
       0.008361207 -0.12006745 -0.011564018 0.0027665002
000040 de 5d 4c bc f6 3d 8f bd d5 ef 14 bc 5a d2 46 bc
       -0.012473552 -0.0699424 -0.009090384 -0.012135113
000050 74 25 74 3c 23 47 90 bd d9 6d 6d bd 49 35 86 bd
       0.014901508 -0.07044818 -0.057966087 -0.06553132
000060 39 d0 11 3d 34 34 89 3d 6d 0a 4e bd 1e bb be 3b
       0.035598967 0.0669941 -0.05030291 0.005820646
000070 4d 7f bc bd 76 ce d7 bd 77 89 08 3d 82 11 bd 3c
       -0.09203968 -0.10537426 0.03333422 0.023079637
000080 ea 69 1c 3d e1 f4 fb bb 44 69 a7 3d 4d a7 ef bc
       0.038186945 -0.007689104 0.08174375 -0.02925458
000090 58 03 f0 3b aa 65 4e 3d fc 95 b9 3d 2c 41 50 3b
       0.0073246174 0.050389923 0.090618104 0.0031777127
0000a0 b9 4e 13 bd 1d 8f 92 3d ee 69 4d bc 6a 17 83 3c
       -0.035963748 0.07156203 -0.012537463 0.016002376
0000b0 2e 11 ad 3c 7f 0b 78 3d a7 7a 8b 3c 3a 4d f0 bc
       0.021126356 0.06055784 0.017026259 -0.0293337
0000c0 9c ba fe bc ab ca 61 3d b0 bc 98 bc d9 e7 2b bd
       -0.031094842 0.05512492 -0.01864466 -0.041969154
0000d0 4d 18 d4 3c da 11 23 3c d7 d3 15 bd f3 51 8f bd
       0.025890494 0.009952987 -0.03657898 -0.069980524
0000e0 ae fa 86 3d de b5 f0 3c 5b 40 6f bd 0e 20 33 3d
       0.06590782 0.029383596 -0.058410984 0.04373174
0000f0 65 31 e0 bc 2b 70 bd bd 72 fa 36 3c f7 e7 fc bc
       -0.027367303 -0.0924991 0.011168109 -0.030872328
000100 9c 82 b4 3d 4d bf 5c 3c 7e 6a a7 3d a6 d5 bc bb
       0.08813974 0.013473344 0.08174609 -0.0057627736
000110 ed 17 ab bd d2 7e 20 bd d2 8f 1b 3c 23 6f 4e 3d
       -0.08354173 -0.039183445 0.009494739 0.050398957
000120 07 53 81 bd 6c 14 cf bb 88 f6 ad 3c dd 03 21 3c
       -0.06314664 -0.006319573 0.02123572 0.009827581
000130 30 bf d2 3d f4 94 54 bd f3 09 ec 3c c4 e1 c5 bd
       0.10290372 -0.051899865 0.028813338 -0.09662202
000140 cf fa 0c 3c 57 1d 0e 3d bd e0 b7 3c 34 a3 46 3d
       0.008604719 0.03469595 0.02244603 0.048495486
000150 3f 79 63 3d 16 1c cc bd 8c 29 30 3c 65 ed 8e 3c
       0.05553555 -0.099662945 0.010752093 0.017447183
000160 6c d0 2f 3d 52 66 9b bd 78 40 c8 3c e9 e9 08 3d
       0.042923376 -0.075878754 0.024444804 0.0334262
000170 12 78 21 bd d4 4a 54 3c 38 ba ca 3d e4 3a 95 bd
       -0.03942115 0.012957294 0.098988 -0.07286623
000180 2e c5 6b bd ac d4 8c bd 2a 99 dc 3c ca 42 b0 bd
       -0.057561092 -0.068765014 0.026928503 -0.08606489
000190 96 1e b4 3d 4f f9 ad bc 23 60 b4 bd 5b 34 3a bd
       0.08794896 -0.021237044 -0.08807399 -0.045460086
0001a0 ae a1 f8 bc c7 70 65 3d 2b 85 d0 3c ab 53 cf bc
       -0.030350532 0.056015756 0.025454124 -0.02530845
0001b0 b1 51 ec bd d9 c6 ad bd 27 22 cc 3c 23 5b 01 3d
       -0.11539019 -0.08485193 0.024918629 0.031581055
0001c0 12 63 ea bc 29 2b c7 3d 32 31 5c 3d 17 60 ea 3c
       -0.028611694 0.09725029 0.053757854 0.028610272
0001d0 3a 22 27 3c 81 6f bd bd 01 6f e7 bc d8 9b 43 3d
       0.010201031 -0.09249783 -0.028251173 0.047756046
0001e0 84 e9 c8 3c 81 2c b2 3d f9 a4 ca 3c 81 59 ac 3d
       0.024525411 0.08699895 0.024736868 0.08415509
0001f0 46 49 2e 3d ec 37 8d bd e0 c4 a3 3d a3 43 8b 3c
       0.042550348 -0.06895432 0.07996535 0.017000025
000200 4d 88 c6 bd 22 20 ee 3d 76 b8 85 3d fb 07 9a bd
       -0.09693966 0.116272226 0.06529324 -0.075210534
000210 8b 62 cd 3d 5d a2 50 3d 8f cc 8c 3d f6 f1 05 ba
       0.10028561 0.05093609 0.06874954 -0.00051096024
000220 50 d1 9e bd 09 5c 2f 3d f9 57 0a 3e 77 7b 82 3c
       -0.07754767 0.04281238 0.13510121 0.015928013
000230 c4 0c 9a bd a1 1d 01 3e 8a ef 9a bd 1f 48 19 bc
       -0.07521966 0.12608959 -0.0756522 -0.009355574
000240 93 4f 00 3d 8c 49 69 3d cf ab 01 bd 7c 76 77 3d
       0.031325888 0.056954905 -0.03165799 0.06041573
000250 93 64 cc bc c9 70 a3 3d ec a2 df 3d 0f ac 9c 3d
       -0.024950301 0.079804964 0.10919747 0.07650005
000260 e4 61 16 be b4 2d f6 3d 8a 91 61 3d ff 06 1a bc
       -0.1468578 0.12020436 0.055070437 -0.009401082
000270 95 d7 b2 3d d8 fc d1 bc 8e 1a 1d 3d c4 c1 69 bd
       0.08732525 -0.02563326 0.038355403 -0.057069555
000280 83 5c 23 bc 17 a4 0e be 57 5c 28 be b7 90 8e 3d
       -0.009970787 -0.13929783 -0.16441475 0.06961196
000290 3a d4 9d bb 3c ac 1e bd 11 41 29 3d c2 d9 05 3d
       -0.004816559 -0.038738474 0.041321818 0.032678373
0002a0 5b 0b 94 3d 2f bd da bd 92 32 bd 3c 22 70 fd 3d
       0.072287284 -0.10680615 0.023095403 0.12374903
0002b0 61 46 05 bd f7 89 71 3d 8a 33 74 bd 5c 72 c1 bd
       -0.03253782 0.058969464 -0.059619464 -0.094456404
0002c0 63 ff 14 3e a6 56 44 3d 14 f7 15 3e a5 27 84 3d
       0.14550547 0.047934197 0.14645034 0.06452874
0002d0 4b 65 05 be 29 8f 53 bc 4e fd 38 ba a6 d0 3b bb
       -0.13026921 -0.01291255 -0.00070567883 -0.00286583
0002e0 d5 d5 77 3c 6c 66 2f bc 7b 2d e8 3d 71 92 39 3c
       0.015126665 -0.010705572 0.113368 0.011326418
0002f0 c4 52 5b 3d 36 39 81 3d bc de 82 bc 85 eb 73 3c
       0.05354573 0.0630974 -0.015975349 0.014887695
000300 fc 46 c4 bd 06 fc b9 3d 81 31 81 bd 94 aa 89 3a
       -0.09583852 0.09081273 -0.0630827 0.0010503107
000310 cb 15 89 3c 9d 1a b8 3d cd 81 7a bc ee 28 19 be
       0.016734025 0.08989451 -0.015289736 -0.1495702
000320 b1 38 39 3d e6 e4 5c 3d 9b 9b 03 be e6 e0 e8 bc
       0.04522008 0.053929232 -0.12852328 -0.028427552
000330 09 7d 5a 3c 57 0d 9d bd f3 02 3d bd 2b 2c 42 3e
       0.013335475 -0.0766856 -0.04614539 0.18962161
000340 6f 69 56 bc 18 97 d8 3d e4 41 99 bd 88 28 a9 3c
       -0.013086661 0.10575694 -0.07483271 0.02064921
000350 3f 23 05 bd 0e f6 5d 3e 6b c2 14 be ff 3c bd bd
       -0.032504316 0.21675894 -0.1452729 -0.0924015
000360 f1 af 32 be c2 b0 b4 3d c2 07 6d 3d bf 0f ce bc
       -0.17449929 0.088227764 0.057868727 -0.025153993
000370 a9 77 75 3d c8 8e 46 3e 62 78 31 bd 3a 02 ba 3d
       0.05992857 0.19390404 -0.043327697 0.09082456
000380 d6 5c 0f 3e 0e 29 38 3d 69 ca ae bd 31 ec e1 3d
       0.14000258 0.044961028 -0.085347004 0.11031378
000390 f2 73 c7 bc e0 47 49 3b 8b f0 64 3e 6f e7 98 3d
       -0.02434728 0.0030713007 0.22357385 0.074660175
0003a0 f9 60 a1 bd f1 bf 01 3e a6 bc 99 bd 74 7d 9a 3d
       -0.07879824 0.12670876 -0.07506685 0.075434595
0003b0 0b 3f e8 3d 0e a0 86 bc 28 7a ee 3d 65 59 1f be
       0.113401495 -0.016433742 0.11644393 -0.15561445
0003c0 cf c0 3d bd da c3 08 3d 50 1e 9c 3d 16 7c 08 3a
       -0.046326455 0.033389904 0.07622969 0.00052064785
0003d0 fc d3 02 3e d2 93 02 3e 0f 95 b4 3d 7d d7 5f bd
       0.12776178 0.12751701 0.08817493 -0.054648865
0003e0 ea 0f 15 bd 5e 83 d2 bc 4c 1a 01 be 84 84 c3 3c
       -0.03639213 -0.025697406 -0.12607688 0.0238669
0003f0 c8 64 50 3d 20 25 d3 3c d6 76 8e 3c 4c 57 82 bd
       0.050877362 0.025774539 0.01739065 -0.06364307

network_body.linear_encoder.seq_layers.0.bias f4 [128]
000000 d8 97 23 3d 6a b6 85 3d 74 65 58 3d ec d2 d3 bd
       0.03993973 0.06528933 0.05283113 -0.103429645
000010 fb 39 cc 3c 8c 7e 38 bd e1 fa f5 3d d3 5c 50 bd
       0.024929991 -0.04504256 0.12010742 -0.050869774
000020 d0 5d 14 bc c2 8b b9 3d 5d e1 f9 3d 42 13 86 3c
       -0.00905557 0.0905986 0.12201188 0.016366605
000030 29 d0 a6 3d 1e 32 77 bd 5b 19 ae 3c 7c e3 49 bd
       0.08145172 -0.06035053 0.021252325 -0.04928921
000040 d7 08 f2 3c 9d f0 81 3d c8 0e 47 3d c5 e5 9f 3d
       0.02954523 0.063447215 0.04859808 0.07807497
000050 80 44 e6 ba fb fe 33 bd f6 6f a5 3d ed fd 02 bd
       -0.0017568022 -0.04394434 0.080779955 -0.031980444
000060 4b a1 8d 3d 2c 0d 51 bd 0a 98 d4 3c 32 a7 02 bd
       0.0691553 -0.051037952 0.025951404 -0.03189773
000070 78 90 8a bd 22 79 2e 3d 7c 63 83 bd ed d0 8f bd
       -0.067658365 0.04259599 -0.064154595 -0.07022271
000080 c4 97 88 3d 9f 99 59 3d 35 5e a5 3d 74 93 4e 3d
       0.06669572 0.05312502 0.08074609 0.05043359
000090 fc 36 2e bd ba 44 9d bd 8e 30 16 3d a7 0e 8b bd
       -0.042532906 -0.07679124 0.0366674 -0.06789904
0000a0 92 9f 98 3d f0 78 01 3d 59 57 10 bd 84 f9 6c bd
       0.074523106 0.031609476 -0.03523955 -0.057855144
0000b0 00 48 8c 3d ef a1 d2 bc 21 2a 8b 3c a4 09 d7 bd
       0.068496704 -0.025711982 0.016987862 -0.10499886
0000c0 f0 26 cc 3d f1 7b 27 3d 51 9b 58 3d 47 7d c7 bd
       0.09968364 0.040889684 0.052882496 -0.09740692
0000d0 6f 43 f4 bc b3 f8 9a 3c b2 57 ff bc 98 44 63 3d
       -0.029817311 0.018917417 -0.031169746 0.055485338
0000e0 71 50 6c 3c 46 b0 7f 3d ae a2 6e 3d bf 33 ec 3b
       0.014423476 0.062423967 0.058260612 0.007208317
0000f0 f2 7c c1 bc 28 6c 3b bd ed 1a 4d bd 31 fd e1 bd
       -0.023619149 -0.045757443 -0.050074507 -0.110346206
000100 8b a2 16 3d c8 5b b7 bd 6e 0b 07 3d 52 67 ef bc
       0.036776107 -0.08953053 0.032969885 -0.029224072
000110 07 c0 a8 3d aa 84 31 3d 7f 74 32 bd 75 c7 a0 3d
       0.08239751 0.04333941 -0.04356813 0.078505434
000120 4c 51 51 bd f3 40 5f bd a9 26 80 3c 3a 05 e4 3d
       -0.05110292 -0.0545053 0.015643435 0.111338094
000130 e5 54 ae bd ef 78 e3 bc 31 af 6d bb c8 42 d0 bb
       -0.08512286 -0.027767627 -0.0036267752 -0.006355617
000140 50 62 1b 3b f9 ef c9 bc 00 e7 a0 bd e4 34 94 bc
       0.0023709722 -0.02465056 -0.0785656 -0.018091626
000150 9a 98 a4 3d a6 99 cf 3d ca 24 9c bd 2e 5c 4a bd
       0.08036919 0.10136728 -0.076242045 -0.049404316
000160 60 8d 96 bd 36 e2 66 bd 55 d6 b0 bc 04 9e 6f 3d
       -0.07351184 -0.056368075 -0.021586576 0.058500305
000170 4d 52 24 bd ee 14 50 bd 5d a1 f9 3c f8 a1 99 bd
       -0.04011755 -0.05080121 0.030472452 -0.07501596
000180 ff b5 a0 3a d4 06 0d 3d 1d 6b 44 bd 2c ef 33 3d
       0.001226127 0.03443034 -0.047953714 0.043929264
000190 89 b9 6a 3d 3f 41 4e 3d ef f0 10 bd 2f f3 42 bd
       0.057305846 0.050355192 -0.035386022 -0.0475952
0001a0 68 00 ca bc 83 b0 06 bd bd f0 2f bd 62 6b 04 bd
       -0.024658397 -0.03288318 -0.042954195 -0.03232897
0001b0 7f 66 df 3b ad f1 0b 3d 5a b3 93 3d 04 d8 43 bd
       0.0068176384 0.034166027 0.07211943 -0.04781343
0001c0 fb 64 81 bc e1 28 f3 3c 2f 88 48 3d 1d 2b 14 3c
       -0.015795222 0.029682579 0.048958 0.009043482
0001d0 7c 7c db bd 19 40 05 bd 6f b0 24 bd 3e ba 86 3d
       -0.10717103 -0.03253183 -0.040207323 0.06578492
0001e0 e9 37 c5 3d ec ec b2 3a f4 62 72 bb f3 ce d8 3c
       0.09629805 0.001365093 -0.003698525 0.026465869
0001f0 fd 7a de 3c 16 52 8f 3c 5e 5c b2 bb 00 58 e7 3b
       0.027158255 0.017495196 -0.00544314 0.007060051

network_body.linear_encoder.seq_layers.0.weight f4 [128, 29]
000000 e7 3a 68 be e1 8a c6 bd f2 71 aa 3e 6f 65 93 3d
       -0.2267872 -0.09694458 0.33290058 0.07197081
000010 b4 fc 99 be 6e eb 2d be 1f f9 cd 3e 9b 28 cc 3d
       -0.3007561 -0.1698434 0.40229127 0.099686824
000020 0d d4 95 be e4 b9 5d be a0 bf 0f be 46 46 c4 be
       -0.29263344 -0.21652943 -0.14037943 -0.38334864
000030 6b 94 90 3e 4f fc 11 3e cd ff 2b 3e 56 1e c5 3b
       0.28238234 0.14256404 0.16796799 0.006015579
000040 7b 1c 96 bc ff 77 ea bd de b0 c7 3c 40 47 08 3f
       -0.018324127 -0.11448669 0.024376329 0.5323372
000050 b7 aa 6c be b1 a3 52 bd e5 90 38 be 27 48 13 bd
       -0.23111998 -0.05142564 -0.18024023 -0.03595748
000060 cd b2 d4 3e d0 c8 e7 3d eb 57 a0 3d b6 23 86 bd
       0.41542664 0.11317599 0.07829269 -0.0654978
000070 e8 18 b4 3d 38 84 f5 3d e7 96 ae bd 03 77 8f bd
       0.08793813 0.11988109 -0.08524876 -0.070051216
000080 39 a7 69 be 97 f0 42 be 8c 71 66 be 23 28 c6 bd
       -0.22817697 -0.1903709 -0.22504252 -0.09675624
000090 2f 1a ed bc 04 e6 c7 3d 31 e5 d5 3e fa 40 0d be
       -0.02894315 0.09760669 0.41776422 -0.13794318
0000a0 30 c0 53 be 53 db 39 3d 32 db 08 be 68 d6 0d 3a
       -0.20678782 0.04537518 -0.13364866 0.0005410672
0000b0 2d 58 34 bd c0 88 09 be ff f1 db bc 54 0d e1 be
       -0.044029403 -0.13431072 -0.026848791 -0.4395548
0000c0 c0 40 80 be 33 4d 87 be 23 d1 a6 bd 6b 47 5e 3d
       -0.250494 -0.26426086 -0.081453584 0.05426733
0000d0 e6 5b 34 3e 20 8f 3c bd ad c4 f4 3c 18 b8 4e be
       0.17613181 -0.046034932 0.029878939 -0.20187414
0000e0 8f d2 b6 bc 3e 95 64 3e 39 4a 20 bd 5c e0 64 3d
       -0.022317199 0.22322556 -0.039133284 0.05587803
0000f0 aa fe 4b be 84 73 b9 be 0e b2 6b ba bf 52 9d 3e
       -0.19921365 -0.36220944 -0.0008991071 0.30727193
000100 af 93 d3 bd 95 26 92 be a0 b9 5e 3e 37 d3 be 3d
       -0.10330903 -0.2854506 0.21750498 0.0931763
000110 7c 15 34 3e 90 3f c4 be 16 73 1d 3e dd 4f c1 be
       0.1758632 -0.38329744 0.15375933 -0.37756243
000120 16 f2 89 3e 6a 2f 19 3d 92 71 6f 3c ee 8c 70 3b
       0.2694251 0.037398733 0.01461448 0.0036705094
000130 d8 36 c6 bd 6b bc 1b 3d 7c 39 8d bd 96 0a 5b be
       -0.09678429 0.038021486 -0.0689573 -0.21390757
000140 91 1b 98 3e e1 10 d1 bd 8d 7d ab 3d f0 ed 9f 3e
       0.29708531 -0.102082975 0.08373556 0.3123622
000150 29 94 71 3c 2f e9 09 3f 7f 9e 02 3f 62 46 c9 be
       0.014744797 0.53871435 0.51023096 -0.3931151
000160 2a 96 8d bc e3 84 2c 3e b4 91 f3 3c bf 28 2a be
       -0.017283518 0.16847567 0.029732563 -0.16617106
000170 cf ef e5 3d 9a 1c 80 3d d4 60 0e 3d 7e 8e 8f bb
       0.112273805 0.06255455 0.03476031 -0.004381
000180 89 cb d4 bd a2 51 d3 3d 99 6d 82 bd 15 de 14 be
       -0.10390384 0.103183046 -0.0636856 -0.14537843
000190 00 90 82 bd 71 63 f3 bd 77 8d 36 3e 15 0e 15 3e
       -0.06375122 -0.11884201 0.17827402 0.14556153
0001a0 03 1c 41 bd 42 42 97 3e 4b 3c b4 bb 79 b2 84 3d
       -0.047145855 0.29542738 -0.0055003515 0.064793535
0001b0 09 47 26 be 57 29 71 3c bb 45 eb bd ce f2 a1 3e
       -0.16238035 0.014719329 -0.114879094 0.31630558
0001c0 3d e5 ad be ad a1 d7 3d 6e 6f 0d 3f 27 a1 bb bd
       -0.33963957 0.10528884 0.55248153 -0.09161597
0001d0 58 1c 94 be a6 b8 64 bd 71 86 95 bd 35 7e 27 3d
       -0.28927875 -0.055840157 -0.07301033 0.040891845
0001e0 2e c1 84 bc 84 b4 d6 b9 7b 80 98 3d 69 43 8e 3e
       -0.016205397 -0.00040951755 0.07446381 0.27785805
0001f0 26 8a 19 bd 94 bb b5 be 5b 64 9d bd 61 28 51 be
       -0.037485264 -0.35494673 -0.07685157 -0.2042556
000200 36 36 ee 3e ed 8a 36 be a6 7c 60 3d 59 22 01 3e
       0.46525735 -0.17826433 0.054806374 0.12610759
000210 cb 2f b2 bd a0 5b f7 bd 70 00 67 3e 78 3f fb 3d
       -0.08700522 -0.12078023 0.2255876 0.12267965
000220 e0 e3 a6 3d 5a 37 ff 3c f3 fc 8e be 22 8f 91 bd
       0.081489325 0.031154323 -0.2792736 -0.071073785
000230 f2 31 16 3e 83 69 ab be d8 23 0f 3d 6d c0 d5 3e
       0.1466749 -0.33478937 0.034946293 0.41748372
000240 75 b4 87 3c 6a e9 4b bf 5e 57 a5 3d 4d 8f 63 3d
       0.01656554 -0.79653037 0.080733046 0.055556584
000250 36 45 85 3e 27 82 74 be c0 2f 58 3e 58 37 65 3c
       0.26029366 -0.23877774 0.21111965 0.013990246
000260 30 f1 87 3e 3b e6 0c 3e 8e 74 89 3d 36 d9 6e be
       0.265512 0.13759701 0.06711684 -0.23325047
000270 a9 5a 0f be b3 5c 23 3d 69 25 b7 bc 57 5a 94 bd
       -0.13999428 0.039883327 -0.022356706 -0.072437935
000280 2a 00 c1 be 72 9f 7b 3d d0 bc 6e 3d 3f 17 e6 ba
       -0.37695438 0.061431356 0.058285534 -0.0017554535
000290 73 6f a3 3e 8f 2d 45 3e 56 4a d5 3d e5 ae bd be
       0.31920967 0.1925566 0.10414569 -0.37047496
0002a0 0f 66 8c 3d f3 d8 93 3d 61 4d c2 3c 32 67 25 3e
       0.06855404 0.07219114 0.023718538 0.16152647
0002b0 84 16 0b bf d9 73 8b be 3d 78 2f 3d d1 92 6d 3e
       -0.5433123 -0.27236822 0.042839278 0.23200537
0002c0 fd f6 32 be fc 8c 47 be 76 1d cd bc be cb f3 be
       -0.17477031 -0.19487375 -0.025038462 -0.4761638
0002d0 91 e5 15 be 70 e6 60 bd 97 8e 7b bd eb 5a 04 3e
       -0.14638354 -0.054907262 -0.06141528 0.12925307
0002e0 23 a5 b5 be 83 5b e8 bd a4 a9 00 bd 01 13 24 be
       -0.35477552 -0.113455795 -0.031411782 -0.16022874
0002f0 3d 52 9a 3e 45 7d 97 3e 44 ae 8a bd a3 06 ec 3d
       0.30140868 0.2958776 -0.0677152 0.11524703
000300 17 ae 1a be f3 bc ac bd 15 55 c3 3e 81 d3 18 3e
       -0.15105473 -0.08434477 0.3815085 0.14924432
000310 86 ff 9e 3d e2 76 0c be d7 d0 46 3e a7 e3 33 3e
       0.07763581 -0.13717225 0.19415604 0.17567311
000320 28 da 0b be 25 1d 56 3c 2d 6e f2 bd 9e 3d 7e be
       -0.13657439 0.013068472 -0.118374206 -0.24828193
000330 e5 18 de bc d1 11 b3 bb 92 33 92 bb f3 dc 90 bd
       -0.02711148 -0.0054647704 -0.004461714 -0.07073393
000340 c4 bc da 3d c9 0a 9f 3c 55 ef 06 3c f5 7b 67 3d
       0.106805354 0.019414322 0.008235772 0.0565147
000350 2c 54 a9 3d dc fa 7b 3e 7f 2e fa 3d db aa 97 bd
       0.08268008 0.24607414 0.122159 -0.07405635
000360 40 53 f6 be 14 e2 5e 3e d0 9a 8f 3d 90 af 9d be
       -0.4811039 0.2176593 0.0701195 -0.30798006
000370 5e 6b e1 3e eb a1 0b 3e 81 64 35 3e ba 7b 2f 3e
       0.44027227 0.13635986 0.1771412 0.17137042
000380 21 06 ac 3e 12 48 a1 3d ad 20 25 be c2 4f 84 3e
       0.33598426 0.078750744 -0.16125746 0.258421
000390 d3 59 21 3e 26 bc 58 3e f1 33 8a 3e c3 f3 05 3d
       0.15756921 0.21165523 0.26992753 0.032703172
0003a0 1d 01 74 be 12 4e 5b bb c9 1f 8b 3b ca c3 7d 3e
       -0.2382855 -0.0033463282 0.0042457324 0.24781719
0003b0 66 8e 76 3e cb 25 b5 bb 64 c2 39 3d 76 94 49 bc
       0.24077758 -0.005528187 0.0453514 -0.012303462
0003c0 f2 fa 58 3e 20 db 4b be 34 f1 0f 3d 7b f0 50 bd
       0.21189478 -0.19907808 0.03514214 -0.05101059
0003d0 60 b6 b1 bd 9b 47 1c 3e 79 b2 43 3e 90 87 ad 3d
       -0.086773634 0.1526169 0.1911105 0.08473122
0003e0 d3 c2 a3 3c c9 59 72 3d 22 ab 7b 3c 8c 4b a0 3d
       0.01999036 0.059167657 0.015360625 0.078269094
0003f0 68 96 2d be 2d 58 93 3d a5 78 22 bb 49 60 32 3e
       -0.16951907 0.071945526 -0.0024791148 0.17419542

network_body.linear_encoder.seq_layers.2.bias f4 [128]
000000 1b 9b 75 3d 55 fb d5 bd a5 61 a0 bc 38 be 92 3c
       0.059962373 -0.104483284 -0.01957781 0.017912969
000010 51 0a 06 bd 38 d4 80 3d dc e6 e0 bd dd cc 58 3d
       -0.032724682 0.062904775 -0.10981533 0.052929748
000020 7b 60 d1 3c a6 b0 33 bd 18 44 0d be bf 9e 8f bc
       0.0255587 -0.043869637 -0.13795507 -0.01753175
000030 93 d1 06 3d d7 34 bd bd 34 e3 f6 3c 0c 5e b4 bc
       0.03291471 -0.09238594 0.030137636 -0.022017501
000040 29 91 c3 bb cd 39 7c bd 28 a0 44 bc 92 97 05 bd
       -0.005968232 -0.06157856 -0.012001075 -0.03261525
000050 11 05 81 bb d7 6b 67 bd c9 ed 12 be 31 74 16 be
       -0.0039373715 -0.05649933 -0.1434852 -0.14692761
000060 4d 4b e2 3d 2c 8d ce bc 88 d5 cb bd de 6a 4f bc
       0.11049519 -0.0252138 -0.09952837 -0.0126597565
000070 b0 97 bc bd 6b 8b 38 bd 58 22 52 bd d5 33 9d 3d
       -0.092086196 -0.045054834 -0.051302284 0.07675902
000080 4f 44 e2 3c 9b 1c c6 3b 24 d2 01 3e 38 7f c7 bd
       0.027620463 0.0060458905 0.12677819 -0.09741062
000090 b0 f4 9c 3c a9 91 99 3b bd d9 59 3d 5e ba ea bc
       0.019159645 0.0046865535 0.053186167 -0.02865332
0000a0 14 f7 d2 bd 25 79 bb 3d 23 9d 7b bd ae 80 e2 bc
       -0.10301033 0.09153966 -0.061429154 -0.02764925
0000b0 21 29 b1 3d 62 43 79 bc 38 21 ce 3c 5a 1b 0e bd
       0.08650423 -0.015213819 0.025162324 -0.034694053
0000c0 e0 5f cd bd b1 90 8d 3c 66 39 25 bd bb b0 55 bd
       -0.10028052 0.017280908 -0.040337943 -0.052170496
0000d0 41 54 65 3d 00 f8 75 bc 55 31 7b bd 8e 4d 93 bd
       0.055988554 -0.015012741 -0.061326344 -0.07192527
0000e0 91 2a 12 bd 79 92 9b 3d a3 2f f8 bd fd 9c 3b bc
       -0.035685126 0.07596297 -0.12118461 -0.011451003
0000f0 14 19 75 bd 8c 5e 18 bd ef f5 41 bc 72 27 ba 3c
       -0.05983837 -0.037199542 -0.01183842 0.022723887
000100 a4 e5 3d 3d 99 0e 7e bd e5 e6 8c 3d 7b 07 2e 3c
       0.04636158 -0.06202564 0.06879977 0.010621901
000110 d0 65 e2 bd 62 4c 04 be 67 f1 6b bd ed 77 f6 3d
       -0.110545754 -0.12919763 -0.057603266 0.12034593
000120 e4 4a b7 bd b4 49 91 bd 4e c2 85 3b 73 57 41 3d
       -0.08949831 -0.07094136 0.004082001 0.04720254
000130 3f 2f 91 3c 68 cb 71 3c 78 67 2f 3d 00 2f 89 bd
       0.017722724 0.0147579685 0.042823285 -0.06698418
000140 bf ca 25 bb d4 89 8d bd b6 77 2a 3d 24 89 7b 3c
       -0.0025297848 -0.06911054 0.04161807 0.015352521
000150 62 b2 50 3c ee 26 67 bd 8c 1b 1b 3c 54 92 ea 3c
       0.012737842 -0.05643361 0.009467017 0.028634228
000160 c4 34 91 3d 73 7b 90 bd 53 02 42 bc 24 ec c4 3d
       0.07090142 -0.07054796 -0.011841374 0.09615353
000170 df df c5 bd 0c 67 74 bd 8a 29 12 3e 98 e7 db bd
       -0.09661841 -0.059668586 0.14273658 -0.107375324
000180 48 36 df bc 53 4f c6 bd d9 96 d2 3d 10 d7 d0 bd
       -0.027247563 -0.09683099 0.10282678 -0.1019727
000190 2b c2 04 bc a2 3b 16 bd 20 0a 04 be 7c 3a a3 bd
       -0.008102934 -0.036677964 -0.12894487 -0.079701394
0001a0 e6 da 0e 3c e3 ad 1a 3d b6 d8 d1 3d 06 0e 78 bd
       0.008719182 0.037763488 0.102464125 -0.06056025
0001b0 73 ce f2 bd 54 10 bf bd ce 22 83 bd b6 9a dc 3d
       -0.11855783 -0.09329286 -0.06403123 0.10771696
0001c0 c0 ff 41 3d 67 7e 87 3c 10 08 a4 bd 74 4b 50 3d
       0.047363043 0.016539766 -0.0800935 0.050853208
0001d0 32 3a 70 bc 40 14 b7 bd fe ae f9 bd 92 19 c6 3d
       -0.014662312 -0.08939409 -0.1219158 0.09672846
0001e0 e0 a8 3d 3d 92 3f 75 3c 4b 45 8c 3d 95 4a 22 3d
       0.04630363 0.01496877 0.06849154 0.03962191
0001f0 a9 5d d6 bc f4 1c 7b bd 94 b8 cd 3b 40 96 88 3c
       -0.026167708 -0.06130691 0.006278107 0.016673207

network_body.linear_encoder.seq_layers.2.weight f4 [128, 128]
000000 65 9a f2 bd fd 94 cd 3c b6 0c a0 bc 17 a1 04 3d
       -0.11845855 0.025095457 -0.019537311 0.03238019
000010 81 0e e6 3b ba 21 a1 bd 3b ca 3a 3e df e9 f3 3d
       0.007020772 -0.07867761 0.18241207 0.11909842
000020 11 6b 49 3e 37 b2 5c bd 91 4a 9c ba 34 d0 2e be
       0.19669749 -0.053880896 -0.0011924078 -0.1707161
000030 3d 50 24 3e f1 59 09 be 3b a5 26 be eb 68 b5 3d
       0.16046233 -0.13413216 -0.16273968 0.08857902
000040 e4 94 ce 3d 30 b4 8a be 8d 8f 7d bd ef f3 ef 3d
       0.100869924 -0.27090597 -0.06190448 0.117164485
000050 99 93 a4 bd b8 85 18 bd e4 3a c0 3d 1e 3f 28 be
       -0.080359645 -0.0372369 0.093862325 -0.16430327
000060 12 8b 15 3e 55 df 60 bd 90 ac ab bc 73 15 12 be
       0.14603832 -0.054900486 -0.020956308 -0.14265995
000070 6e 06 3b be 69 ba 9c bb a3 fb af bd 41 3e 52 3e
       -0.18264171 -0.004782964 -0.08592918 0.2053156
000080 83 62 8c be 86 ac 12 be 32 e5 42 be c9 cb ff 3d
       -0.27418908 -0.14323625 -0.19032744 0.12490041
000090 be 3b 90 bc b3 4d 6d bd 78 91 17 be 5c 9e 4a bd
       -0.017606612 -0.057935428 -0.14801586 -0.04946743
0000a0 d2 90 06 3e 60 b0 41 3e 33 41 40 be 46 e4 8a bb
       0.13141182 0.18914938 -0.18774872 -0.004238638
0000b0 ac 94 e6 3d 6c 14 59 3d 9c c2 92 3c 5c 4a 25 bc
       0.11258826 0.05299799 0.017915063 -0.010088529
0000c0 0e b4 61 be 80 d0 2d 3e d5 6a 71 3c cf 6b 90 be
       -0.22041342 0.16974068 0.014734943 -0.2820725
0000d0 be bf 9c bd b8 7d 7b 3d 1a 08 b9 bd 83 c5 40 bc
       -0.076537594 0.06139919 -0.090347484 -0.01176584
0000e0 ec 84 1e 3e 6b fa 02 be 08 73 60 3d 71 e3 6f bd
       0.15480393 -0.1279084 0.054797202 -0.058566514
0000f0 64 55 65 bd 50 b6 30 be 15 74 c6 3d cc 62 e1 3d
       -0.055989638 -0.17257047 0.0969011 0.11005172
000100 e5 0a 14 3b 72 63 ba bd ad 3d c7 3c 1c bc 64 3d
       0.0022589501 -0.09100999 0.024321401 0.055843458
000110 af 32 1c 3e 55 48 be bd 8f 24 76 3e 65 83 6a 3e
       0.1525371 -0.0929114 0.24037383 0.22901686
000120 32 d7 fb 3d b8 12 1e 3e c3 53 2d 3e 8c 14 c5 bd
       0.122969046 0.15436828 0.16926484 -0.0962306
000130 d3 fc 2d 3a 96 1e 29 3b fc e0 5a bd 7b 4b 77 3d
       0.00066371 0.0025805584 -0.053437218 0.06037472
000140 5b a8 f4 bd 38 32 72 be d1 3d a2 bd e8 11 bb 3d
       -0.11946174 -0.2365197 -0.07921947 0.09134275
000150 94 d1 24 3e 5f 16 e9 bd 4d 8b 1b be 2b 34 06 bd
       0.16095573 -0.1138122 -0.15189858 -0.032764595
000160 38 0f e9 bd e4 78 0b 3e 30 fb ab bd 9d c1 b4 3d
       -0.11379856 0.13620335 -0.083975196 0.08825991
000170 dd 5c 78 3e 47 65 a2 3c 38 54 f1 3c a3 6c c0 bd
       0.24254175 0.019823683 0.029459104 -0.09395721
000180 91 69 3e 3d 2f 5d 61 3d 87 4e 1f 3e 6f 64 ff 3b
       0.046487395 0.055020507 0.155573 0.007793955
000190 68 fb 1c 3d 10 98 cb 3c c6 12 e1 3d d3 d0 04 3e
       0.038325697 0.024852782 0.10989909 0.12970285
0001a0 d9 eb 29 be bb 30 b2 3c 1c db 1b bc dd 26 3f 3e
       -0.16593875 0.021751752 -0.009512689 0.18667169
0001b0 d7 eb 0d be 90 73 a4 be 0f cc 8f bd f5 b4 0c 3e
       -0.13859497 -0.32119417 -0.07021343 0.13740905
0001c0 24 5b 30 be ae be 28 be 03 0b 2b 3e 1b 67 e4 3d
       -0.17222267 -0.16478989 0.1670342 0.11152478
0001d0 2d dc 9a bd d8 e3 ee 3d ff de 6a 3b fd a8 97 bd
       -0.075615264 0.116645515 0.0035838482 -0.07405279
0001e0 5f 11 cf 3d 07 67 84 3d f2 a4 6f 3c 06 ec e6 bc
       0.10110735 0.064649634 0.014626728 -0.028188717
0001f0 aa f9 de 3d 35 d9 1e be 9d 9b a1 3d c6 6d 19 bd
       0.108874634 -0.15512545 0.07891009 -0.037458204
000200 ec 2d 47 bd 17 c1 4f be 76 37 87 3d da 14 84 3d
       -0.04862778 -0.20288502 0.06602375 0.064492896
000210 3f 59 cb 3d 64 7d bf bc a2 6b de 3d fc 6d 78 3d
       0.09929132 -0.02337522 0.10860373 0.060651764
000220 d8 de 02 bd cf b1 33 be b8 61 47 bd 6c 18 f0 3d
       -0.0319508 -0.17548297 -0.048677176 0.11723408
000230 9a e5 c3 3c 81 d8 db 3a 40 f3 99 bd 97 bf 75 bd
       0.023913193 0.0016772897 -0.075170994 -0.059997167
000240 f9 17 2a be 7e 82 1e be e7 c8 85 bd 8c 9d 59 bd
       -0.16610707 -0.15479466 -0.0653246 -0.053128764
000250 bc 92 fd bc 3b 8e 30 bd e4 8e 6b be 7b d8 d2 bc
       -0.030953757 -0.04310439 -0.23003727 -0.025737992
000260 dd 1b 57 bd 1c d4 6e bd 67 34 7d bd 62 bf 1f 3e
       -0.052516807 -0.058307752 -0.061817553 0.1560035
000270 f4 b2 8d 3d 9f 16 f7 bc b5 19 8d bd ec 50 0b 3e
       0.06918898 -0.030162154 -0.06889669 0.13605088
000280 0a cf 0f be e4 29 80 be 9e c8 f6 bd 5d ce 07 be
       -0.14043823 -0.2503196 -0.120499834 -0.13262315
000290 86 c3 b8 bd f8 e2 f9 bc 33 6a cb bd 9c e6 9b 3d
       -0.09021668 -0.030503735 -0.09932365 0.076123446
0002a0 d1 b3 8c bd 7e ce ec 3d 6c a2 ee bc 66 4a f4 3c
       -0.06870235 0.11562823 -0.029130183 0.029820632
0002b0 a2 dd e3 3d ff 1d d6 bd 6c b3 82 bd 90 40 b6 3c
       0.111262575 -0.1045494 -0.06381878 0.022247583
0002c0 0f 2b 73 3d fc e3 95 3d be 7f d4 b9 3b f3 f6 bb
       0.059367236 0.07318875 -0.00040530966 -0.0075363196
0002d0 66 40 8f 3d f6 a3 58 3d 61 bc 15 3d bb 3d 6b 3c
       0.06994705 0.05289074 0.036556605 0.014357979
0002e0 29 58 5d 3e 31 a8 2e be 75 4a 2e be ce a3 d1 3d
       0.21615662 -0.17056347 -0.1702059 0.102363214
0002f0 a7 cd fd bd 6f f4 15 3e dd d3 2a be 77 c3 b9 bb
       -0.12392741 0.14644025 -0.16682382 -0.005669053
000300 c5 59 87 bd 23 f9 0d be 1b d9 80 bc 0d 54 89 bc
       -0.06608919 -0.1386457 -0.015728524 -0.016763711
000310 05 6e c0 bd 07 f3 5a be 94 c5 5a 3e 0b 91 aa 3d
       -0.093959846 -0.2138177 0.21364433 0.08328446
000320 50 99 49 3d e7 95 0d be 26 04 2e be ee a0 25 bd
       0.049218476 -0.13826714 -0.1699377 -0.040436678
000330 1c 48 3e bd 12 a4 c4 3c db fb f0 bc 11 e9 ac bd
       -0.046455488 0.024004016 -0.029416969 -0.084428914
000340 69 f2 c2 3d 95 a4 fe 3d d8 e5 08 3e b4 58 55 3c
       0.09518892 0.12433735 0.13368928 0.013021637
000350 16 4b 33 3e e4 c0 aa bd 7d a9 85 3d 3a 94 ad 3d
       0.17509112 -0.08337572 0.06526468 0.084755376
000360 b2 95 86 be ea 92 07 be 1b 51 34 be 6e db 3f be
       -0.26286083 -0.13239637 -0.17609064 -0.1873605
000370 3c a6 81 bd b1 92 6e 3d 7f 16 9c 3d fd ae 12 3d
       -0.06330535 0.058245365 0.07621478 0.035811413
000380 ab 7d 8a bc d5 c7 3a 3c a7 15 0b 3e a0 d5 ab bc
       -0.016905626 0.011400183 0.13582478 -0.020975888
000390 c2 22 16 3d 4f 45 f3 3c ab 2b 3b 3d b1 4e 04 3e
       0.03665424 0.029696135 0.045695942 0.12920643
0003a0 64 7c ef bd e2 02 92 bd 0d d0 bd 3d 0c 59 e8 bd
       -0.116936475 -0.07129456 0.09268198 -0.11345109
0003b0 b2 7d 0c 3e 47 00 3a be 20 1e 38 3e 2e 7d 75 3e
       0.13719824 -0.18164168 0.17980242 0.23973534
0003c0 a0 82 c6 bd c8 93 c6 bd 2f 9a a8 3c ec e2 c0 3c
       -0.096928835 -0.09696156 0.020581333 0.023545705
0003d0 58 dc 7b 3d 61 4e 4f bb 6c e2 b3 3c 7e de 71 3c
       0.061489433 -0.003163241 0.021958552 0.014762519
0003e0 d4 95 14 be 9f a3 fd 3d 3d e3 65 be b3 03 f8 bd
       -0.1451028 0.12384724 -0.22449966 -0.121100806
0003f0 7d d2 45 be 7f 8d 7d be 6c c0 81 bd 0b dc 30 3d
       -0.19318576 -0.24761008 -0.0633553 0.0431786

network_body.vector_processors.0.normalizer.running_mean f4 [29]
000000 44 91 28 3f e8 64 e5 3d 27 c6 84 3b 99 95 5c 3e
       0.6584666 0.11200887 0.004051942 0.21541442
000010 36 60 ea 3e de c6 f8 3e 4f ce 8c 3e 33 6a c7 3c
       0.45776528 0.48589224 0.2750115 0.024342632
000020 0a be 50 3e be d4 dd 3e 24 96 40 3e 04 ef c2 3e
       0.20384994 0.43326372 0.18807274 0.3807298
000030 26 15 11 3b 58 ce d7 3e 5a c2 1b 3f c6 cc e2 3e
       0.002213785 0.42149615 0.6084343 0.44296855
000040 69 35 2e 3d 31 36 a7 3b 4b c5 ff 3e 40 d7 32 3f
       0.042531405 0.0051028957 0.4995521 0.69859695
000050 c6 cc e2 3e 69 35 2e 3d 31 36 a7 3b 4b c5 ff 3e
       0.44296855 0.042531405 0.0051028957 0.4995521
000060 40 d7 32 3f d5 f5 20 42 d2 8e dc 41 d3 1b 7a ba
       0.69859695 40.24007 27.569736 -0.00095408893
000070 c6 5a 3b ba
       -0.000714701
